model/checkpoints/mic90_bin10/rdkit/model_000.onnx (onnx, 67699 bytes, 14 tensors)

lv_onnx::MatMul_4 f4 [188, 27]
0	0x00000000	0.0
1	0x00000000	0.0
2	0x00000000	0.0
3	0x00000000	0.0
4	0x00000000	0.0
5	0x00000000	0.0
6	0x00000000	0.0
7	0x00000000	0.0
8	0x00000000	0.0
9	0x00000000	0.0
10	0x00000000	0.0
11	0x00000000	0.0
12	0x3f366e38	0.7126193
13	0x00000000	0.0
14	0x00000000	0.0
15	0x00000000	0.0
16	0x00000000	0.0
17	0x00000000	0.0
18	0x00000000	0.0
19	0xbf366e38	-0.7126193
20	0xbf366e38	-0.7126193
21	0x00000000	0.0
22	0x00000000	0.0
23	0x00000000	0.0
24	0xbf366e38	-0.7126193
25	0x00000000	0.0
26	0xbf366e38	-0.7126193
27	0x00000000	0.0
28	0x00000000	0.0
29	0x00000000	0.0
30	0x00000000	0.0
31	0x00000000	0.0
32	0x00000000	0.0
33	0x00000000	0.0
34	0x00000000	0.0
35	0x00000000	0.0
36	0x00000000	0.0
37	0x00000000	0.0
38	0x00000000	0.0
39	0x00000000	0.0
40	0x00000000	0.0
41	0xbf366e38	-0.7126193
42	0x00000000	0.0
43	0x00000000	0.0
44	0x00000000	0.0
45	0x00000000	0.0
46	0x00000000	0.0
47	0x00000000	0.0
48	0x00000000	0.0
49	0x00000000	0.0
50	0x00000000	0.0
51	0x00000000	0.0
52	0x00000000	0.0
53	0x00000000	0.0
54	0x00000000	0.0
55	0x00000000	0.0
56	0x00000000	0.0
57	0x00000000	0.0
58	0x00000000	0.0
59	0x00000000	0.0
60	0x00000000	0.0
61	0x00000000	0.0
62	0x00000000	0.0
63	0x00000000	0.0
64	0xbf366e38	-0.7126193
65	0x00000000	0.0
66	0x00000000	0.0
67	0x00000000	0.0
68	0x00000000	0.0
69	0x00000000	0.0
70	0x00000000	0.0
71	0x00000000	0.0
72	0x00000000	0.0
73	0x3f366e38	0.7126193
74	0x00000000	0.0
75	0x00000000	0.0
76	0x00000000	0.0
77	0x00000000	0.0
78	0x00000000	0.0
79	0x00000000	0.0
80	0x00000000	0.0
81	0x00000000	0.0
82	0x00000000	0.0
83	0x00000000	0.0
84	0x3f366e38	0.7126193
85	0x00000000	0.0
86	0x00000000	0.0
87	0x00000000	0.0
88	0x00000000	0.0
89	0x00000000	0.0
90	0x00000000	0.0
91	0x00000000	0.0
92	0x00000000	0.0
93	0x00000000	0.0
94	0xbf366e38	-0.7126193
95	0x00000000	0.0
96	0x00000000	0.0
97	0x00000000	0.0
98	0x00000000	0.0
99	0x00000000	0.0
100	0x00000000	0.0
101	0x00000000	0.0
102	0x00000000	0.0
103	0x00000000	0.0
104	0x00000000	0.0
105	0x00000000	0.0
106	0x00000000	0.0
107	0x00000000	0.0
108	0x00000000	0.0
109	0xbf366e38	-0.7126193
110	0x00000000	0.0
111	0x00000000	0.0
112	0x00000000	0.0
113	0x00000000	0.0
114	0x00000000	0.0
115	0x00000000	0.0
116	0x00000000	0.0
117	0x00000000	0.0
118	0x00000000	0.0
119	0x00000000	0.0
120	0x00000000	0.0
121	0x00000000	0.0
122	0x00000000	0.0
123	0x00000000	0.0
124	0xbf366e38	-0.7126193
125	0x00000000	0.0
126	0x00000000	0.0
127	0xbf366e38	-0.7126193
128	0x00000000	0.0
129	0x00000000	0.0
130	0x00000000	0.0
131	0x00000000	0.0
132	0x00000000	0.0
133	0x00000000	0.0
134	0x00000000	0.0
135	0x00000000	0.0
136	0x00000000	0.0
137	0x00000000	0.0
138	0x00000000	0.0
139	0x00000000	0.0
140	0x00000000	0.0
141	0x00000000	0.0
142	0x3f366e38	0.7126193
143	0x00000000	0.0
144	0x00000000	0.0
145	0x00000000	0.0
146	0x00000000	0.0
147	0x00000000	0.0
148	0xbf366e38	-0.7126193
149	0x00000000	0.0
150	0x00000000	0.0
151	0x00000000	0.0
152	0x00000000	0.0
153	0x00000000	0.0
154	0x00000000	0.0
155	0x00000000	0.0
156	0xbf366e38	-0.7126193
157	0x00000000	0.0
158	0x00000000	0.0
159	0x00000000	0.0
160	0x00000000	0.0
161	0x00000000	0.0
162	0x00000000	0.0
163	0x00000000	0.0
164	0x00000000	0.0
165	0x00000000	0.0
166	0x00000000	0.0
167	0x00000000	0.0
168	0x00000000	0.0
169	0x00000000	0.0
170	0x00000000	0.0
171	0x00000000	0.0
172	0x3f366e38	0.7126193
173	0x00000000	0.0
174	0x00000000	0.0
175	0x00000000	0.0
176	0x00000000	0.0
177	0x00000000	0.0
178	0x00000000	0.0
179	0x00000000	0.0
180	0x00000000	0.0
181	0x00000000	0.0
182	0x00000000	0.0
183	0x00000000	0.0
184	0x00000000	0.0
185	0x00000000	0.0
186	0x00000000	0.0
187	0x00000000	0.0
188	0x00000000	0.0
189	0x00000000	0.0
190	0x00000000	0.0
191	0x00000000	0.0
192	0x00000000	0.0
193	0x00000000	0.0
194	0x00000000	0.0
195	0x00000000	0.0
196	0x00000000	0.0
197	0xbf366e38	-0.7126193
198	0x00000000	0.0
199	0x00000000	0.0
200	0x00000000	0.0
201	0x00000000	0.0
202	0x00000000	0.0
203	0xbf366e38	-0.7126193
204	0x00000000	0.0
205	0x00000000	0.0
206	0x00000000	0.0
207	0x00000000	0.0
208	0x00000000	0.0
209	0x00000000	0.0
210	0x00000000	0.0
211	0x00000000	0.0
212	0x00000000	0.0
213	0x00000000	0.0
214	0x00000000	0.0
215	0x00000000	0.0
216	0x00000000	0.0
217	0x00000000	0.0
218	0x00000000	0.0
219	0x00000000	0.0
220	0x00000000	0.0
221	0x00000000	0.0
222	0x00000000	0.0
223	0x00000000	0.0
224	0x00000000	0.0
225	0x00000000	0.0
226	0x00000000	0.0
227	0x00000000	0.0
228	0x00000000	0.0
229	0x3f366e38	0.7126193
230	0x00000000	0.0
231	0x00000000	0.0
232	0x00000000	0.0
233	0x00000000	0.0
234	0x00000000	0.0
235	0x00000000	0.0
236	0x00000000	0.0
237	0x00000000	0.0
238	0x00000000	0.0
239	0x00000000	0.0
240	0x00000000	0.0
241	0xbf366e38	-0.7126193
242	0x00000000	0.0
243	0xbf366e38	-0.7126193
244	0x00000000	0.0
245	0x00000000	0.0
246	0x00000000	0.0
247	0x00000000	0.0
248	0x00000000	0.0
249	0x00000000	0.0
250	0x00000000	0.0
251	0x00000000	0.0
252	0x00000000	0.0
253	0x00000000	0.0
254	0x00000000	0.0
255	0x00000000	0.0

lr_lr_W f4 [188, 1]
0	0x3edee8e0	0.43537045
1	0x3e852993	0.2600828
2	0x3e839a21	0.2570353
3	0xbf5894d0	-0.8460207
4	0x3f16ec65	0.5895446
5	0xbf1f213d	-0.6216009
6	0xbc2d2647	-0.010568208
7	0xbf8420d6	-1.0322521
8	0x3cd6eada	0.026235033
9	0xbe99f817	-0.3007209
10	0xbddc881c	-0.10768148
11	0x3d026100	0.031830788
12	0x3d8e9eaa	0.069638565
13	0x3cce4e6d	0.02518388
14	0x3d60287e	0.054726116
15	0xbcd6c5ed	-0.026217425
16	0xbdd12e1a	-0.10213871
17	0xbef3f960	-0.47651196
18	0xbe4cf6f1	-0.20016076
19	0x3eecd5c9	0.46256855
20	0x3f3baa58	0.733068
21	0xbe3be1a0	-0.18347788
22	0xbe1a30fd	-0.1505775
23	0x3e12c592	0.1433318
24	0xbf142fe6	-0.5788559
25	0xbdda313b	-0.10653921
26	0xbe0cb089	-0.13739218
27	0x3fd41ec5	1.657189
28	0xbf92a686	-1.1457069
29	0xbd9d1d6f	-0.0767163
30	0xbf4a80a6	-0.7910255
31	0x3f4734cc	0.77814937
32	0x3d22c2f3	0.0397367
33	0xbe24c4f9	-0.16090764
34	0x3f359251	0.70926386
35	0xbea23387	-0.31679937
36	0xbdb54aa4	-0.08852127
37	0xbee60b85	-0.44930664
38	0xbe139cc0	-0.14415264
39	0x3d1ad63e	0.037801974
40	0xbe0b512d	-0.13605185
41	0xbec353d4	-0.38149893
42	0xbddf87f5	-0.109146036
43	0xbde80ce2	-0.11330582
44	0xbed4227b	-0.41432557
45	0xbcb500b5	-0.022095064
46	0x3e6c636e	0.23084804
47	0xbe227110	-0.15863442
48	0x3e6c636e	0.23084804
49	0x3e8fa67b	0.28056702
50	0x3dbd5dac	0.09246382
51	0x3f230ab6	0.6368822
52	0x3e56a456	0.20961127
53	0xbe4399f9	-0.19101705
54	0x3eec535e	0.46157354
55	0xbdcf0b41	-0.101095684
56	0xbe230b73	-0.15922336
57	0xbdd2850e	-0.102792844
58	0x3dc16d2e	0.094446525
59	0x3e96035f	0.29299447
60	0xbec6dd12	-0.38840538
61	0xbd3d951c	-0.04628478
62	0x3dc7398e	0.097277746
63	0xbe4d3d48	-0.20042908
64	0x3e835e98	0.25658107
65	0x3da44013	0.08020034
66	0xbdd5997c	-0.104296654
67	0xbe84beff	-0.25926968
68	0x3c67cf6f	0.014148577
69	0x3eb7920a	0.35853606
70	0x3e20684b	0.15664785
71	0xbc9f34be	-0.01943433
72	0xbfa38b0d	-1.277681
73	0xbe938043	-0.28808793
74	0x3f4d1429	0.80108887
75	0x3e8ba07e	0.27270883
76	0xbdd5997c	-0.104296654
77	0xbd37b0b2	-0.044846244
78	0xbf21105d	-0.62915593
79	0x3f028173	0.50978774
80	0xbf2a2529	-0.6646295
81	0xbe82a3d7	-0.25515625
82	0xbf2d7633	-0.6775848
83	0xbf1dd121	-0.6164723
84	0x3efd404f	0.49463126
85	0xbf0fa695	-0.5611356
86	0x3f4d35d0	0.80160236
87	0x3d88d0cf	0.06680452
88	0xbcabfcd8	-0.020994589
89	0x3ef62b3d	0.48079863
90	0xbf9d5879	-1.2292625
91	0x3f7a40ff	0.97755426
92	0xbeada43e	-0.3391437
93	0x3ce35e2d	0.027754867
94	0x3ee5f6b3	0.4491478
95	0xbed606a4	-0.4180194
96	0xbea662db	-0.32497296
97	0xbf0e45ab	-0.55575055
98	0x3fa06f7f	1.2534026
99	0xbea3c487	-0.31985876
100	0x3d835fa3	0.06414726
101	0x3de9b78e	0.114119634
102	0x3edfc4e5	0.43704906
103	0xbf72af0c	-0.9479835
104	0x3d52d441	0.051471952
105	0x3e50955a	0.20369473
106	0x3f1dbeb1	0.61619097
107	0xbdf78e8f	-0.12087738
108	0xbe2aaec7	-0.16668235
109	0xbf3b838e	-0.7324761
110	0x3e4e41b9	0.20142259
111	0x3f715928	0.94276667
112	0xbe864dda	-0.2623127
113	0xbf0fac65	-0.5612243
114	0xbf46e1a8	-0.77688074
115	0x3e934e0b	0.2877048
116	0x3e8629c7	0.2620375
117	0xbdb134f3	-0.086526774
118	0x3e880232	0.26564175
119	0xbf0232be	-0.50858676
120	0xbf569a7b	-0.8382947
121	0xbb6d9a54	-0.0036255317
122	0xbde2264c	-0.11042461
123	0x3f71acf6	0.9440454
124	0xbf3417b0	-0.70348644
125	0x3f3d578a	0.739617
126	0xbd87922a	-0.066196755
127	0xbdcf7c0f	-0.10131084
128	0xbdcf7c0f	-0.10131084
129	0xbf058004	-0.5214846
130	0x3ed3ad74	0.41343272
131	0x3dbe9454	0.09305635
132	0x3dbf95b5	0.09354726
133	0xbd87922a	-0.066196755
134	0xbd87922a	-0.066196755
135	0x3e94724b	0.2899345
136	0x3ea8e2e0	0.32985592
137	0x3f7f4772	0.9971839
138	0x3de7e44d	0.11322842
139	0xbeabeebb	-0.33580574
140	0x3d1659fe	0.036706917
141	0x3f54d897	0.8314299
142	0xbf4a2014	-0.789552
143	0xbf0126f7	-0.5045008
144	0xbdf9e378	-0.12201589
145	0x3dbe9454	0.09305635
146	0xbf2dd7f5	-0.6790765
147	0xbfeba340	-1.8409195
148	0x3dc7398e	0.097277746
149	0x3efe925a	0.49721032
150	0x3ea4ca0d	0.32185403
151	0x3df4b0cf	0.11947786
152	0x3ed2d705	0.41179672
153	0x3c4a0ba5	0.012331878
154	0x3d3fa94f	0.046792325
155	0xbf2a95d3	-0.66634864
156	0x3d24b794	0.040214136
157	0x3f474b0a	0.77848876
158	0xbe5d5d77	-0.21617685
159	0xbed32899	-0.4124191
160	0x3e877e25	0.26463428
161	0xbdbe84dc	-0.09302685
162	0xbe502bf5	-0.20329268
163	0xbec002a4	-0.37502015
164	0x3e4cd369	0.20002522
165	0xbe1946a5	-0.14968355
166	0xbdc95df0	-0.0983237
167	0x3cc047e7	0.023471786
168	0xbf0836ff	-0.5320892
169	0xbd0dda25	-0.034631867
170	0x3c728f8e	0.014804734
171	0x3f025c38	0.50921965
172	0xbec0f769	-0.3768876
173	0x3ee708df	0.45123956
174	0xbeefd62a	-0.46843082
175	0xbeefd62a	-0.46843082
176	0x3dee2b66	0.11629371
177	0x3eeec727	0.46636316
178	0xbed59e90	-0.41722536
179	0xbe832739	-0.25615862
180	0x3e4e6d80	0.20158958
181	0xbe18d222	-0.1492391
182	0xbf748c39	-0.9552646
183	0xbe960525	-0.293008
184	0xbed45024	-0.41467392
185	0x3e95610b	0.291756
186	0xbdeb85f3	-0.11500158
187	0xbf6108b4	-0.87903905

svc_W2_svc f4 [188, 1]
0	0x3dde90b2	0.10867442
1	0x3dd9db4f	0.10637533
2	0x3d89db5d	0.06731293
3	0xbe034e1b	-0.12822764
4	0x3e4d0c8f	0.20024322
5	0xbe74e832	-0.239167
6	0x3d9dbbba	0.077018216
7	0xbe4daf2b	-0.20086353
8	0x3d57ad9f	0.052655812
9	0xbd82c288	-0.0638476
10	0xbd3c6007	-0.045990016
11	0x3d0b404d	0.03399687
12	0x3d005be0	0.03133762
13	0x3c403f6b	0.01173387
14	0x3d007404	0.03136064
15	0xbcc4fa81	-0.02404523
16	0xbd1092e9	-0.035296354
17	0xbe63f343	-0.22260766
18	0xbe048465	-0.1294113
19	0x3e27a575	0.1637171
20	0x3ebedfa6	0.37280005
21	0xbe17a420	-0.14808702
22	0xbcc7b033	-0.02437601
23	0x3ddcc5c3	0.107799076
24	0xbe1c3c88	-0.15257466
25	0xbd1b321a	-0.037889577
26	0x3d9c5e27	0.07635146
27	0x3edf6d41	0.43638042
28	0xbea8c444	-0.3296224
29	0xbde24882	-0.11048986
30	0xbe64822f	-0.22315286
31	0x3e64b56c	0.22334832
32	0x3d1e8405	0.038700122
33	0xbd8b84ab	-0.06812414
34	0x3eb04d80	0.34434128
35	0xbe233557	-0.15938316
36	0xbda0e553	-0.0785624
37	0xbe3ef750	-0.1864903
38	0xbda29988	-0.0793944
39	0x3ce3646d	0.027757848
40	0xbd705512	-0.05867488
41	0xbd226f7b	-0.039657097
42	0xbac2fda8	-0.0014876621
43	0x3c6fb95b	0.0146315945
44	0xbdbbbe8e	-0.09167205
45	0x3b3b0a5b	0.0028540108
46	0x3d0107ae	0.031501465
47	0x3cd4195a	0.025890995
48	0x3d0107ae	0.031501465
49	0x3de38e19	0.11111087
50	0x3d417347	0.047229078
51	0x3e3da1a2	0.1851869
52	0x3c439440	0.011937201
53	0xbdbf36ba	-0.0933661
54	0x3e1003d6	0.14063963
55	0xbce16bc8	-0.027517214
56	0xbd8a58fe	-0.06755255
57	0xbced0829	-0.028934555
58	0x3cab37c0	0.020900607
59	0x3d5ffc24	0.05468382
60	0xbe01b2a5	-0.12665804
61	0xbd39c73f	-0.04535603
62	0x3d3cc4cd	0.04608612
63	0xbdc49e1d	-0.0960047
64	0x3daad00b	0.08340462
65	0xb952fc52	-0.00020121157
66	0x3d0fd36a	0.03511373
67	0xbba27428	-0.0049576946
68	0xbccb818c	-0.024842046
69	0x3da2cdab	0.07949384
70	0x3d60bc4f	0.054867085
71	0xbbd7f25b	-0.0065901703
72	0xbeb47033	-0.3524185
73	0xbda379d3	-0.079822205
74	0x3e3fd425	0.1873327
75	0x3d5c52b4	0.05378981
76	0x3d0fd36a	0.03511373
77	0xbb8246d1	-0.003975727
78	0xbe355f50	-0.1771214
79	0x3d97cc6e	0.07412039
80	0xbdda9206	-0.10672383
81	0xbc4f63a8	-0.012658037
82	0xbeaa2807	-0.33233663
83	0xbe7b9bd5	-0.24571164
84	0x3e1de683	0.15419964
85	0xbe4809f5	-0.19535048
86	0x3e5cd064	0.2156387
87	0x3dca80ae	0.09887825
88	0xbd21129b	-0.039324384
89	0x3e261aac	0.16221112
90	0xbe703d27	-0.23460828
91	0x3e66f9a8	0.22556174
92	0xbd8b6cf3	-0.0680789
93	0xbd237ee1	-0.039915923
94	0x3e50b00e	0.2037966
95	0xbe274ec8	-0.16338646
96	0xbdbdd7d3	-0.09269681
97	0xbe8349bc	-0.25642192
98	0x3eed0dbb	0.46299538
99	0xbe366d0e	-0.17815039
100	0x3d72e2d4	0.05929835
101	0x3dce586b	0.10075458
102	0x3e0bd181	0.13654138
103	0xbe9d7006	-0.3074953
104	0x39aff09d	0.00033557872
105	0xbd2879a2	-0.041131623
106	0x3dd74339	0.105108686
107	0xbd2694e6	-0.040669344
108	0xbd8d59e7	-0.06901913
109	0xbe5ca87f	-0.21548651
110	0x3c09dfa7	0.008415139
111	0x3eaacf57	0.33361313
112	0xbd261196	-0.040544115
113	0xbe02926e	-0.12751171
114	0xbe53903c	-0.2066049
115	0x3e25ee25	0.16204126
116	0x3dc6a5ac	0.09699568
117	0xbcf0fd48	-0.029417649
118	0x3d9486d5	0.0725228
119	0xbe487019	-0.19574012
120	0xbdb451d7	-0.08804672
121	0xbda86a55	-0.08223406
122	0xbda1ebea	-0.07906325
123	0x3ed4dad9	0.41573218
124	0xbe562811	-0.20913722
125	0x3e7595c4	0.23982912
126	0x3c481909	0.012213
127	0xbc22e2ed	-0.009941799
128	0xbc22e2ed	-0.009941799
129	0xbdf1c062	-0.11804272
130	0x3dfa690c	0.12227067
131	0x3b222098	0.0024738666
132	0x3b3abdff	0.0028494594
133	0x3c481909	0.012213
134	0x3c481909	0.012213
135	0x3dc42ffb	0.09579464
136	0x3dce791f	0.10081696
137	0x3e97806d	0.2959017
138	0x3d7a975d	0.061179508
139	0xbd86e5af	-0.065867774
140	0xbcac1b42	-0.021009091
141	0x3e40db44	0.18833643
142	0xbe402e5e	-0.18767688
143	0xbe3671da	-0.17816868
144	0x3ad9c4dc	0.0016614455
145	0x3b222098	0.0024738666
146	0xbe2e3f53	-0.17016344
147	0xbf0802d8	-0.5312934
148	0x3d3cc4cd	0.04608612
149	0x3dc75fcc	0.09735069
150	0x3c88e0d3	0.016708767
151	0xbb91e367	-0.0044521573
152	0x3e61ec90	0.22062898
153	0x3c942646	0.018084656
154	0x3cbc1c17	0.022962613
155	0xbe76c2e7	-0.24097787
156	0x3c8d8aa8	0.01727803
157	0x3e4cfe22	0.20018819
158	0xbd948659	-0.07252187
159	0xbdf429a6	-0.11922006
160	0x3d794171	0.060853425
161	0x3b944991	0.0045253714
162	0xbd909456	-0.07059543
163	0xbe6f5efa	-0.23376074
164	0x3e025fc9	0.12731852
165	0x3c08ecdd	0.008357254
166	0xbe090a75	-0.13382895
167	0x3d797d02	0.060910232
168	0xbe15b04d	-0.14618035
169	0xbd2f8e5a	-0.042860366
170	0xbd3e1e88	-0.046415836
171	0x3e8e3a43	0.27778825
172	0xbd9034b6	-0.07041304
173	0x3de593a0	0.11209798
174	0xbdb4de46	-0.08831458
175	0xbdb4de46	-0.08831458
176	0x3d1f935a	0.038958885
177	0x3e1ec7ec	0.15505952
178	0xbe72267d	-0.23647495
179	0xbe164f1e	-0.14678618
180	0x3dfd92f7	0.12381547
181	0x3cbcd621	0.023051323
182	0xbe117a97	-0.1420692
183	0xbd6b6c1d	-0.05747615
184	0xbe203e99	-0.15648879
185	0x3de83307	0.11337858
186	0xbb87bd14	-0.004142413
187	0xbdf219d4	-0.118213326

fs_lr_fs_lr_W f4 [77, 1]
0	0xbf7806d2	-0.96885407
1	0xbc7390ee	-0.014866097
2	0xbf250fb2	-0.64477074
3	0xbfa33989	-1.2751933
4	0xbeb832ef	-0.3597636
5	0xbf661f2a	-0.898913
6	0x3f767678	0.9627452
7	0x3ec24639	0.379442
8	0x3ff90fa5	1.9457899
9	0x3ef1bd72	0.47214848
10	0xbe583dfc	-0.21117395
11	0x3fff3145	1.9936911
12	0xbfa5be8c	-1.2948775
13	0x401248f9	2.285704
14	0xbf4970f6	-0.7868799
15	0x3eabee12	0.3358007
16	0xbf851de3	-1.0399746
17	0x3fbc9405	1.4732672
18	0xbf826d95	-1.0189692
19	0xbfdc3412	-1.7203391
20	0x3fee2ec7	1.8608025
21	0xbf1e1015	-0.6174329
22	0xbd7e8d23	-0.062146317
23	0x3d181861	0.037132625
24	0x3f905141	1.1274797
25	0xbf91486e	-1.1350229
26	0xc029150b	-2.6419094
27	0xbf55c6ac	-0.83506274
28	0x3f27f4cf	0.65607923
29	0xc00478d9	-2.069876
30	0x400db737	2.2143075
31	0x3de7dd0b	0.113214575
32	0xbedca822	-0.43097025
33	0xbe99eb9d	-0.3006257
34	0xbff09e34	-1.879828
35	0xc02ee991	-2.7330058
36	0xc014c75b	-2.3246677
37	0xbff507e7	-1.9143037
38	0x3ebd85c4	0.37016118
39	0xbe98a5e2	-0.2981406
40	0x3e986b74	0.2976948
41	0xbef51509	-0.4786761
42	0xbf9d662a	-1.2296803
43	0x3f112a89	0.5670553
44	0xc015dc9e	-2.3415904
45	0x3fecd238	1.8501654
46	0x3f8afaa5	1.0857741
47	0x3fa4fc0a	1.2889416
48	0xbfe1baca	-1.7635128
49	0xc0752fdd	-3.8310463
50	0x3ff997fd	1.9499508
51	0x3f93b83f	1.1540602
52	0xbecd8915	-0.40143648
53	0xbecd8915	-0.40143648
54	0xbecbe3a8	-0.39822125
55	0x3f5853d5	0.8450292
56	0xbdb728a0	-0.089432955
57	0x3fa7f618	1.3121977
58	0x401283a2	2.2892842
59	0xbea99dfd	-0.33128348
60	0xc07e33e4	-3.9719172
61	0x3e1f15f4	0.15535718
62	0x3eed8f0b	0.46398196
63	0x3e71d06c	0.23614663
64	0xbf08299b	-0.53188485
65	0x3f28db25	0.6595939
66	0xbedd24fa	-0.43192273
67	0xc00597d5	-2.087392
68	0x3f972784	1.1808934
69	0xbf5ea45a	-0.8696953
70	0x3f81a60d	1.01288
71	0xbf9313ad	-1.149038
72	0x3ed577e9	0.41693047
73	0xbf9c0321	-1.2188455
74	0x3f83fe6c	1.0312018
75	0x3f49427d	0.7861708
76	0xbed56d61	-0.41685012

fs_svc_W2_fs_svc f4 [77, 1]
0	0xbdb57424	-0.08860043
1	0xbd018f44	-0.03163077
2	0xbd59a3c3	-0.05313469
3	0x3d0f00ce	0.034912877
4	0x3b70387e	0.0036654766
5	0x3c67766c	0.014127355
6	0x3c310515	0.010804434
7	0x3c84f41f	0.016229687
8	0xbd17cde0	-0.037061572
9	0xbd2c7072	-0.042099424
10	0x3a88a329	0.0010424602
11	0x3dae8bff	0.08522796
12	0xbda9daa7	-0.08293658
13	0xbca42ac8	-0.020039931
14	0xbd2f5efb	-0.04281519
15	0x3bf19ad8	0.007373195
16	0xbb43510c	-0.0029802946
17	0x3c7145b6	0.014726093
18	0x3c16e1f0	0.009209141
19	0x3cd4ccdf	0.025976596
20	0x3d14e3cd	0.03635006
21	0xbbaaaa4e	-0.00520829
22	0x3d4a8eae	0.049452476
23	0x3ad0bde4	0.0015925732
24	0x3d360d06	0.044446014
25	0x3c32b331	0.01090698
26	0xbcb8539e	-0.02250081
27	0x3bbe3da4	0.005805688
28	0x3d26b3ff	0.040699
29	0x3ca88e08	0.020575538
30	0x3d801d40	0.06255579
31	0xbd3ebf20	-0.04656899
32	0xbcc67477	-0.024225457
33	0x3b998cb6	0.0046859635
34	0xbd31f495	-0.043446142
35	0x3d85fdd1	0.06542552
36	0xbd21ffbf	-0.03955054
37	0x3d67e76a	0.056617178
38	0x3d2594de	0.040425174
39	0x3d2faa62	0.0428871
40	0xbd67091e	-0.05640518
41	0xbaf9cb9f	-0.0019057876
42	0xbd87880d	-0.066177465
43	0x3cddb390	0.027063161
44	0xbcb59f9c	-0.022170834
45	0x3c60da70	0.013723955
46	0xbc8b5e39	-0.017012702
47	0x3c3dbb40	0.011580288
48	0x3c86cb8c	0.01645448
49	0xbda539c7	-0.08067661
50	0x3d9e26ab	0.07722219
51	0x3d0fb925	0.035088677
52	0xbd50008d	-0.050781775
53	0xbd50008d	-0.050781775
54	0xbd9cba39	-0.07652707
55	0x3d857dea	0.06518157
56	0x3d293cea	0.041317858
57	0x3d4d6c26	0.050151967
58	0x3dfb0028	0.12255889
59	0xbde80812	-0.11329664
60	0xbdaa5500	-0.08316994
61	0x3d5bf9f7	0.053705182
62	0x3dad178f	0.08451759
63	0xbd122af9	-0.035685513
64	0x3d563bed	0.052303243
65	0x3d87431e	0.066045985
66	0x3d658efa	0.056044556
67	0xbd885f3e	-0.06658791
68	0x3d154169	0.036439333
69	0xbd0d75d2	-0.03453619
70	0x3d31bd7e	0.043393604
71	0x3cea5783	0.028606182
72	0x3cb6eb3c	0.022328965
73	0x3d2886bc	0.041144118
74	0xbd7ff22a	-0.062486805
75	0x3d742942	0.05960966
76	0xbdc57345	-0.096411265

mfs_lr_mfs_lr_W f4 [78, 1]
0	0xbe08b7bc	-0.13351339
1	0x3d3f5f61	0.04672182
2	0xbd4330ca	-0.04765395
3	0xbe973335	-0.29531255
4	0x3bc7fd16	0.0061031682
5	0x3c0203a2	0.007935436
6	0x3def8067	0.11694413
7	0xbe51ae4e	-0.20476648
8	0xbc9f3ac5	-0.019437203
9	0x3d1a0362	0.037600882
10	0xbccc321c	-0.024926238
11	0x3d0a69e2	0.033792384
12	0x3daac2a1	0.08337904
13	0x3ce84426	0.028352808
14	0x3d916b92	0.071005955
15	0xbd021c5c	-0.031765327
16	0x3cabddce	0.020979788
17	0xbd6acd07	-0.057324436
18	0xbd12bdf5	-0.03582569
19	0xbd276186	-0.04086449
20	0xbda05955	-0.07829539
21	0xbd9f8a0b	-0.077900015
22	0x3eccb1cc	0.39979398
23	0xbec46d9d	-0.38364878
24	0x3c4c1394	0.01245584
25	0x3d49aef5	0.049239118
26	0x3dcd94f2	0.10038175
27	0xbd235adc	-0.039881572
28	0xbd370c2f	-0.044689354
29	0x3df51077	0.11966031
30	0x3ccfd9af	0.025372354
31	0x3d7b717a	0.061387517
32	0xbd7a1566	-0.061055563
33	0xbde9f84c	-0.11424312
34	0xbc8b534d	-0.017007494
35	0xbd6a9d1e	-0.057278745
36	0xbdadc98b	-0.08485707
37	0x3c8458e0	0.01615566
38	0xbe096d28	-0.13420546
39	0x3d509366	0.05092182
40	0x3e1ab785	0.1510907
41	0x3e77ca0f	0.24198173
42	0x3e40a904	0.18814474
43	0xbd76bdcc	-0.0602396
44	0xbc2a25ef	-0.010385021
45	0x3d0e541a	0.034748174
46	0x3d9c4f90	0.07632363
47	0x3bd83b0a	0.006598835
48	0x3ca872b2	0.020562503
49	0xbe0ed785	-0.13949402
50	0x3e8b6053	0.27221927
51	0xbecd0ea7	-0.4005024
52	0x3e8fe4d7	0.28104278
53	0xbdc67462	-0.09690167
54	0x3e8e6e40	0.2781849
55	0xbde3f9c1	-0.11131621
56	0xbe089691	-0.13338687
57	0xbd183399	-0.037158582
58	0xbe3d7fa3	-0.18505721
59	0x3e483798	0.19552457
60	0x3e572cf3	0.2101324
61	0xbe1f023c	-0.15528196
62	0x3c921d33	0.017836189
63	0xbe6469c4	-0.22305971
64	0x3e503e51	0.20336272
65	0xbe3a76ad	-0.18209334
66	0x3c0be35d	0.008538094
67	0xbc90d0fb	-0.017677775
68	0x3dbca094	0.09210315
69	0xbd6131aa	-0.054979004
70	0xbeda9347	-0.4269049
71	0x3e1be2cd	0.15223236
72	0x3e8bd50c	0.2731098
73	0xbe1411b1	-0.14459874
74	0x3e035e5e	0.12828967
75	0x3ee2420c	0.44191015
76	0xbee458e2	-0.44599062
77	0xbebcadc8	-0.36851335

mfs_svc_W2_mfs_svc f4 [78, 1]
0	0x3e14b057	0.14520393
1	0x3fc1e5ab	1.5148214
2	0x3d0157a8	0.031577736
3	0xbfaa0622	-1.3283122
4	0x3d8dd67d	0.06925676
5	0x3f3048b2	0.68860924
6	0xbe57f5bc	-0.21089834
7	0xbf238c53	-0.6388599
8	0xbeb152ad	-0.3463339
9	0xbedf8bac	-0.4366125
10	0xbebb04aa	-0.36526996
11	0x3e7703a1	0.24122478
12	0x3ee81af4	0.45333064
13	0x3ec571db	0.38563427
14	0xbeefb153	-0.46814975
15	0xbf0c888c	-0.54895854
16	0xbf1a3641	-0.60239035
17	0xbec14609	-0.37748745
18	0x3f8733e7	1.0562714
19	0x3da199e5	0.07890681
20	0xbe818a67	-0.25300905
21	0x3e8d3298	0.27577662
22	0x3f5b5686	0.856789
23	0xbe85c785	-0.26128784
24	0x3ccf9c30	0.02534303
25	0xbe6ba3a5	-0.23011644
26	0x3ea6c091	0.32568792
27	0x3ddeac8b	0.10872754
28	0xbf3135cb	-0.69222707
29	0x3fb19581	1.387375
30	0xbfcb5536	-1.5885379
31	0x3ee24d94	0.44199812
32	0xbee1602b	-0.44018683
33	0xbf015946	-0.50526845
34	0xbb496685	-0.0030731272
35	0xbf5e0ffd	-0.86743146
36	0x3ed8a1f1	0.4231105
37	0xbe3337b2	-0.17501715
38	0xbf03e296	-0.5151762
39	0xbee8b822	-0.45452982
40	0xbc7a5d2c	-0.015281003
41	0x3f0dce13	0.5539257
42	0x3ee1ef23	0.4412776
43	0xbf0b8c98	-0.54511404
44	0x3f0462f5	0.51713496
45	0x3f04abe8	0.5182481
46	0xbe961ff2	-0.29321247
47	0x3e82f489	0.2557719
48	0xbe0f725e	-0.14008471
49	0x3e12037f	0.14259146
50	0xbd0c1a32	-0.03420467
51	0xbeefa6d2	-0.4680696
52	0x3e9c5787	0.30535528
53	0x3e8708af	0.26373813
54	0x3ec60c6e	0.38681358
55	0xbf0ebb6e	-0.55754745
56	0xbf64eb2e	-0.89421356
57	0xbf2bba35	-0.67081004
58	0xbf7a02eb	-0.976607
59	0x3ed64779	0.41851404
60	0x3dad96f8	0.08476061
61	0x3eba5bd4	0.36398184
62	0x3eaf9d3d	0.3429965
63	0xbed253be	-0.41079515
64	0xbd1968fa	-0.03745363
65	0xbf32e597	-0.69881576
66	0x3ddd9d6e	0.10821043
67	0x3dc274db	0.09494945
68	0xbd895d5d	-0.06707261
69	0xbf0dc698	-0.55381155
70	0xbf8b58d0	-1.0886478
71	0xbe91ff18	-0.28514934
72	0x3e8eb710	0.2787404
73	0xbeafe8b9	-0.3435724
74	0x3f178d00	0.59199524
75	0x3f02a8af	0.5103864
76	0x3e5be0dd	0.21472497
77	0xbf27deb0	-0.6557417

lv_lr_lv_lr_W f4 [27, 1]
0	0xbda17789	-0.07884128
1	0x3d61979e	0.055076234
2	0x3e133b43	0.14378075
3	0xbe4a0e71	-0.19732071
4	0x3c73c4a0	0.014878422
5	0x3b9ef92c	0.004851481
6	0xbe06457d	-0.13112445
7	0xbd3f8351	-0.046756092
8	0x3da1c6c6	0.07899241
9	0xbdc8edec	-0.09811005
10	0x3e20f782	0.15719417
11	0xbd318c09	-0.04334644
12	0xbdbf019c	-0.09326479
13	0x3cbbbb19	0.022916364
14	0xbcd1f82f	-0.025631038
15	0x3dd416c9	0.103559084
16	0xbcfaf2f5	-0.030633429
17	0x3d4dc4bd	0.050236452
18	0x3d8c364f	0.06846296
19	0xbc124eb1	-0.008929894
20	0xbc0079ba	-0.007841522
21	0x3da88d55	0.08230082
22	0x3e4d444a	0.20045581
23	0xbdf4e8e9	-0.119584866
24	0x3cb0ea84	0.0215962
25	0x3d874f7d	0.06606958
26	0xbcf68ba4	-0.030095883

lv_svc_W2_lv_svc f4 [27, 1]
0	0xbc996cac	-0.018728577
1	0x3c805c95	0.015669147
2	0x3cfacd18	0.030615374
3	0xbd2ed557	-0.042683925
4	0x3b1ba31e	0.0023748348
5	0xba771026	-0.00094247086
6	0xbcdd3d6d	-0.02700683
7	0xbc5b2bf4	-0.013377178
8	0x3c826977	0.01591943
9	0xbcb50b74	-0.022100188
10	0x3d111e2b	0.03542916
11	0xbc1e983d	-0.009679851
12	0xbcaa38fe	-0.02077913
13	0x3b9aaa19	0.0047199843
14	0xbb9bfb42	-0.004760177
15	0x3cd891b5	0.026436666
16	0xbba179b1	-0.004927837
17	0x3c63b517	0.013898156
18	0x3c82ba49	0.015957968
19	0xbb2ad19a	-0.0026064874
20	0xbb104f41	-0.0022019895
21	0x3c96b34d	0.018396044
22	0x3d45a9ea	0.048257746
23	0xbcd6d3cf	-0.026224045
24	0x3bbdf956	0.0057975454
25	0x3c59e1f0	0.013298497
26	0xbc0ce788	-0.008600123

lv_mlp_net.0.weight f4 [7, 27]
0	0x3d8cd883	0.06877234
1	0xbd9eaf3c	-0.07748267
2	0x3e6c8cba	0.23100558
3	0xbe5a2021	-0.21301319
4	0x3cd9f534	0.02660618
5	0xbe5bbf4d	-0.21459694
6	0x3d85d37d	0.06534479
7	0xbd0212ce	-0.031756215
8	0x3e53ca20	0.20682573
9	0xbe14f35e	-0.14545962
10	0x3dc9a92e	0.098467216
11	0xbcc3d19d	-0.023903662
12	0xbd210346	-0.039309762
13	0x3cfd8afa	0.030950058
14	0xbe6fff50	-0.23437238
15	0x3e5070a9	0.20355476
16	0x3d1f38da	0.038872577
17	0x3de800ab	0.113282524
18	0x3e1bb0c8	0.15204155
19	0xbd801c2b	-0.062553726
20	0xbd3a3a00	-0.04546547
21	0xbe245ddb	-0.16051428
22	0xbd16ca01	-0.03681374
23	0xbe55bc54	-0.20872623
24	0x3e0ff7c0	0.14059353
25	0xbcc155b8	-0.023600444
26	0x3e3e0346	0.18555936
27	0x3c2a78dd	0.010404793
28	0x3d769615	0.060201723
29	0x3dfc1d2a	0.1231025
30	0xbec08312	-0.376
31	0x3d05a2d3	0.032625984
32	0xbdefea48	-0.117146075
33	0xbde316be	-0.11088322
34	0x3dcabf5e	0.09899782
35	0x3e026e8e	0.12737486
36	0xbe6c364f	-0.23067592
37	0x3d12b987	0.035821464
38	0xbe2fdf3d	-0.17175002
39	0xbe7f12f0	-0.24909568
40	0x3e357de1	0.177238
41	0x3d834233	0.06409111
42	0x3de0a57f	0.10969066
43	0xbe3a3bdd	-0.18186899
44	0x39693655	0.00022240852
45	0xbe4de7c4	-0.20107943
46	0x3e259895	0.16171487
47	0x3e05cec0	0.1306715
48	0xbb015b35	-0.0019738202
49	0xbbe403c4	-0.0069584567
50	0xbd083230	-0.033250988
51	0xbd656c45	-0.056011457
52	0x3e1baa80	0.1520176
53	0x3e9d9964	0.3078109
54	0x3d163c15	0.036678392
55	0x3d1f697d	0.03891896
56	0x3bd16355	0.006390015
57	0xbe1885dd	-0.14894815
58	0xbe142394	-0.14466697
59	0xbd3f2ec4	-0.04667546
60	0x3eb39920	0.35077763
61	0xbdbc3963	-0.09190633
62	0xbecb4645	-0.3970205
63	0x3cb95366	0.022622775
64	0x3d99f8e7	0.075181775
65	0x3d18bb3e	0.037287943
66	0x3e999536	0.2999665
67	0xbd4fef38	-0.050765246
68	0x3e7c2e42	0.24627021
69	0xbeca1e9c	-0.39476478
70	0xbcea10dd	-0.028572494
71	0x3dc31345	0.0952516
72	0xbec39bac	-0.38204706
73	0xbbcd63a6	-0.0062679825
74	0xbe8078f7	-0.2509229
75	0xbe472d49	-0.19450869
76	0xbd170e44	-0.03687884
77	0xbe7811b1	-0.24225499
78	0xbe773211	-0.24140193
79	0x3e458c24	0.1929174
80	0x3e1a2689	0.15053762
81	0xbdf2343c	-0.11826369
82	0x3c63b9f6	0.013899317
83	0x3c02676c	0.007959228
84	0x3dda75bd	0.10666988
85	0xbe8c8952	-0.27448517
86	0xbc1bb893	-0.009504455
87	0x3d562d07	0.052289035
88	0x3c955827	0.01823051
89	0xbd30a8d3	-0.043129753
90	0xbe9d3df0	-0.30711317
91	0x3e048bab	0.12943904
92	0xbd37e019	-0.04489145
93	0x3d7647da	0.060127117
94	0x3c2290fc	0.009922262
95	0x3e37c853	0.17947511
96	0xbe55f5a9	-0.20894493
97	0x3e79579e	0.2434983
98	0x3dfd361c	0.12363836
99	0x3d3e90e6	0.046524905
100	0xbdd82e0a	-0.10555656
101	0xbcb51c36	-0.022108179
102	0x3e6faef8	0.23406589
103	0xbd3a6763	-0.045508754
104	0x3db856e8	0.09000951
105	0x3e91e052	0.28491455
106	0x3dc42d7d	0.09578989
107	0x3deae914	0.114702374
108	0x3dbab8c7	0.09117275
109	0xbc09bc4b	-0.008406709
110	0x3e8405ad	0.2578558
111	0x3e8b03e9	0.2715142
112	0x3da8e22e	0.08246265
113	0xbdbb08ed	-0.09132562
114	0xbe8ffab4	-0.2812096
115	0x3e29eece	0.16595003
116	0xbd3cd741	-0.04610372
117	0x3df4d207	0.11954122
118	0xbd48669f	-0.048925992
119	0x3db2afaf	0.08724915
120	0xbd742b8d	-0.059611846
121	0x3e664bd8	0.2248987
122	0xbe4ac2b7	-0.1980084
123	0xbe669743	-0.2251864
124	0x3d40792e	0.046990566
125	0xbdb43c35	-0.08800546
126	0x3ea2a54b	0.31766734
127	0xbd2a98a8	-0.04164949
128	0x3e19ced7	0.1502031
129	0xbdfe313c	-0.124117345
130	0x3bc7bcaa	0.0060954886
131	0x3ee1ee75	0.4412724
132	0xbdc7899c	-0.09743044
133	0xbda8ccde	-0.082422
134	0xbdc78cd2	-0.09743656
135	0x3da48108	0.08032423
136	0x3d883941	0.06651545
137	0xbe94430b	-0.289574
138	0x3e1f98ac	0.15585583
139	0xbd8d3a8e	-0.06895934
140	0x3df12846	0.1177526
141	0xbe329e7e	-0.17443272
142	0xbdc58cf2	-0.09646024
143	0xbdc69405	-0.09696201
144	0xbd9bc3a6	-0.07605676
145	0xbe2ce22d	-0.16883154
146	0x3c8d21b7	0.01722799
147	0x3e702b23	0.23453955
148	0x3de1d5f1	0.11027134
149	0xbe8b8cde	-0.2725591
150	0xbc919bd4	-0.0177745
151	0xbb912e13	-0.0044305413
152	0xbde00b2f	-0.10939633
153	0xbeb073d4	-0.3446337
154	0xbdfa22cf	-0.122136705
155	0xbcb76468	-0.022386745
156	0xbecf6da7	-0.40513346
157	0x3dec8abd	0.115499
158	0x3d0e2a58	0.03470835
159	0xbe173d56	-0.14769492
160	0xbe20f616	-0.15718874
161	0xbd7996af	-0.06093472
162	0xbbf380d2	-0.007431128
163	0x3e104fc3	0.14092927
164	0x3e44827e	0.19190404
165	0xbe70f12b	-0.23529498
166	0x3e059d63	0.1304832
167	0xbdaf47ee	-0.085586414
168	0xbe41ba33	-0.18918686
169	0xbe68ac36	-0.22721943
170	0x3ddb6373	0.10712328
171	0xbce71303	-0.028207308
172	0x3df1b9f1	0.11803044
173	0xbdb7a9ca	-0.089679316
174	0xbe806eaf	-0.25084445
175	0xbd239d9e	-0.039945237
176	0x3dc9c0c7	0.098512225
177	0x3d971629	0.073772736
178	0xbe0df222	-0.13861898
179	0x3df9895a	0.12184401
180	0xbca21f29	-0.019790249
181	0xbd6bc244	-0.057558313
182	0x3df86eff	0.12130546
183	0x3d8c2f3d	0.068449475
184	0x3ddc05f9	0.10743327
185	0xbe206e28	-0.15667021
186	0x3e4f3f74	0.20239049
187	0x3e1d37b0	0.15353274
188	0x3e853b5e	0.26021856

lv_mlp_net.0.bias f4 [7]
0	0xbe20747f	-0.1566944
1	0xbb9af56c	-0.0047289636
2	0xbdba461f	-0.09095406
3	0xbe53b05f	-0.20672749
4	0x3d9356b0	0.07194269
5	0x3ea12e88	0.31480813
6	0x3d8e6f1e	0.06954788

lv_mlp_net.3.weight f4 [2, 7]
0	0xbeab6a59	-0.33479574
1	0xbe826f01	-0.25475314
2	0x3eec6d6f	0.4617724
3	0xbe8758c8	-0.26434922
4	0x3eebc832	0.46051174
5	0x3edcc1f8	0.43116736
6	0xbead4c94	-0.33847487
7	0xbe7934d9	-0.24336566
8	0xbeb9da7b	-0.362995
9	0xbeaea946	-0.3411352
10	0xbe02f85a	-0.12790051
11	0x3ec999ad	0.39375058
12	0x3e84bf14	0.2592703
13	0xbea2af5f	-0.31774423

lv_mlp_net.3.bias f4 [2]
0	0xbc3a15f1	-0.01135777
1	0x3efc0d40	0.4922886

lv_mlp_net.6.weight f4 [1, 2]
0	0xbf76d0fa	-0.9641262
1	0xbf358ca7	-0.70917743
