model/checkpoints/mic90_bin10/chemeleon/model_000.onnx (onnx, 524443 bytes, 12 tensors)

lv_onnx::MatMul_4 f4 [1813, 58]
0.0 0.0 0.0 0.0 0.0 0.0 0.0 0.0
0.0 0.0 0.0 0.0 0.0 0.0 0.0 0.0
0.0 0.0 0.0 0.0 0.0 0.0 0.0 0.0
0.0 0.0 -0.8568118 0.0 0.0 0.0 0.0 0.0
0.0 0.0 0.0 0.0 0.0 0.0 0.0 0.0
0.0 0.0 0.0 0.0 0.0 0.0 0.0 0.0
0.0 0.0 0.0 0.0 0.0 0.0 0.0 0.0
0.0 0.0 0.0 0.0 0.0 0.0 0.0 0.0
0.8568118 0.0 0.0 0.0 0.0 0.0 0.0 0.0
0.0 0.0 0.0 0.8568118 0.0 0.0 0.0 0.0
0.0 0.0 0.0 0.0 0.0 0.0 0.0 0.0
0.0 0.0 0.0 0.0 0.0 0.8568118 0.0 0.0
0.0 0.0 0.0 0.0 0.0 0.0 0.0 0.0
0.0 0.0 0.0 0.0 0.0 0.0 0.0 0.0
0.0 0.0 0.0 0.0 0.0 0.0 0.0 0.0
0.0 0.0 0.0 0.0 0.0 0.0 0.0 0.0
0.0 0.0 0.0 0.0 0.0 0.0 0.0 0.0
0.0 0.0 0.0 0.0 0.0 0.0 0.0 0.0
0.0 0.0 0.0 0.0 0.0 0.0 0.0 0.0
0.0 0.0 0.0 0.0 0.0 0.0 0.0 0.0
0.0 0.8568118 0.0 0.0 0.0 0.0 0.0 0.8568118
0.0 0.0 0.0 0.0 0.0 0.0 0.0 0.0
0.0 0.0 -0.8568118 0.0 0.8568118 0.0 0.0 0.0
0.0 0.0 0.0 0.0 0.0 0.0 0.0 0.0
0.0 0.0 0.0 0.0 0.0 0.0 0.0 0.0
0.0 0.0 0.0 0.0 0.0 0.0 0.0 0.0
0.0 0.0 0.0 0.0 0.0 0.0 0.0 0.0
0.0 0.0 0.0 0.0 0.0 0.0 0.0 0.0
0.0 0.0 0.0 0.0 0.0 0.0 0.0 0.0
0.0 0.0 0.0 0.0 -0.8568118 0.0 0.0 0.8568118
0.0 0.8568118 0.0 0.0 0.0 0.0 0.8568118 0.0
0.0 0.0 0.0 0.0 0.8568118 0.0 0.0 0.0
00000000: 0000 0000 0000 0000 0000 0000 0000 0000
00000010: 0000 0000 0000 0000 0000 0000 0000 0000
00000020: 0000 0000 0000 0000 0000 0000 0000 0000
00000030: 0000 0000 0000 0000 0000 0000 0000 0000
00000040: 0000 0000 0000 0000 0000 0000 0000 0000
00000050: 0000 0000 0000 0000 0000 0000 0000 0000
00000060: 0000 0000 0000 0000 0558 5bbf 0000 0000
00000070: 0000 0000 0000 0000 0000 0000 0000 0000
00000080: 0000 0000 0000 0000 0000 0000 0000 0000
00000090: 0000 0000 0000 0000 0000 0000 0000 0000
000000a0: 0000 0000 0000 0000 0000 0000 0000 0000
000000b0: 0000 0000 0000 0000 0000 0000 0000 0000
000000c0: 0000 0000 0000 0000 0000 0000 0000 0000
000000d0: 0000 0000 0000 0000 0000 0000 0000 0000
000000e0: 0000 0000 0000 0000 0000 0000 0000 0000
000000f0: 0000 0000 0000 0000 0000 0000 0000 0000
00000100: 0558 5b3f 0000 0000 0000 0000 0000 0000
00000110: 0000 0000 0000 0000 0000 0000 0000 0000
00000120: 0000 0000 0000 0000 0000 0000 0558 5b3f
00000130: 0000 0000 0000 0000 0000 0000 0000 0000
00000140: 0000 0000 0000 0000 0000 0000 0000 0000
00000150: 0000 0000 0000 0000 0000 0000 0000 0000
00000160: 0000 0000 0000 0000 0000 0000 0000 0000
00000170: 0000 0000 0558 5b3f 0000 0000 0000 0000
00000180: 0000 0000 0000 0000 0000 0000 0000 0000
00000190: 0000 0000 0000 0000 0000 0000 0000 0000
000001a0: 0000 0000 0000 0000 0000 0000 0000 0000
000001b0: 0000 0000 0000 0000 0000 0000 0000 0000
000001c0: 0000 0000 0000 0000 0000 0000 0000 0000
000001d0: 0000 0000 0000 0000 0000 0000 0000 0000
000001e0: 0000 0000 0000 0000 0000 0000 0000 0000
000001f0: 0000 0000 0000 0000 0000 0000 0000 0000
00000200: 0000 0000 0000 0000 0000 0000 0000 0000
00000210: 0000 0000 0000 0000 0000 0000 0000 0000
00000220: 0000 0000 0000 0000 0000 0000 0000 0000
00000230: 0000 0000 0000 0000 0000 0000 0000 0000
00000240: 0000 0000 0000 0000 0000 0000 0000 0000
00000250: 0000 0000 0000 0000 0000 0000 0000 0000
00000260: 0000 0000 0000 0000 0000 0000 0000 0000
00000270: 0000 0000 0000 0000 0000 0000 0000 0000
00000280: 0000 0000 0558 5b3f 0000 0000 0000 0000
00000290: 0000 0000 0000 0000 0000 0000 0558 5b3f
000002a0: 0000 0000 0000 0000 0000 0000 0000 0000
000002b0: 0000 0000 0000 0000 0000 0000 0000 0000
000002c0: 0000 0000 0000 0000 0558 5bbf 0000 0000
000002d0: 0558 5b3f 0000 0000 0000 0000 0000 0000
000002e0: 0000 0000 0000 0000 0000 0000 0000 0000
000002f0: 0000 0000 0000 0000 0000 0000 0000 0000
00000300: 0000 0000 0000 0000 0000 0000 0000 0000
00000310: 0000 0000 0000 0000 0000 0000 0000 0000
00000320: 0000 0000 0000 0000 0000 0000 0000 0000
00000330: 0000 0000 0000 0000 0000 0000 0000 0000
00000340: 0000 0000 0000 0000 0000 0000 0000 0000
00000350: 0000 0000 0000 0000 0000 0000 0000 0000
00000360: 0000 0000 0000 0000 0000 0000 0000 0000
00000370: 0000 0000 0000 0000 0000 0000 0000 0000
00000380: 0000 0000 0000 0000 0000 0000 0000 0000
00000390: 0000 0000 0000 0000 0000 0000 0000 0000
000003a0: 0000 0000 0000 0000 0000 0000 0000 0000
000003b0: 0558 5bbf 0000 0000 0000 0000 0558 5b3f
000003c0: 0000 0000 0558 5b3f 0000 0000 0000 0000
000003d0: 0000 0000 0000 0000 0558 5b3f 0000 0000
000003e0: 0000 0000 0000 0000 0000 0000 0000 0000
000003f0: 0558 5b3f 0000 0000 0000 0000 0000 0000

lr_lr_W f4 [1813, 1]
0.009556086 -0.033607557 -0.0018224556 -0.0079978015 -0.00740967 0.023438236 -0.01588508 0.0111576645
0.0025334216 0.0093437815 0.0064627943 -0.018110469 -0.014266174 0.01889461 -0.010929992 0.026808986
-0.005205895 -0.004694705 -0.0064134602 0.02540097 0.0032954835 -0.012029842 0.01619142 -0.0075889644
-0.010581395 0.0012524169 -0.010466501 0.008598921 0.007106118 -0.008341386 0.0030517222 0.004691015
0.0022282307 -0.0052881427 0.0026365372 -0.013642511 -0.0026827673 0.016603734 -0.007972227 0.016921261
-0.012133086 0.021751536 -0.03016212 0.0056277844 -0.009210693 2.739561e-06 0.0035364868 -0.0071459734
-0.0045464505 0.013258219 -0.0042930082 -0.003960884 0.003865909 -0.0026088622 -0.0030513757 0.019669916
-0.0077024386 -0.0013322601 0.013661987 0.011399506 -0.013806258 -0.03245366 0.019741926 -0.0043500643
0.006707986 -0.010922781 -0.0026001383 0.00904762 0.0042019696 -0.009295936 -0.0012330298 -0.025524003
0.030090526 0.0004601175 -0.015575934 -0.0073862 -0.0046377527 0.007972243 0.015927969 -0.0063531674
0.006255048 0.001974844 -0.007930071 0.02651183 0.0063180635 -0.024481995 0.005693598 0.00039781764
-0.0046693976 -0.0100669665 -0.018203598 -0.011986664 0.0101636425 -0.018422836 0.0040851147 -0.007269598
-0.016385844 -0.0085243 -0.0056050974 -0.008487618 0.013103223 0.0007569843 -0.007831082 0.01164934
-0.018972108 0.008002035 0.008178609 0.006297121 -0.033380497 0.005382481 -0.0012330298 -0.008823318
-0.011526576 0.013797314 -0.010619478 0.008153405 -0.009386811 -0.0021186024 -0.004493275 -0.00510015
0.010491432 0.0043740263 -0.00031401846 -0.0051001497 0.021594372 -0.008596372 -0.023036974 -0.015787486
-0.0069928323 0.04031788 -0.00841828 0.0022138632 -0.0065201484 0.014124853 -0.010661487 -0.014329348
-0.0114591895 -0.006318831 0.014924952 -0.010534102 0.010932269 -0.018431291 -0.004336149 -0.000982358
0.0187069 -0.0037952242 -0.008768535 0.0057589104 0.026010238 0.017664416 -0.0020114104 0.022717973
-0.015750747 0.0039387573 0.0029101544 -0.005999137 0.01981411 0.015751334 -0.0012601214 -0.006456366
-0.0024357357 0.001430956 -0.0048215 -0.002219424 -0.01274269 -0.0058053415 0.0082411105 -0.016848093
-0.008137263 0.016299805 0.013476698 -0.0002614516 0.008804721 0.0061937296 -0.00060153444 -0.0025659832
0.003245104 -0.0025248174 -0.014453893 0.00030169342 -0.0034662015 0.0012724424 0.0110690845 0.010302172
0.0052102883 0.001688524 -0.004049038 0.011892295 -0.00857861 -0.009890324 -0.011407432 -0.006698349
-0.01795692 -0.010662138 -0.0048042615 -0.004089899 0.009540309 -0.0051001497 -4.2888438e-05 0.037168864
0.013548264 -0.013056207 0.015592311 -0.0038743094 -0.007986261 0.011954385 -0.0020130186 -0.014393849
-0.0060077803 -0.00992991 -0.009043772 0.0007104746 0.0049649696 -0.009752569 -0.0067772856 -0.0025416412
0.009427096 0.0070343334 0.0046449997 0.022453973 0.012866159 0.0029454234 0.00096399494 0.0039409376
-0.0035180917 -0.007283815 0.007709025 -0.0003965294 -5.702551e-05 0.0050487295 -0.0021051636 0.020476589
-0.022290438 -0.005520347 0.0022867797 -0.009037364 0.00018428365 -0.010962644 -0.01186517 0.0003027196
0.012303534 0.007829306 0.00046118084 0.014767274 0.015315923 0.016361248 0.0044073467 0.016018732
0.017792756 8.668576e-05 0.008973649 -0.013139228 0.035931442 -0.008273853 -0.0055366005 -0.008466911
00000000: 2191 1c3c 14a8 09bd 76df eeba 3609 03bc
00000010: d1cc f2bb 8b01 c03c 6d21 82bc a3ce 363c
00000020: c307 263b a916 193c d9c5 d33b 685c 94bc
00000030: acbc 69bc dfc8 9a3c b613 33bc 859e db3c
00000040: 3696 aabb 0ad6 99bb 0128 d2bb b215 d03c
00000050: 0af9 573b d018 45bc dea3 843c d9ac f8bb
00000060: 965d 2dbc 2328 a43a b07b 2bbc 7de2 0c3c
00000070: 70da e83b 4faa 08bc 67ff 473b 16b7 993b
00000080: 8207 123b 2848 adbb c1c9 2c3b d784 5fbc
00000090: 5ed1 2fbb 8e04 883c f29d 02bc 759e 8a3c
000000a0: dac9 46bc 4730 b23c 8d16 f7bc 4769 b83b
000000b0: 72e8 16bc 4dd9 3736 67c4 673b c528 eabb
000000c0: 64fa 94bb 0039 593c 5dac 8cbb 4eca 81bb
000000d0: 315b 7d3b 72f9 2abb 97f9 47bb ce22 a13c
000000e0: bd64 fcbb 3b9f aeba 87d6 5f3c fec4 3a3c
000000f0: a533 62bc 21ee 04bd d2b9 a13c fc8a 8ebb
00000100: aace db3b 77f5 32bc 1567 2abb 783c 143c
00000110: adb0 893b fb4d 18bc 9d9d a1ba b717 d1bc
00000120: 6880 f63c ed3b f139 3432 7fbc f007 f2bb
00000130: 4af8 97bb 039e 023c 5f7b 823c 3b2e d0bb
00000140: 25f7 cc3b 626c 013b 21ed 01bc 562f d93c
00000150: c207 cf3b 778e c8bc 5d91 ba3b 2e92 d039
00000160: bf01 99bb ebef 24bc b61f 95bc b663 44bc
00000170: 6885 263c 7deb 96bc 6ddc 853b cf35 eebb
00000180: 9b3b 86bc 81a9 0bbc f7aa b7bb a60f 0bbc
00000190: e7ae 563c 5b70 463a f04d 00bc e0dc 3e3c
000001a0: 656b 9bbc f81a 033c 93ff 053c 1458 ce3b
000001b0: fdb9 08bd 865f b03b 9d9d a1ba ae8f 10bc
000001c0: f7d9 3cbc 210e 623c 52fd 2dbc dc95 053c
000001d0: 24cb 19bc 40d8 0abb 533c 93bb 291f a7bb
000001e0: 41e4 2b3c fe53 8f3b d8a2 a4b9 281f a7bb
000001f0: aee6 b03c ccd7 0cbc 09b8 bcbc c254 81bc
00000200: 2124 e5bb 5d24 253d d3ec 09bc 7616 113b
00000210: f8a6 d5bb ed6b 673c 84ad 2ebc a4c5 6abc
00000220: 53bf 3bbc 320e cfbb c987 743c 3a97 2cbc
00000230: 421d 333c 38fd 96bc 4116 8ebb 77c2 80ba
00000240: 363f 993c 4cb9 78bb e7a9 0fbc 3eb5 bc3b
00000250: 6c13 d53c f7b4 903c ded1 03bb 0b1b ba3c
00000260: b607 81bc b110 813b 4ab8 3e3b 6994 c4bb
00000270: 3351 a23c f108 813c a82a a5ba ec8f d3bb
00000280: dda0 1fbb ea8e bb3a acfd 9dbb c173 11bb
00000290: b7c6 50bc bc3a bebb b905 073c 0305 8abc
000002a0: 2852 05bc 2b87 853c 5ecd 5c3c 7113 89b9
000002b0: ad41 103c c5f4 ca3b 4bb0 1dba 0e2a 28bb
000002c0: d0ab 543b 6877 25bb 05d0 6cbc 9b2c 9e39
000002d0: 3629 63bb 15c8 a63a 1b5b 353c 71ca 283c
000002e0: 11bb aa3b 7751 dd3a cbad 84bb e7d7 423c
000002f0: 4c8d 0cbc 070b 22bc 3de6 3abc d37d dbbb
00000300: 641a 93bc 40b0 2ebc 116d 9dbb 8f04 86bb
00000310: f54e 1c3c 281f a7bb 1ce3 33b8 613e 183d
00000320: 8af9 5d3c b4e9 55bc e476 7f3c 20e8 7dbb
00000330: ced8 02bc 53dc 433c d9ec 03bb 2ed4 6bbc
00000340: eadc c4bb 10b1 22bc 542c 14bc 253f 3a3a
00000350: 2fb1 a23b 3dc9 1fbc fe13 debb aa91 26bb
00000360: 1b74 1a3c 4480 e63b 1535 983b 65f1 b73c
00000370: 95cc 523c 0108 413b 9bb4 7c3a fb22 813b
00000380: c98f 66bb 12ad eebb fd9b fc3b 46e5 cfb9
00000390: ad2e 6fb8 d06f a53b c9f6 09bb 85be a73c
000003a0: 709a b6bc 07e4 b4bb ccdd 153b 7411 14bc
000003b0: 443c 4139 a99c 33bc 2166 42bc 56b6 9e39
000003c0: c394 493c 7d46 003c a5ca f139 70f2 713c
000003d0: a3ef 7a3c 0608 863c 816b 903b b739 833c
000003e0: 1dc2 913c 10cb b538 3606 133c eb45 57bc
000003f0: d92c 133d 0e8f 07bc 5f6c b5bb ccb8 0abc

svc_W2_svc f4 [1813, 1]
0.009099988 -0.018187728 -0.004210461 -0.0026143682 -0.0038727212 0.011981708 -0.011372059 0.007449506
0.0012777154 0.0010209071 0.00016369399 -0.014460924 -0.0071732076 0.010016783 -0.005951739 0.011901704
-0.005293077 -0.0061431997 -0.003000381 0.015239531 0.0051326435 -0.007944911 0.008395616 -0.004071293
-0.009794503 0.004607526 -0.0042558066 0.005887799 0.0054356093 -0.0035398859 -0.0012308846 0.004473416
0.0056639942 -0.0032086128 0.0005792153 -0.0013382554 -0.0015571387 0.012133021 -0.0056670983 0.005616621
-0.0072169215 0.01596664 -0.018363304 0.008230637 -0.0053541535 -0.0011752462 0.0024113443 -0.0079627745
0.0003363999 0.014467647 -0.0026450588 -0.00479376 0.0043640174 -0.00022074634 -0.0034549814 0.016432963
-0.0052711065 0.00018545147 0.0074622794 0.0066733193 -0.011223179 -0.025237825 0.008378519 -0.0047767223
-0.0073896367 -0.0075562466 -0.002558571 0.005133155 0.0015141151 -0.004218052 -0.0035788068 -0.01667106
0.026024906 0.0027948879 -0.011122937 -0.0073501617 -0.005490217 0.0052116713 0.011058924 -0.0073130038
0.0050293477 0.007301698 -0.0034909297 0.01837165 0.0059798076 -0.021051766 0.004195557 -0.004965848
-0.0038952916 -0.006505019 -0.010945901 -0.0076256827 0.0024698197 -0.011591234 0.0006328287 -0.0042901123
-0.006492718 -0.007985598 -0.0043553417 -0.0026663602 0.008330094 -0.0014109443 -0.0060123573 0.0054990463
-0.011047222 0.005847004 0.006940198 0.00271562 -0.01331496 0.002415755 -0.0035788068 -0.0019759422
-0.0063391896 0.009427464 -0.0035078323 0.0019512632 -0.004567691 -0.00019617364 -0.0037229585 -0.00731299
0.004763908 -3.5520352e-05 -0.0012253751 -0.0073129884 0.017279182 -0.0027889982 -0.0154885305 -0.01098159
-0.008729514 0.02321336 -0.0051196204 0.005177982 -0.0053927167 0.002950737 -0.0064558564 -0.006869908
-0.008507618 -0.01092058 0.0073642964 -0.006144621 0.006013892 -0.013090526 -0.0060537155 -0.004045209
0.01311697 -0.0063282996 -0.01236311 0.003304975 0.020010196 0.021803789 -0.0009979174 0.009398343
-0.015134648 0.005728317 0.003996751 -0.002539068 0.01184965 0.012187352 -0.001237642 -0.00265575
-0.0021585152 0.00043626424 -0.007035752 -0.0028670433 -0.0086862575 -0.0050286185 0.007287106 -0.010525337
-0.011260423 0.0076726675 0.0021010952 -0.0017880276 0.006466947 0.003304525 0.0020255228 -0.0052921968
0.0063671498 -0.0034261208 -0.0076861195 0.005653034 -0.0024100651 -0.00040353168 0.0061183646 0.008973231
0.0017118143 -0.0004906807 -0.0100023495 0.005863071 -0.0047792573 -0.0052094935 -0.011047229 -0.0022326622
-0.015798617 -0.008522441 -0.009052214 0.0005046236 0.0046327715 -0.0073129884 -0.0040416606 0.024200913
0.007834858 -0.00852683 0.010936779 -0.0020318604 -0.0047123344 0.009830725 -0.004090581 -0.016275676
-0.005817397 -0.0042607062 -0.010000219 -0.0024253933 0.0025467905 -0.01048312 -0.0026363824 0.0024803209
0.0059709274 0.0070547746 0.0028745006 0.0112767685 0.0037977933 0.0036874702 0.00013937944 0.0015475112
-0.004631271 -0.006744995 0.0058667464 0.0015137907 -0.00046634785 -0.0007108029 -0.0059576053 0.016839841
-0.013454505 -0.005008044 0.0060377233 -0.008170839 0.0017845581 -0.0044853548 -0.0070832027 -0.0006574735
0.00846639 0.0056188987 0.00013232896 0.010970788 0.013635581 0.010282012 0.004990481 0.017613128
0.008382741 -0.0026603339 0.0036440855 -0.006588173 0.020230364 -0.006654292 -0.0042430484 -0.005047178
00000000: 1e18 153c 6efe 94bc e8f7 89bb d255 2bbb
00000010: 7bcd 7dbb ed4e 443c df51 3abc fc1a f43b
00000020: 0479 a73a f5cf 853a 45a5 2b39 83ed 6cbc
00000030: 3a0d ebbb 6f1d 243c ce06 c3bb 5dff 423c
00000040: 8c71 adbb e54c c9bb 0aa2 44bb 3aaf 793c
00000050: bc2f a83b 5f2b 02bc c48d 093c 7b68 85bb
00000060: 2079 20bc bbfa 963b 4b74 8bbb 70ee c03b
00000070: 321d b23b 6efd 67bb a255 a1ba bc95 923b
00000080: 0799 b93b 9747 52bb 7bd6 173a 6668 afba
00000090: e818 ccba 94c9 463c 11b3 b9bb a20b b83b
000000a0: ed7b ecbb 79cc 823c a46e 96bc cbd9 063c
000000b0: e571 afbb b80a 9aba a507 1e3b 4c76 02bc
000000c0: d55e b039 b609 6d3c b958 2dbb f914 9dbb
000000d0: 0800 8f3b 2578 67b9 f86c 62bb 6c9e 863c
000000e0: 3fb9 acbb c075 4239 2386 f43b dcab da3b
000000f0: 6de1 37bc 8ebf cebc 0e46 093c 0d86 9cbb
00000100: c424 f2bb 649a f7bb b3ad 27bb 0634 a83b
00000110: 4675 c63a 9637 8abb 6a8a 6abb bf91 88bc
00000120: 2f32 d53c 702a 373b fb3c 36bc a0d9 f0bb
00000130: 47e7 b3bb abc6 aa3b 7d30 353c eca1 efbb
00000140: 3acd a43b 1543 ef3b 15c8 64bb 2480 963c
00000150: 43f2 c33b c174 acbc e27a 893b 8db8 a2bb
00000160: 2648 7fbb 0e28 d5bb 7056 33bc dde0 f9bb
00000170: b3dc 213b 29e9 3dbc 6ae4 253a 1294 8cbb
00000180: dec0 d4bb 07d6 02bc 41b7 8ebb 1abe 2ebb
00000190: f27a 083c 6fef b8ba 4f03 c5bb 5831 b43b
000001a0: 68ff 34bc 3998 bf3b 9a6a e33b 8bf8 313b
000001b0: fd26 5abc a551 1e3b 6a8a 6abb cf7e 01bb
000001c0: fab8 cfbb a675 1a3c a9e3 65bb 87c1 ff3a
000001d0: 92ac 95bb f6b3 4db9 e1fc 73bb cea1 efbb
000001e0: 8f1a 9c3b b0fb 14b8 c49c a0ba cba1 efbb
000001f0: 128d 8d3c a0c7 36bb 9bc3 7dbc 20ec 33bc
00000200: 3c06 0fbc f229 be3c 7dc2 a7bb 10ac a93b
00000210: 63b5 b0bb 2761 413b a68b d3bb f71c e1bb
00000220: 8963 0bbc 3bec 32bc 3250 f13b d158 c9bb
00000230: 2f10 c53b a579 56bc 3f5e c6bb ac8d 84bb
00000240: 8fe8 563c a05d cfbb a48e 4abc 4898 583b
00000250: 6cec a33c dc9d b23c 8dcc 82ba 82fb 193c
00000260: 51f7 77bc 9bb4 bb3b 2df7 823b 7e66 26bb
00000270: 0925 423c 76ad 473c 6038 a2ba 170c 2ebb
00000280: e075 0dbb 65ba e439 2a8c e6bb 01e5 3bbb
00000290: ce50 0ebc 1cc7 a4bb adc8 ee3b 7772 2cbc
000002a0: a37d 38bc 006b fb3b 87b2 093b 405c eaba
000002b0: afe8 d33b bb90 583b a2be 043b 2a6a adbb
000002c0: 86a3 d03b c588 60bb d8db fbbb 163d b93b
000002d0: 2ff2 1dbb 1b91 d3b9 907c c83b 7504 133c
000002e0: f55e e03a 06a1 00ba e5e0 23bc 011f c03b
000002f0: 519b 9cbb 66b4 aabb 70ff 34bc db51 12bb
00000300: 1a6c 81bc b5a1 0bbc bd4f 14bc b748 043a
00000310: 81ce 973b cba1 efbb e86f 84bb fe40 c63c
00000320: c75d 003c 1eb4 0bbc 2d30 333c f628 05bb
00000330: ed69 9abb 0d11 213c 480a 86bb 9154 85bc
00000340: dd9f bebb 659d 8bbb f5d7 23bc 59f3 1ebb
00000350: 0ee8 263b 64c1 2bbc 28c7 2cbb e18c 223b
00000360: c5a7 c33b bd2b e73b 1e62 3c3b 32c2 383c
00000370: 66e4 783b 7ca9 713b 6226 1239 dcd5 ca3a
00000380: ebc1 97bb 1e05 ddbb d63d c03b 636a c63a
00000390: 2680 f4b9 2d55 3aba 0438 c3bb b5f3 893c
000003a0: 4970 5cbc 851a a4bb 18d8 c53b fcde 05bc
000003b0: d5e7 e93a e2f9 92bb 361a e8bb 4d5a 2cba
000003c0: 9db6 0a3c bd1e b83b c9c1 0a39 d2be 333c
000003d0: c667 5f3c e275 283c 3087 a33b 6849 903c
000003e0: c457 093c ff58 2ebb 9cd1 6e3b 9ae1 d7bb
000003f0: 26ba a53c 3f0c dabb 4509 8bbb cc62 a5bb

fs_lr_fs_lr_W f4 [233, 1]
-0.018719975 -0.012317966 0.008360321 -0.0077870092 0.009550148 0.0118144285 -0.016120007 0.0037954308
0.009261117 0.014629063 0.0047299135 -0.006118499 -0.009050825 0.0065393974 0.004414706 -0.017247755
0.0048783924 0.008931706 0.01997491 0.012738968 -0.010906343 0.0003565954 0.009978656 0.009786853
0.0049875705 0.007476576 0.005891813 0.003618107 0.004395966 0.0036895 0.00433498 0.021068696
0.0067143543 0.006598972 0.0104354005 0.0064906515 0.012847673 0.002679119 0.016414491 -0.008196155
0.011622659 0.012758357 0.0072825854 0.0044439044 0.0037365684 0.0021819826 0.008449632 0.00846766
-0.01107441 0.008547192 0.008821082 0.008633452 -0.014320961 0.002965551 -0.016739208 0.019803595
0.0029722808 0.021510215 -0.016906645 0.009852586 0.008866279 -0.011856255 -0.008836428 -0.010166624
0.0072825854 0.011209423 0.013365522 -0.013449967 0.009353156 -0.011929767 0.00483568 0.014152855
-0.015750257 0.010042199 -0.014353022 0.015513833 0.012389729 0.008802595 0.009535543 0.011709163
0.0053684725 0.010120003 -0.009599746 -0.010377676 0.00846766 0.01949133 0.0045440956 0.010955836
0.013761597 0.014371995 -0.011552585 0.01525075 0.010253969 -0.005180374 0.009924426 0.010649676
0.009670506 0.017803328 -0.007927457 -0.011028515 0.0127749415 0.0072825854 0.0077858404 0.008377326
0.0126992315 0.02393905 0.018004214 -0.009734144 0.0080270525 0.010596919 0.007789404 0.009159703
0.008760748 0.010059754 -0.013335965 -0.014655928 0.014178329 0.0025908016 0.0034364436 0.00846766
0.016516456 0.0008539536 -0.01772413 0.010607236 0.008426807 0.006271665 0.014196939 -0.013150007
0.0103594465 0.0032678086 0.00846766 0.0026231417 0.0072825854 0.014151257 0.008600711 0.009881748
0.012380145 0.0141511075 -0.015954401 0.009346068 -0.016068488 0.008283528 -0.011690793 0.008170039
0.00846766 0.005752025 0.016751241 0.009043843 0.0069504767 0.014237075 0.0032491821 0.0040351963
0.010338659 -0.009232154 0.01755429 -0.014035029 0.009401527 -0.013229426 0.011131271 0.004455204
-0.009491963 0.0055851787 0.012518952 0.004498354 -0.01119092 -4.741608e-05 0.003504874 0.009364941
0.020406974 -0.0126108015 0.00949211 0.012825415 -0.013693733 0.011622659 0.014432333 -0.005036923
-0.012406977 -0.0111071 0.0020073622 -0.013761777 0.008539251 -0.009582602 0.007204264 0.009804798
0.0037143137 0.013494052 0.009521113 0.007829107 0.007098189 -0.01410332 -0.011549054 0.017898465
0.00846766 0.0090816915 -0.010675643 0.0062455274 0.0131323775 0.01756047 -0.014960652 0.010261504
0.006124732 -0.00804919 0.0062057516 0.012971077 0.013224463 -0.016771687 0.009488015 0.004349543
0.010503647 0.005579163 0.011958345 -0.009075768 0.0095419185 0.007644556 0.009756391 0.006580474
0.015233685 0.004482663 0.009588241 0.007927833 -0.011091689 0.0062916875 0.011912298 -0.013479071
0.0042453264 -0.0086367875 0.012529643 0.009978656 0.007828692 -0.010783905 -0.016164428 0.002339477
0.00613953
00000000: a25a 99bc 4bd1 49bc baf9 083c 2b2a ffbb
00000010: 3978 1c3c 4e91 413c 1b0e 84bc c3bc 783b
00000020: f1bb 173c bdae 6f3c 64fd 9a3b b17d c8bb
00000030: e949 14bc 7148 d63b 3da9 903b 2a4b 8dbc
00000040: ecda 9f3b 4a56 123c 6ca2 a33c 1bb7 503c
00000050: 85b0 32bc 6df5 ba39 847d 233c 0959 203c
00000060: c66e a33b 11fe f43b 1c10 c13b c31d 6d3b
00000070: 090c 903b 8acb 713b 730c 8e3b 4298 ac3c
00000080: 1604 dc3b 303c d83b 3ef9 2a3c 88af d43b
00000090: 0c7f 523c 2894 2f3b af77 863c 2a49 06bc
000000a0: f76c 3e3c 6e08 513c c1a2 ee3b 2c9e 913b
000000b0: 37e1 743b 98ff 0e3b 5370 0a3c f1bb 0a3c
000000c0: 7171 35bc 8609 0c3c 4d86 103c 5273 0d3c
000000d0: 77a2 6abc b159 423b aa20 89bc 263b a23c
000000e0: 99ca 423b 3136 b03c ce7f 8abc be6c 213c
000000f0: df43 113c bd40 42bc aac6 10bc e991 26bc
00000100: c1a2 ee3b baa7 373c 10fb 5a3c 405d 5cbc
00000110: fb3d 193c 1275 43bc a074 9e3b 60e1 673c
00000120: af06 81bc 0988 243c f028 6bbc bb2d 7e3c
00000130: 4afe 4a3c c238 103c f73a 1c3c cad7 3f3c
00000140: 03ea af3b 5ece 253c 4148 1dbc 2107 2abc
00000150: f1bb 0a3c 48ac 9f3c a3e6 943b 1b80 333c
00000160: 5278 613c 8478 6b3c 0e47 3dbc 48de 793c
00000170: 4300 283c 20c0 a9bb 0f9a 223c fb7b 2e3c
00000180: 0b71 1e3c 49d8 913c 2ae2 01bc f2b0 34bc
00000190: fd4d 513c c1a2 ee3b 5d20 ff3b 0d41 093c
000001a0: 7010 503c d41b c43c 937d 933c f67b 1fbc
000001b0: e683 033c b39e 2d3c 423e ff3b 9412 163c
000001c0: 3e89 0f3c abd1 243c 177f 5abc 6b1f 70bc
000001d0: 394c 683c 70ca 293b f535 613b f1bb 0a3c
000001e0: 854d 873c dbdb 5f3a 3232 91bc f9c9 2d3c
000001f0: 9710 0a3c 8a82 cd3b 479a 683c 2173 57bc
00000200: abba 293c bb28 563b f1bb 0a3c 04e9 2b3b
00000210: c1a2 ee3b adda 673c ffe9 0c3c 0ee7 213c
00000220: 17d6 4a3c 0cda 673c ceb2 82bc 4020 193c
00000230: 10a2 83bc a2b7 073c bd8a 3fbc a1db 053c
00000240: f1bb 0a3c 7c7b bc3b e639 893c a02c 143c
00000250: d3c0 e33b 9f42 693c 3bf0 543b ae39 843b
00000260: 7b63 293c 7642 17bc 04ce 8f3c 2ef3 65bc
00000270: dd08 1a3c 3cc0 58bc ef5f 363c f6fc 913b
00000280: 2e84 1bbc e003 b73b 4a1c 4d3c ee66 933b
00000290: 1f5a 37bc a1e0 46b8 07b2 653b 696f 193c
000002a0: 872c a73c 899d 4ebc cc84 1b3c b021 523c
000002b0: ae5b 60bc f76c 3e3c 9875 6c3c c60c a5bb
000002c0: a246 4bbc 8efa 35bc f38d 033b 1479 61bc
000002d0: 37e8 0b3c 5900 1dbc bf11 ec3b 4ea4 203c
000002e0: d86b 733b 2816 5d3c 71fe 1b3c a845 003c
000002f0: ed97 e83b 9d11 67bc 3e38 3dbc cd9f 923c
00000300: f1bb 0a3c 60cb 143c e4e8 2ebc 48a7 cc3b
00000310: 2f29 573c fada 8f3c 861d 75bc de1f 283c
00000320: fab1 c83b c0e0 03bc 9e59 cb3b a484 543c
00000330: 6bab 583c c764 89bc 9f73 1b3c 9c86 8e3b
00000340: 7d17 2c3c 69d1 b63b efec 433c 88b2 14bc
00000350: b555 1c3c 2f7f fa3b 45d9 1f3c 04a1 d73b
00000360: b596 793c 4de3 923b ff17 1d3c bee3 013c
00000370: eab9 35bc 802a ce3b cd2b 433c 52d7 5cbc
00000380: 611c 8b3b 5081 0dbc 2249 4d3c 847d 233c
00000390: ea43 003c faae 30bc 436b 84bc e951 193b
000003a0: 1c2e c93b

fs_svc_W2_fs_svc f4 [233, 1]
-0.13151133 -0.061040286 0.032764405 0.028411044 0.050831832 0.05809417 -0.14922096 0.008914651
0.049595665 0.022564989 -0.03273378 0.09246523 -0.0020154705 -0.0073770443 0.02783656 -0.12622397
-0.024610735 -0.0068534724 0.16686265 0.000986892 -0.1138944 -0.10361809 0.048638534 0.1233214
0.06902197 0.042272426 0.008591133 -0.06884511 -0.0042408523 -0.018075896 -0.0022059442 0.19765307
0.010497541 0.046085756 0.012293492 -0.00020032118 -0.044251315 0.02386121 0.12612858 0.0163484
0.084574126 0.048637908 0.068918735 -0.02581683 -0.02385444 -0.04266243 -0.0067306883 0.048638254
0.044161923 0.01635487 0.015801987 -0.07403464 -0.0014340656 -0.009818504 -0.08126429 0.07545227
-0.0061968155 0.11660189 -0.08154288 -0.013011611 0.019517897 -0.022396179 -0.027737448 0.021672126
0.06891873 0.019642333 0.041108593 -0.089074165 0.083729856 -0.00017450836 0.028596576 0.18299276
-0.088687785 -0.07109277 -0.13954313 0.18972307 0.13498397 -0.06964597 0.07977581 0.008075562
0.023692954 0.025091052 0.09557864 -0.046199083 0.048638254 0.12120932 0.0027330113 0.046563104
0.12634726 0.07236618 -0.005613633 0.07720527 -0.008142064 0.030517628 0.019074189 0.027755557
-0.011903558 -0.028769627 0.00052430807 0.04211145 0.0032360924 0.068918735 0.0033787997 -0.031225568
0.0559923 0.100102566 0.12904692 -0.0014595527 0.04895719 0.04652363 -0.051951554 0.047404185
0.0940148 0.03676994 -0.07053591 -0.14506714 -0.0037627849 -0.06140492 -0.026170064 0.048638254
0.036542382 -0.05335337 -0.14511809 0.052104317 -0.0034148348 -0.020326158 0.03456195 -0.052683886
0.039797675 0.00035762886 0.048638254 -0.036638808 0.06891873 0.0920249 -0.042188887 0.04365539
0.04307086 0.030325383 -0.10582469 0.026808523 -0.1074675 0.055916365 -0.11325334 0.041012574
0.048638254 0.03478039 0.04964892 0.039222717 -0.06258453 0.09399773 0.004492943 -0.026737155
-0.0117500415 0.06315295 0.031583924 -0.039137118 0.044725616 -0.034313757 -0.016903292 -0.044923957
-0.029797524 -0.06942474 0.055725772 -0.008545101 -0.09470067 -0.044786215 -0.07388554 0.05639823
0.0826059 -0.054600175 0.07208509 0.039336506 0.021234533 0.084574126 0.0940713 0.043505035
0.036875125 -0.027380856 0.0049672136 -0.073518924 -0.007684309 -0.044476137 0.012433534 0.096217625
-0.031435423 0.1638337 0.04495523 0.03950881 0.055027902 -0.09016167 -0.036821228 0.11835807
0.048638254 -0.059788965 0.020129886 0.029733699 0.050535977 0.012395346 -0.14892355 0.02149938
-0.048146244 0.022907592 -0.055240463 -0.085262306 0.07673162 -0.07295411 0.018177604 -0.07483931
0.097021356 -0.089850046 -0.072857484 -0.04841135 0.117314994 -0.003967283 0.035459034 -0.0057913167
0.18646896 -0.006361266 0.01809974 -0.02284814 -0.08157514 -0.040963385 0.07137632 -0.024345402
-0.012511642 -0.032209136 -0.05479577 0.048638538 0.030525718 -0.06996283 -0.005829563 -0.13337651
0.050006412
00000000: e8aa 06be 6105 7abd f833 063d 47be e83c
00000010: 0a35 503d 27f4 6d3d 61cd 18be c20e 123c
00000020: d324 4b3d 36da b83c db13 06bd 695e bd3d
00000030: fc15 04bb 22bb f1bb 7f09 e43c db40 01be
00000040: 749c c9bc 1893 e0bb 0bde 2a3e 9a5a 813a
00000050: 7841 e9bd b935 d4bd 3339 473d ee8f fc3d
00000060: 645b 8d3d da25 2d3d d3c1 0c3c aafe 8cbd
00000070: d9f6 8abb e713 94bc 9a91 10bb 9165 4a3e
00000080: e1fd 2b3c 6bc4 3c3d a56a 493c 4f0d 52b9
00000090: de40 35bd 9678 c33c da27 013e 14ed 853c
000000a0: 3335 ad3d 8b38 473d 4425 8d3d d17d d3bc
000000b0: 636a c3bc cdbe 2ebd 1b8d dcbb e838 473d
000000c0: 22e3 343d a6fa 853c 2b73 813c 799f 97bd
000000d0: 42f7 bbba cadd 20bc e46d a6bd b886 9a3d
000000e0: a80e cbbb f9cc ee3d f4ff a6bd a72e 55bc
000000f0: ffe3 9f3c 3178 b7bc a539 e3bc be89 b13c
00000100: 4325 8d3d f5e8 a03c 7c61 283d 846c b6bd
00000110: 8f7a ab3d 3bfc 36b9 5e43 ea3c 7462 3b3e
00000120: f1a1 b5bd 1699 91bd 65e4 0ebe c446 423e
00000130: 3d39 0a3e 8ca2 8ebd 8061 a33d 5d4f 043c
00000140: ba17 c23c c08b cd3c bcbe c33d 403b 3dbd
00000150: e838 473d 983c f83d 521c 333b f4b8 3e3d
00000160: 2d61 013e b834 943d 91f2 b7bb cc1d 9e3d
00000170: 4b66 05bc 1b00 fa3c 7941 9c3c 9f5f e33c
00000180: 2407 43bc 48ae ebbc b871 093a 0e7d 2c3d
00000190: 9f14 543b 4425 8d3d da6e 5d3b c3cc ffbc
000001a0: 2f58 653d 9302 cd3d e024 043e 764e bfba
000001b0: 5687 483d 908f 3e3d 27cb 54bd e42a 423d
000001c0: d58a c03d 149c 163d 2275 90bd 7b8c 14be
000001d0: 0e99 76bb ba83 7bbd 9a62 d6bc e838 473d
000001e0: 77ad 153d 1089 5abd d699 14be 566b 553d
000001f0: 6ccb 5fbb 0b83 a6bc d590 0d3d 0fcb 57bd
00000200: e302 233d 2280 bb39 e838 473d 9312 16bd
00000210: 4325 8d3d 8d77 bc3d 41ce 2cbd ffcf 323d
00000220: 126b 303d f06c f83c 9dba d8bd 8c9d db3c
00000230: ec17 dcbd 8f08 653d 5ef1 e7bd cdfc 273d
00000240: e838 473d e275 0e3d aa5c 4b3d 00a8 203d
00000250: 512c 80bd e281 c03d 8a39 933b e107 dbbc
00000260: 3f83 40bc 5556 813d 255e 013d 3e4e 20bd
00000270: 3532 373d 958c 0cbd c678 8abc 2f02 38bd
00000280: f019 f4bc 8f2e 8ebd b540 643d c000 0cbc
00000290: 6df2 c1bd c071 37bd 4d51 97bd d501 673d
000002a0: 482d a93d 6fa4 5fbd 59a1 933d 511f 213d
000002b0: 0bf4 ad3c 3335 ad3d 74a8 c03d 5632 323d
000002c0: 5f0a 173d d14d e0bc 02c4 a23b 1791 96bd
000002d0: a8cc fbbb 9c2c 36bd 05b6 4b3c bf0d c53d
000002e0: 6ec2 00bd 05c4 273e fa22 383d fdd3 213d
000002f0: f064 613d afa6 b8bd dbd1 16bd b765 f23d
00000300: e838 473d 46e5 74bd 6ee7 a43c 1694 f33c
00000310: d0fe 4e3d d915 4b3c 6a7f 18be 781f b03c
00000320: ff34 45bd b4a8 bb3c d343 62bd 019e aebd
00000330: 7825 9d3d f768 95bd 33e9 943c 5a45 99bd
00000340: 22b3 c63d 4d03 b8bd 4e36 95bd fb4a 46bd
00000350: d842 f03d fbff 81bb 7e3d 113d 16c5 bdbb
00000360: b8f1 3e3e 2b72 d0bb e845 943c 062c bbbc
00000370: de10 a7bd 39c9 27bd c02d 923d 0270 c7bc
00000380: a1fd 4cbc baed 03bd 8871 60bd 3439 473d
00000390: 1211 fa3c ac48 8fbd eb05 bfbb da93 08be
000003a0: 86d3 4c3d

mfs_lr_mfs_lr_W f4 [383, 1]
-0.15474626 0.1978855 0.05584967 -0.06442018 0.024814408 0.08382234 -0.036467038 -0.13915324
0.055493783 -0.10955641 0.043477662 -0.08058517 0.05184623 -0.059601355 0.05327999 0.0229234
-0.031013604 -0.022852827 0.030210968 -0.19694507 -0.014326585 0.25799012 0.07634953 -0.07681283
-0.03300532 -0.034275357 0.034311164 -0.07822255 -0.116682336 0.13628966 0.033323966 0.01797254
-0.013620945 0.022076596 -0.14061432 -0.14126368 -0.043495547 0.22977452 -0.030112648 0.017802397
-0.056012973 0.066514246 0.025158381 0.12630679 0.054404754 0.005368275 -0.039623164 -0.036631778
0.030137712 0.028929433 0.17298038 -0.027341578 0.010425151 0.09332014 -0.051896945 0.10074265
0.05533951 -0.031942368 -0.13882758 -0.02663024 0.15423232 0.05396242 -0.011793431 0.0069881934
0.0040712976 -0.023640184 -0.05860741 -0.018213842 -0.09405669 0.031132048 0.26051238 -0.10942316
0.011108974 0.007533564 0.095924124 -0.17000656 0.012722895 -0.0791955 0.072505295 0.06644416
0.018493561 0.03169542 0.06867937 -0.0052926834 0.1044284 -0.059842538 -0.15380204 0.113853656
-0.121598326 -0.042928953 -0.06481574 0.0408942 -0.13441674 -0.12018574 0.02742464 -0.07737828
0.022107996 0.032584127 -0.03478084 -0.05461738 -0.0051725544 -0.11290712 0.008424158 0.11781513
-0.0482282 0.08012219 0.024297247 0.14691147 0.022168275 0.12370799 0.019261975 -0.03312192
0.03550805 0.023205407 0.057666093 -0.08858383 -0.06157997 0.029698366 0.1504258 0.18450896
-0.02140254 0.033852283 -0.029462237 0.11679324 0.028180124 -0.08056331 -0.010952058 0.0085281115
-0.08695542 0.05889044 0.062417533 0.2151304 0.05125253 0.06404957 0.09031317 -0.024457155
-0.060434867 0.06718037 -0.11728639 -0.098712415 -0.078113645 0.023463769 -0.02594578 0.059744906
0.011116731 0.05167944 0.0019097519 0.10038535 -0.025464522 0.024621274 -0.06260214 0.04490574
-0.16489078 -0.10089943 -0.033944443 -0.007435302 0.1498167 -0.043585986 -0.04719382 0.102166414
0.005870148 0.0531411 -0.04067637 -0.009841567 0.040038686 0.06831773 -0.20733087 -0.05127946
-0.0011402355 0.069492795 -0.041200574 0.04232115 0.012699393 0.046724603 0.11133056 -0.03484426
-0.031896014 -0.09737468 0.051177494 -0.13695778 0.06903555 -0.088546894 -0.1338337 0.05327815
-0.21331514 -0.14552683 -0.031810053 -0.14420612 -0.10786305 0.03146626 0.09044397 -0.21199366
-0.061333902 0.039312534 -0.05332839 0.02540211 0.11495545 0.04400122 -0.0032455272 -0.08302761
0.1425368 -0.087905474 -0.1555277 0.060086522 -0.030983517 0.05733709 -0.0890916 -0.0035614693
-0.051959265 -0.016358273 -0.05127345 -0.02400143 0.029117275 0.02840301 0.0459132 0.060209576
0.0147429155 -0.026956093 -0.023572829 -0.09503971 0.018912857 -0.05335344 0.11126772 0.008178243
-0.10055656 -0.04685678 -0.1360778 0.0071910527 0.09329409 -0.09177067 0.033743422 -0.0938214
0.16139618 -0.009876084 0.1303224 -0.027123028 0.05448477 0.07594384 0.008134841 -0.014290677
-0.05229205 0.087100394 0.04260497 -0.11446596 -0.025904106 -0.005363449 0.04266676 -0.023143677
0.03295026 0.2145292 -0.006144477 -0.11832048 -0.10130656 0.01881161 0.025933458 -0.038900964
00000000: ce75 1ebe 7fa2 4a3e a0c2 643d baee 83bd
00000010: 9647 cb3c 0cab ab3d 765e 15bd 307e 0ebe
00000020: 734d 633d 1c5f e0bd a215 323d d609 a5bd
00000030: b65c 543d 8d20 74bd 1e3c 5a3d dbc9 bb3c
00000040: 3e10 febc da35 bbbc fe7c f73c f8ab 49be
00000050: 0eba 6abc 4817 843e 245d 9c3d 0c50 9dbd
00000060: 9630 07bd 5164 0cbd dd89 0c3d 2533 a0bd
00000070: 26f7 eebd 848f 0b3e b67e 083d 263b 933c
00000080: 622a 5fbc fad9 b43c 33fd 0fbe 6da7 10be
00000090: 6328 32bd 034a 6b3e cdae f6bc 55d6 913c
000000a0: dc6d 65bd 9f38 883d f318 ce3c 9156 013e
000000b0: 85d7 5e3d 5be8 af3b e64b 22bd 340b 16bd
000000c0: 5de3 f63c 6bfd ec3c c521 313e 72fb dfbc
000000d0: 41ce 2a3c a11e bf3d e491 54bd 2a52 ce3d
000000e0: afab 623d 00d6 02bd d128 0ebe a927 dabc
000000f0: 14ef 1d3e b307 5d3d 3c39 41bc 37fd e43b
00000100: 8568 853b 0fa9 c1bc 530e 70bd 3235 95bc
00000110: cba0 c0bd a308 ff3c e161 853e 4019 e0bd
00000120: 6a02 363c 1edc f63b de73 c43d 3316 2ebe
00000130: b073 503c 4031 a2bd a87d 943d e013 883d
00000140: cf7f 973c 0fd3 013d c5a7 8c3d 3f6e adbb
00000150: 8fde d53d 731d 75bd 487e 1dbe 1b2c e93d
00000160: 8b08 f9bd 45d6 2fbd 1dbe 84bd ad80 273d
00000170: 8ba4 09be f123 f6bd a3a9 e03c 8178 9ebd
00000180: d41b b53c ef76 053d 5b76 0ebd 79b6 5fbd
00000190: 887e a9bb d93b e7bd 7b05 0a3c 0f49 f13d
000001a0: ef8a 45bd 1a17 a43d 050b c73c f66f 163e
000001b0: 3e9a b53c 9d5a fd3d 4acb 9d3c daaa 07bd
000001c0: e470 113d 4419 be3c 4833 6c3d 706b b5bd
000001d0: 473b 7cbd fd49 f33c 3909 1a3e ebef 3c3e
000001e0: 6154 afbc b1a8 0a3d ca5a f1bc 4b31 ef3d
000001f0: 01da e63c 60fe a4bd 4370 33bc 7eb9 0b3c
00000200: af15 b2bd 1a37 713d 87a9 7f3d 254b 5c3e
00000210: 2cee 513d 6c2c 833d 1cf6 b83d 5f5a c8bc
00000220: 8d8a 77bd dd95 893d d933 f0bd bc29 cabd
00000230: 0cfa 9fbd 1737 c03c 3f8c d4bc 13b7 743d
00000240: f322 363c d2ad 533d a450 fa3a d696 cd3d
00000250: f99a d0bc 8eb2 c93c 8d35 80bd 15ef 373d
00000260: 21d9 28be 5ca4 cebd 5409 0bbd d5a3 f3bb
00000270: 8d69 193e 3887 32bd 4f4e 41bd a03c d13d
00000280: 5f5a c03b 7baa 593d 449c 26bd 863e 21bc
00000290: 9bff 233d 2bea 8b3d 8b4e 54be 690a 52bd
000002a0: f473 95ba 3d52 8e3d efc1 28bd f158 2d3d
000002b0: 1d11 503c 4c62 3f3d 4701 e43d dbb8 0ebd
000002c0: 65a5 02bd 606c c7bd 7e9f 513d a93e 0cbe
000002d0: 8362 8d3d 1358 b5bd b40b 09be 303a 5a3d
000002e0: 496f 5abe fc04 15be 424b 02bd c5aa 13be
000002f0: 4ee7 dcbd c4e2 003d b03a b93d de14 59be
00000300: 4239 7bbd 2e06 213d df6e 5abd 1618 d03c
00000310: c36d eb3d a03a 343d e9b2 54bb 610a aabd
00000320: 2bf5 113e c907 b4bd a742 1fbe 491d 763d
00000330: 25d1 fdbc 4cda 6a3d a875 b6bd 8a67 69bb
00000340: 3dd3 54bd c901 86bc 1c04 52bd a69e c4bc
00000350: 5a87 ee3c 6ead e83c 7b0f 3c3d 519e 763d
00000360: 458c 713c 06d3 dcbc ce1b c1bc 2ea4 c2bd
00000370: 23ef 9a3c 2389 5abd 55e0 e33d 0afe 053c
00000380: 99f0 cdbd e5ec 3fbd fb57 0bbe eca2 eb3b
00000390: f910 bf3d 43f2 bbbd 8b36 0a3d 6f25 c0bd
000003a0: 0a45 253e 4ccf 21bc 3c73 053e 1d31 debc
000003b0: 6c2b 5f3d 7288 9b3d ff47 053c 7223 6abc
000003c0: 3030 56bd b161 b23d 8d82 2e3d 216d eabd
000003d0: d934 d4bc dfbf afbb 57c3 2e3d cf97 bdbc
000003e0: daf6 063d 8bad 5b3e 9c57 c9bb 0252 f2bd
000003f0: d079 cfbd ce1a 9a3c 6772 d43c 9e56 1fbd

mfs_svc_W2_mfs_svc f4 [383, 1]
-0.08799288 0.078978494 0.040167745 -0.0212166 0.010540485 0.03289276 -0.02323956 -0.06953805
0.016974712 -0.043789677 0.011459758 -0.030994382 0.024050986 -0.02436386 0.026578534 -0.0010869665
-0.011331413 -0.0035386977 0.02292417 -0.103521325 -0.014261765 0.12146744 0.049140964 -0.034249622
-0.032308225 -0.0121245 0.014871654 -0.0127645405 -0.022670139 0.0448454 0.0061060544 0.0058876965
-0.0035813525 -0.0026116162 -0.044790674 -0.05147788 -0.021706581 0.10764488 -0.030205283 0.0018945406
-0.030328311 0.018977897 0.01265386 0.063693196 0.04050009 -0.0016809002 -0.010927683 -0.025331056
0.020975467 0.021588182 0.088870265 -0.010601743 0.0058151744 0.054978695 -0.026894452 0.04278553
0.028876804 -0.017732656 -0.055509813 -0.023290826 0.05705497 0.026821598 0.005064656 -0.0010803249
0.0025749812 0.0030198193 -0.039310794 -0.027993798 -0.044097327 0.010094663 0.111743644 -0.056635924
0.02632437 -0.0035535963 0.042685352 -0.058331948 0.009871758 -0.036664683 0.037092496 0.022735104
0.0075556817 0.033129897 0.039107673 -0.011718697 0.029148484 -0.020999737 -0.055827778 0.054326225
-0.052603513 -0.028091837 -0.033444215 0.02262495 -0.07110588 -0.050816417 0.010314002 -0.026321486
0.007155876 0.005251255 -0.02564822 -0.028736133 0.014885222 -0.050582632 0.020139579 0.057237353
-0.017464653 0.042591546 -0.0017293035 0.0613529 -0.0077107064 0.0495359 0.02022845 -0.02282955
0.025531184 0.0010823504 0.002523857 -0.036005612 -0.026786814 0.0146050425 0.054276038 0.07902292
-0.0033320168 0.018288478 -0.022233222 0.047527075 0.008923625 -0.03887977 -0.005997039 -0.008514765
-0.043862898 0.018484628 0.026135184 0.10070553 0.038412828 0.01587031 0.023800591 -0.0077229445
-0.015014367 0.045758635 -0.0489456 -0.04129959 -0.035833955 0.016583156 -0.0040954202 0.03178515
0.011674763 0.021875339 -0.011738264 0.037893094 -0.020023433 -2.9243356e-05 -0.031396862 0.01713223
-0.067993954 -0.04486309 -0.016537001 -0.0126973465 0.05490216 -0.022247836 -0.017705103 0.041704446
0.0068365484 0.029924942 -0.01715036 0.0056420933 0.018450754 0.034393698 -0.069967456 -0.012253036
0.013529377 0.0379718 -0.007139486 0.010362773 0.003730163 0.009539751 0.05970566 -0.021829583
-0.009251691 -0.049139544 0.027039064 -0.05266596 0.03407414 -0.037924353 -0.07283488 0.040921673
-0.08226108 -0.044287685 0.010376922 -0.067106254 -0.039234355 0.0046512075 0.06205593 -0.100694925
-0.0122868605 0.015599912 -0.027155973 0.019596674 0.039314773 0.018754916 -0.008190752 -0.043230105
0.06552448 -0.044433955 -0.05273842 0.041515004 -0.018389652 0.019789994 -0.04892566 -0.00197315
-0.03241957 -0.0018687976 -0.010890263 -0.016796153 0.008455067 0.016491704 0.011084797 0.039255235
-0.008396961 -0.014162678 -0.022454435 -0.032568768 0.013401229 -0.03322465 0.06370244 0.010577346
-0.04660901 -0.033690836 -0.06485378 0.015985085 0.039815206 -0.05075197 0.013386864 -0.045285255
0.07621915 -0.010642102 0.055858534 -0.01638272 0.026083808 0.01379511 0.0121952845 -0.010182677
-0.027706524 0.040688902 0.0146220615 -0.03063806 0.0008342885 0.0030062646 0.011068671 -0.010667637
0.0009187068 0.062350128 0.004620985 -0.03196691 -0.04576425 -0.0045493115 0.013583552 -0.025764614
00000000: 9c35 b4bd 7abf a13d ef86 243d 6fce adbc
00000010: 00b2 2c3c 8fba 063d e460 bebc f769 8ebd
00000020: 8d0e 8b3c ce5c 33bd b5c1 3b3c eee7 fdbc
00000030: 9306 c53c b896 c7bc 3abb d93c 8b78 8eba
00000040: 64a7 39bc 7fe9 67bb 78cb bb3c fd02 d4bd
00000050: 2eaa 69bc ecc3 f83d 0948 493d 5549 0cbd
00000060: a155 04bd d7a5 46bc 3da8 733c 5d22 51bc
00000070: bab6 b9bc cfaf 373d 4c15 c83b 94ed c03b
00000080: 20b5 6abb a627 2bbb 6d76 37bd 78da 52bd
00000090: 00d2 b1bc eb74 dc3d 1271 f7bc 3c52 f83a
000000a0: 1473 f8bc 8977 9b3c 2352 4f3c 9471 823d
000000b0: 6ce3 253d a751 dcba 060a 33bc 1383 cfbc
000000c0: bed4 ab3c b3d9 b03c 9d01 b63d efb2 2dbc
000000d0: 388d be3b 5731 613d c151 dcbc e13f 2f3d
000000e0: 0c8f ec3c 1344 91bc 425e 63bd 67cc bebc
000000f0: 79b2 693d f8b8 db3c 6af5 a53b b099 8dba
00000100: 04c1 283b 29e8 453b 5b04 21bd 4053 e5bc
00000110: 669f 34bd 1664 253c dad9 e43d 12fb 67bd
00000120: 35a6 d73c 74e3 68bb d6d6 2e3d 7bed 6ebd
00000130: 27bd 213c b52d 16bd 4dee 173d f83e ba3c
00000140: a795 f73b 37b3 073d 5e2f 203d c7ff 3fbc
00000150: cdc8 ee3c a407 acbc abab 64bd 2d85 5e3d
00000160: c876 57bd da20 e6bc cdfc 08bd f657 b93c
00000170: f69f 91bd e024 50bd 0ffc 283c 28a0 d7bc
00000180: d77b ea3b b812 ac3b 371c d2bc 0a68 ebbc
00000190: 25e1 733c bc2f 4fbd c2fb a43c b771 6a3d
000001a0: 0812 8fbc 7974 2e3d cca9 e2ba 2e4d 7b3d
000001b0: 18aa fcbb 28e6 4a3d 22b6 a53c 0905 bbbc
000001c0: c626 d13c a7dd 8d3a 4b67 253b 9f7a 13bd
000001d0: 0570 dbbc fd49 6f3c 8d50 5e3d c5d6 a13d
000001e0: f75d 5abb b8d1 953c 7222 b6bc c0ab 423d
000001f0: 6534 123c 6540 1fbd cf82 c4bb 8381 0bbc
00000200: 95a9 33bd 136d 973c 7419 d63c b33e ce3d
00000210: c556 1d3d 7402 823c 75f9 c23c c110 fdbb
00000220: d2fe 75bc 686d 3b3d 2e7b 48bd c229 29bd
00000230: a0c6 12bd 66d9 873c e032 86bb 2531 023d
00000240: 8147 3f3c e933 b33c d951 40bc ca35 1b3d
00000250: 2f08 a4bc a14f f5b7 ff99 00bd e458 8c3c
00000260: 6a40 8bbd 5cc2 37bd 9b78 87bc 8808 50bc
00000270: 16e1 603d 1841 b6bc 4b0a 91bc 48d2 2a3d
00000280: 2005 e03b 2725 f53c e97e 8cbc 4fe1 b83b
00000290: 0926 973c 68e0 0c3d 194b 8fbd f5c0 48bc
000002a0: 52aa 5d3c 5188 1b3d 59f2 e9bb 9fc8 293c
000002b0: c075 743b 9e4c 1c3c ec8d 743d f4d3 b2bc
000002c0: 6894 17bc 8c46 49bd 0781 dd3c 43b8 57bd
000002d0: 5391 0b3d 9156 1bbd 742a 95bd 7c9d 273d
000002e0: 7f78 a8bd 0167 35bd f703 2a3c 016f 89bd
000002f0: 34b4 20bd 2869 983b 5c2e 7e3d 2439 cebd
00000300: d44e 49bc c696 7f3c 3476 debc 3489 a03c
00000310: 8708 213d e9a3 993c 8132 06bc 0d12 31bd
00000320: b331 863d 6100 36bd 3e04 58bd a30b 2a3d
00000330: e5a5 96bc a01e a23c 4666 48bd f74f 01bb
00000340: 62ca 04bd 71f2 f4ba 136d 32bc 1698 89bc
00000350: 1f87 0a3c 9c19 873c 029d 353c 19ca 203d
00000360: 6893 09bc 940a 68bc 5df2 b7bc d466 05bd
00000370: d490 5b3c 9216 08bd 6d76 823d 9b4c 2d3c
00000380: 17e9 3ebd 67ff 09bd 0fd2 84bd 27f3 823c
00000390: 4515 233d 4ce1 4fbd 9454 5b3c 087d 39bd
000003a0: c918 9c3d 365c 2ebc ebcb 643d 0e35 86bc
000003b0: b6ad d53c e304 623c bbce 473c 3ed5 26bc
000003c0: cbf8 e2bc 68a9 263d 5f91 6f3c abfc fabc
000003d0: 27b4 5a3a c004 453b 5f59 353c 50c7 2ebc
000003e0: 5fd5 703a d962 7f3d a26b 973b bcef 02bd
000003f0: 4b73 3bbd 6412 95bb 8c8d 5e3c 5010 d3bc

lv_lr_lv_lr_W f4 [58, 1]
0.02545641 -0.01688002 -0.00018761148 -0.012178991 -0.0013930977 -0.0066955467 0.025372034 -0.022352006
-0.0035437495 0.0012849212 0.0014068047 -0.0058708354 -0.016198602 0.001144903 -0.019470563 0.019340724
0.0011077699 -0.0036619375 0.014804176 -0.0055203 0.006144838 -0.010641802 0.0033120976 0.0058054435
-0.020236138 0.009381779 -0.007757408 0.010988322 -0.006457472 -0.024175107 -0.0029181333 0.009884306
-0.026245948 0.012842311 0.00058630557 0.0017827048 0.00887834 -0.012396301 0.016167123 0.01769771
0.007488796 0.014618028 0.010661346 0.0010713964 0.013851095 -0.0010735713 -0.01245709 -0.014459163
-0.0053832284 0.030530246 0.0076763397 0.0223059 0.0011130375 -0.0033868842 0.02263013 -0.027479813
-0.0065296837 -0.0013809672
00000000: f689 d03c f847 8abc 93b9 44b9 648a 47bc
00000010: 9a98 b6ba 5166 dbbb 03d9 cf3c 8e1b b7bc
00000020: 403e 68bb cd6a a83a 8864 b83a 2360 c0bb
00000030: eeb2 84bc 9210 963a bb80 9fbc 7070 9e3c
00000040: 9732 913a 1efd 6fbb 378d 723c a2e3 b4bb
00000050: a35a c93b f45a 2ebc c70f 593b 973b be3b
00000060: 42c6 a5bc 08b6 193c db31 febb 5d08 343c
00000070: 3499 d3bb e00a c6bc 273e 3fbb c9f1 213c
00000080: be01 d7bc 8e68 523c 4db2 193a a6a9 e93a
00000090: 7576 113c db19 4bbc ea70 843c cafa 903c
000000a0: 9364 f53b 7480 6f3c edac 2e3c 196e 8c3a
000000b0: b4ef 623c 13b7 8cba d318 4cbc 20e6 6cbc
000000c0: cb65 b0bb 911a fa3c ce89 fb3b ddba b63c
000000d0: 57e3 913a 7df6 5dbb d362 b93c 581d e1bc
000000e0: f5f6 d5bb 9201 b5ba

lv_svc_W2_lv_svc f4 [58, 1]
0.020871593 -0.023791516 0.00058169273 -0.017756741 -0.015591576 -0.0094244685 0.028664066 -0.015781567
0.010296015 0.008823737 0.011898608 0.0013859209 -0.019862432 0.0066150334 -0.02254896 0.025584493
0.0025384894 -0.0017304425 0.02761972 -0.01807143 0.021158542 -0.0069308197 0.0082142325 0.020385608
-0.025103958 0.021569097 -0.007879519 0.03236871 -0.013272673 -0.026148919 -0.0073472285 0.012804171
-0.019002836 0.02028045 0.0062370305 0.002863962 0.0042633573 -0.0061035613 0.020880692 0.031600192
0.011384191 0.025842125 0.013719289 -0.00060001883 0.02462613 -0.016527845 -0.020594383 -0.028287025
-0.01450131 0.036473576 0.0005235655 0.021435043 -0.00191782 -0.005778601 0.026071887 -0.030636724
-0.013085978 -0.0041647726
00000000: e7fa aa3c 6de6 c2bc bd7c 183a 9676 91bc
00000010: cf73 7fbc 1669 1abc e7d0 ea3c 5848 81bc
00000020: 9eb0 283c 6f91 103c 61f2 423c caa7 b53a
00000030: 8ab6 a2bc ecc2 d83b 99b8 b8bc 9296 d13c
00000040: c95c 263b 04d0 e2ba c042 e23c 890a 94bc
00000050: ae54 ad3c ee1b e3bb fd94 063c b8ff a63c
00000060: d1a6 cdbc adb1 b03c 1919 01bc 0d95 043d
00000070: a075 59bc 4236 d6bc 05c1 f0bb 96c8 513c
00000080: d6ab 9bbc 3023 a63c 0160 cc3b 4fb1 3b3b
00000090: a2b3 8b3b 6200 c8bb fc0d ab3c 346f 013d
000000a0: c284 3a3c ddb2 d33c dec6 603c 954a 1dba
000000b0: bdbc c93c 6765 87bc 8db5 a8bc 31ba e7bc
000000c0: e796 6dbc 5165 153d e33f 093a 8b98 af3c
000000d0: 5c5f fbba 6b5a bdbb b694 d53c def9 fabc
000000e0: 9266 56bc a578 88bb
