model/checkpoints/mic50_bin10/chemeleon/model_000.onnx (onnx, 549211 bytes, 12 tensors)

lv_onnx::MatMul_4 f4 [1813, 61]
0	0x00000000	0.0
1	0x00000000	0.0
2	0x00000000	0.0
3	0x00000000	0.0
4	0x00000000	0.0
5	0x00000000	0.0
6	0x00000000	0.0
7	0x00000000	0.0
8	0x00000000	0.0
9	0x00000000	0.0
10	0x00000000	0.0
11	0x00000000	0.0
12	0x00000000	0.0
13	0x00000000	0.0
14	0x00000000	0.0
15	0x00000000	0.0
16	0x00000000	0.0
17	0x00000000	0.0
18	0x00000000	0.0
19	0x00000000	0.0
20	0x00000000	0.0
21	0x00000000	0.0
22	0x00000000	0.0
23	0x00000000	0.0
24	0x00000000	0.0
25	0x00000000	0.0
26	0x3f55e1d3	0.83547705
27	0x00000000	0.0
28	0x00000000	0.0
29	0x00000000	0.0
30	0x00000000	0.0
31	0x00000000	0.0
32	0x00000000	0.0
33	0x00000000	0.0
34	0x00000000	0.0
35	0x00000000	0.0
36	0x00000000	0.0
37	0x00000000	0.0
38	0x00000000	0.0
39	0x00000000	0.0
40	0x00000000	0.0
41	0x00000000	0.0
42	0x00000000	0.0
43	0x00000000	0.0
44	0x00000000	0.0
45	0x00000000	0.0
46	0x00000000	0.0
47	0x00000000	0.0
48	0x00000000	0.0
49	0x00000000	0.0
50	0x00000000	0.0
51	0x00000000	0.0
52	0x00000000	0.0
53	0x00000000	0.0
54	0x00000000	0.0
55	0x00000000	0.0
56	0x00000000	0.0
57	0x00000000	0.0
58	0x00000000	0.0
59	0x00000000	0.0
60	0x00000000	0.0
61	0x00000000	0.0
62	0x00000000	0.0
63	0x00000000	0.0
64	0x00000000	0.0
65	0x00000000	0.0
66	0x00000000	0.0
67	0x3f55e1d3	0.83547705
68	0x00000000	0.0
69	0x00000000	0.0
70	0x00000000	0.0
71	0x00000000	0.0
72	0x00000000	0.0
73	0x00000000	0.0
74	0x00000000	0.0
75	0x00000000	0.0
76	0x00000000	0.0
77	0x00000000	0.0
78	0x3f55e1d3	0.83547705
79	0x00000000	0.0
80	0x00000000	0.0
81	0x00000000	0.0
82	0x00000000	0.0
83	0x00000000	0.0
84	0x00000000	0.0
85	0x00000000	0.0
86	0x00000000	0.0
87	0x00000000	0.0
88	0x00000000	0.0
89	0x00000000	0.0
90	0x00000000	0.0
91	0x00000000	0.0
92	0x00000000	0.0
93	0x00000000	0.0
94	0x00000000	0.0
95	0x00000000	0.0
96	0x3f55e1d3	0.83547705
97	0x00000000	0.0
98	0x00000000	0.0
99	0x00000000	0.0
100	0x00000000	0.0
101	0x00000000	0.0
102	0x00000000	0.0
103	0x00000000	0.0
104	0x00000000	0.0
105	0x00000000	0.0
106	0x00000000	0.0
107	0x00000000	0.0
108	0x00000000	0.0
109	0x00000000	0.0
110	0x00000000	0.0
111	0x00000000	0.0
112	0x00000000	0.0
113	0x00000000	0.0
114	0x00000000	0.0
115	0x00000000	0.0
116	0x00000000	0.0
117	0x00000000	0.0
118	0x00000000	0.0
119	0x00000000	0.0
120	0x00000000	0.0
121	0x00000000	0.0
122	0x00000000	0.0
123	0x00000000	0.0
124	0x00000000	0.0
125	0x00000000	0.0
126	0x00000000	0.0
127	0x00000000	0.0
128	0x00000000	0.0
129	0x00000000	0.0
130	0x00000000	0.0
131	0x00000000	0.0
132	0x00000000	0.0
133	0x00000000	0.0
134	0x00000000	0.0
135	0x00000000	0.0
136	0x00000000	0.0
137	0x00000000	0.0
138	0x00000000	0.0
139	0x00000000	0.0
140	0x00000000	0.0
141	0x00000000	0.0
142	0x00000000	0.0
143	0x00000000	0.0
144	0x00000000	0.0
145	0x00000000	0.0
146	0x00000000	0.0
147	0x00000000	0.0
148	0x00000000	0.0
149	0x00000000	0.0
150	0x00000000	0.0
151	0x00000000	0.0
152	0x00000000	0.0
153	0x00000000	0.0
154	0x00000000	0.0
155	0x00000000	0.0
156	0x00000000	0.0
157	0x00000000	0.0
158	0x00000000	0.0
159	0x00000000	0.0
160	0x00000000	0.0
161	0x00000000	0.0
162	0x00000000	0.0
163	0x00000000	0.0
164	0x00000000	0.0
165	0x00000000	0.0
166	0x00000000	0.0
167	0x3f55e1d3	0.83547705
168	0x00000000	0.0
169	0x00000000	0.0
170	0x00000000	0.0
171	0x00000000	0.0
172	0x00000000	0.0
173	0x3f55e1d3	0.83547705
174	0x00000000	0.0
175	0x00000000	0.0
176	0x00000000	0.0
177	0x00000000	0.0
178	0x00000000	0.0
179	0x00000000	0.0
180	0x00000000	0.0
181	0x00000000	0.0
182	0x00000000	0.0
183	0x00000000	0.0
184	0x00000000	0.0
185	0x00000000	0.0
186	0x00000000	0.0
187	0x3f55e1d3	0.83547705
188	0x00000000	0.0
189	0xbf55e1d3	-0.83547705
190	0x00000000	0.0
191	0x00000000	0.0
192	0x00000000	0.0
193	0x00000000	0.0
194	0x00000000	0.0
195	0x00000000	0.0
196	0x00000000	0.0
197	0x00000000	0.0
198	0x00000000	0.0
199	0x00000000	0.0
200	0x00000000	0.0
201	0x00000000	0.0
202	0x00000000	0.0
203	0x00000000	0.0
204	0x00000000	0.0
205	0x00000000	0.0
206	0x00000000	0.0
207	0x00000000	0.0
208	0x00000000	0.0
209	0x00000000	0.0
210	0x00000000	0.0
211	0x00000000	0.0
212	0x00000000	0.0
213	0x00000000	0.0
214	0x00000000	0.0
215	0x00000000	0.0
216	0x00000000	0.0
217	0x00000000	0.0
218	0x00000000	0.0
219	0x00000000	0.0
220	0x00000000	0.0
221	0x00000000	0.0
222	0x00000000	0.0
223	0x00000000	0.0
224	0x00000000	0.0
225	0x00000000	0.0
226	0x00000000	0.0
227	0x00000000	0.0
228	0x00000000	0.0
229	0x00000000	0.0
230	0x00000000	0.0
231	0x00000000	0.0
232	0x00000000	0.0
233	0x00000000	0.0
234	0x00000000	0.0
235	0x00000000	0.0
236	0x00000000	0.0
237	0x00000000	0.0
238	0x00000000	0.0
239	0x00000000	0.0
240	0x00000000	0.0
241	0x00000000	0.0
242	0x00000000	0.0
243	0x00000000	0.0
244	0x00000000	0.0
245	0x00000000	0.0
246	0x00000000	0.0
247	0x00000000	0.0
248	0xbf55e1d3	-0.83547705
249	0x00000000	0.0
250	0x00000000	0.0
251	0xbf55e1d3	-0.83547705
252	0x00000000	0.0
253	0xbf55e1d3	-0.83547705
254	0x00000000	0.0
255	0x00000000	0.0

lr_lr_W f4 [1813, 1]
0	0x3bd4bca8	0.006492216
1	0xbcf68853	-0.030094301
2	0x3a7350ed	0.0009281773
3	0xbbddada0	-0.0067650825
4	0xbc1a03b1	-0.009400294
5	0x3c155c97	0.009116313
6	0x3c75906f	0.014988049
7	0x3c595e2c	0.013267081
8	0x3a7b16f4	0.00095783104
9	0x3be63c8d	0.007026261
10	0x3c708558	0.014680229
11	0xbc5afbbf	-0.013365685
12	0xbab170c8	-0.001353764
13	0x3ba0ad8d	0.0049035014
14	0xbc0bc13a	-0.0085299555
15	0x3d0cebfe	0.034404747
16	0x3c5f01e7	0.013611293
17	0xbaa4714a	-0.001254597
18	0x3cdddef7	0.027083857
19	0x3c9a733b	0.018853774
20	0xbb482cf8	-0.0030544382
21	0xbc17b06e	-0.009258373
22	0x3c3ec6f0	0.01164411
23	0xbb34413d	-0.0027504705
24	0x3acf9f67	0.0015840352
25	0x3b41495e	0.0029493193
26	0xbc7426fb	-0.014901872
27	0x3bb4a660	0.0055129975
28	0x3b8b7f60	0.0042571276
29	0xbc58255f	-0.013192504
30	0x3c5475bc	0.012967523
31	0x3b6aaf27	0.0035809965
32	0x3bd9c235	0.0066454657
33	0xbb92e163	-0.0044824346
34	0x3b366010	0.0027828254
35	0xbc2c2a1f	-0.010508089
36	0xb9717f69	-0.00023031015
37	0x3c4463ef	0.011986717
38	0xbb0ccc90	-0.0021484233
39	0x3c09acd6	0.008403024
40	0xbc28bb6f	-0.010298594
41	0x3c8f9c92	0.017530713
42	0xbceecb41	-0.029149653
43	0x3bd8771e	0.0066059968
44	0xbbdb3b4a	-0.0066904174
45	0xbc1940cb	-0.009353827
46	0x3b22773f	0.0024790314
47	0xba4f4a6e	-0.0007907514
48	0x38d58e21	0.00010183105
49	0x3bfb9333	0.0076774596
50	0x39851a72	0.0002538744
51	0xb98b2f14	-0.00026547222
52	0xbb93410c	-0.004493838
53	0x3c0f6dbc	0.00875419
54	0xbc0801a0	-0.008301169
55	0x3cd11af0	0.02552554
56	0xbc52cf48	-0.0128668025
57	0x3ad842bf	0.0016499384
58	0x3c2bc9af	0.010485097
59	0x3c358944	0.01108009
60	0xbc688d54	-0.0141938515
61	0xbba57182	-0.0050489316
62	0x3cc7532a	0.024331648
63	0x3a239f05	0.00062416523
64	0x3a8f14f2	0.0010916276
65	0x3add3bb5	0.0016878756
66	0xbb9a6f10	-0.0047129467
67	0xbab8d3b6	-0.0014101181
68	0xb95bf29e	-0.0002097585
69	0xbc31b916	-0.010847351
70	0xbb633b38	-0.0034672748
71	0xbcd6c95a	-0.026219059
72	0x3c59c80e	0.013292326
73	0xbbcbec0e	-0.0062232083
74	0xbba47a61	-0.0050194715
75	0x3b2b07f2	0.0026097265
76	0xbc0864ee	-0.008324845
77	0x3b22e6b6	0.0024856753
78	0x3c3c090a	0.011476764
79	0xbb3f7a88	-0.0029217321
80	0x3c08d4fc	0.008351561
81	0xbb888d65	-0.004167246
82	0xbb64afb3	-0.0034894764
83	0x3cdfd36f	0.0273225
84	0x3ad0593b	0.0015895733
85	0xbc00ebe1	-0.007868738
86	0x3c3f714a	0.011684725
87	0xbbc490c4	-0.0059987027
88	0xbadc0e32	-0.0016788899
89	0xbc1a6682	-0.009423854
90	0xbcc26664	-0.023730464
91	0x3b102b5e	0.0021998505
92	0x3c44b338	0.01200562
93	0xbcb18a18	-0.021672294
94	0x3b2adaea	0.0026070424
95	0xbbeef845	-0.0072927796
96	0xbc8ce1d0	-0.01719752
97	0xba113db7	-0.0005540507
98	0xbc3f6feb	-0.011684398
99	0xbbe1e050	-0.006893195
100	0x3baaedca	0.005216335
101	0x3aa8c0ad	0.0012874805
102	0xbb96b443	-0.0045991256
103	0x3b954481	0.0045552854
104	0x3c1999da	0.00937506
105	0x3b156392	0.0022794944
106	0x3b94d583	0.004542054
107	0x3c9d6806	0.019214641
108	0xbcb60c8e	-0.022222783
109	0x3c135302	0.008991959
110	0xbb633b38	-0.0034672748
111	0x3a8a20b0	0.0010538306
112	0xbc485bc0	-0.012228906
113	0x3c052fa9	0.008129039
114	0xbc6d0b05	-0.014467959
115	0x3c5061c6	0.0127186235
116	0x3c5d1efa	0.013496155
117	0xbb8176e4	-0.0039509404
118	0xbc20b2ff	-0.009808301
119	0x3c03d59f	0.008046537
120	0x3b9e13d2	0.00482414
121	0x3c057827	0.008146322
122	0x3c17a9e2	0.009256812
123	0x3c03d59f	0.008046537
124	0x3c092f58	0.008373104
125	0xbbdf63bb	-0.0068173087
126	0xbca8fa7e	-0.020627256
127	0xbc5b9f63	-0.0134047
128	0x3b5ab3f3	0.0033371418
129	0x3cd1cb16	0.025609534
130	0x3afe5e34	0.0019406737
131	0xbc18c608	-0.009324558
132	0x3a5f4cfc	0.00085182465
133	0x3c86c442	0.016451005
134	0x3a848cca	0.0010112759
135	0xbc7a0a55	-0.015261252
136	0xbc5cc7ab	-0.013475339
137	0x3b8aef72	0.00423997
138	0x3c86216c	0.016373359
139	0x3a85c9fc	0.0010207291
140	0x3b21a24e	0.0024663392
141	0x3c05da9e	0.008169798
142	0x3c4e95c6	0.012608951
143	0x3c1ef794	0.009702582
144	0x3c79429a	0.015213633
145	0xbaa1477c	-0.0012304629
146	0x3c5ad469	0.013356307
147	0x3c304bf4	0.010760296
148	0x3c489710	0.012243047
149	0x3ac4b6a3	0.0015008043
150	0x3a0436a1	0.0005043541
151	0x3c7b38e6	0.01533339
152	0x3b99f3f9	0.0046982733
153	0xbb2470de	-0.0025091688
154	0x3bbc8a8a	0.00575382
155	0xb6b479b8	-5.378588e-06
156	0x3c2b0ad3	0.010439592
157	0x3c0925a3	0.00837079
158	0x3b801f11	0.0039099534
159	0xbacbd20c	-0.001555027
160	0xbad51226	-0.0016256019
161	0xbc246460	-0.010033697
162	0x3c0dacda	0.008647168
163	0x3a15fbe7	0.00057214353
164	0x3c5e7d2d	0.013579649
165	0xbc0281d1	-0.007965521
166	0x3bd87080	0.006605208
167	0xbc06b6a3	-0.008222255
168	0xbbdb5047	-0.0066929194
169	0x3c419e49	0.011817523
170	0x3c2858a3	0.010275039
171	0xbbcbd05f	-0.006219908
172	0x3c7435f0	0.014905438
173	0x3c16e43b	0.009209688
174	0x3acac8ef	0.001547126
175	0x3b725401	0.003697634
176	0x3a8bb82a	0.0010659744
177	0xbbe8fc0d	-0.007110125
178	0xbc601c70	-0.013678655
179	0xbc08836a	-0.008332113
180	0xbc102ecb	-0.008800219
181	0xbb0e5c52	-0.0021722508
182	0xbabc2577	-0.0014354427
183	0x3c0b1db9	0.008490973
184	0x3c2ca16a	0.010536531
185	0xbbb01b32	-0.0053743357
186	0xbb7a5cd6	-0.0038202307
187	0x3c1bf01b	0.009517695
188	0xbb9b152c	-0.0047327485
189	0xbc08aa61	-0.008341403
190	0xbc40897c	-0.011751529
191	0x3943078d	0.00018599462
192	0xbc8f99ea	-0.017529447
193	0xbc24db0d	-0.010061991
194	0x3c0a88f0	0.0084555
195	0xbc2684c3	-0.010163489
196	0x3bffc01c	0.0078048836
197	0x3c03d59f	0.008046537
198	0x3b2ac751	0.0026058743
199	0x3cb688de	0.02228206
200	0x3cb48eab	0.022040686
201	0xbb35a2b3	-0.0027715384
202	0x3c822735	0.015887836
203	0xbc0f551f	-0.008748322
204	0xba7cc406	-0.0009642247
205	0x3bc9c4bf	0.006157487
206	0x3b2309c0	0.0024877638
207	0x3c85317b	0.016258946
208	0xbc4d43d0	-0.012528375
209	0x3b897026	0.0041942773
210	0x3a10c074	0.0005521842
211	0xb9cf4fd9	-0.00039541608
212	0x3c20495a	0.009783113
213	0xbc05447e	-0.008134006
214	0xba3cfe23	-0.00072095
215	0xbb7820ed	-0.0037861422
216	0x3c41e102	0.011833431
217	0x3bb09ec4	0.00539002
218	0xbb7366f4	-0.0037140222
219	0x3c8861f3	0.016648268
220	0x3caa8233	0.020814037
221	0xbb34a9ac	-0.0027566953
222	0x3bffdcc5	0.0078083
223	0x3bf4d7aa	0.007471998
224	0xbb9a0635	-0.004700447
225	0xbc1089ad	-0.008821887
226	0x3bccbbb3	0.0062479614
227	0xbb95728e	-0.004560775
228	0x3a499ff1	0.00076913746
229	0x3a13075f	0.00056087034
230	0x3b43cac1	0.002987549
231	0x3c9555b6	0.018229347
232	0xbca62da5	-0.020285437
233	0xbc00b6b0	-0.007856056
234	0x3b84f41b	0.00405742
235	0xbc3d120d	-0.011539948
236	0xbb9effe4	-0.004852282
237	0xbc805e9d	-0.015670115
238	0xbc913c55	-0.017728964
239	0x3bc02d71	0.005864792
240	0x3c75244f	0.01496227
241	0x3b100307	0.002197446
242	0xbb9afcfb	-0.0047298647
243	0x3bd4b5c0	0.006491393
244	0x3b2f472e	0.0026745307
245	0x3bfb4f13	0.0076693385
246	0xbaf3f8f0	-0.0018613618
247	0x3c0ea677	0.0087066805
248	0x3cb86430	0.02250871
249	0xba766508	-0.000939921
250	0x3c1ef6f0	0.009702429
251	0xbc2dc9e1	-0.010607214
252	0x3ce45c5c	0.027876072
253	0xbc35f1b9	-0.011104994
254	0x3ada15f9	0.0016638628
255	0xb94847d5	-0.00019100246

svc_W2_svc f4 [1813, 1]
0	0xb9d40541	-0.00040439705
1	0xbc07dd6a	-0.008292535
2	0xbab8390c	-0.0014055087
3	0xbbce4d85	-0.006295862
4	0xbaadcd28	-0.0013259994
5	0x3a4091a9	0.0007345924
6	0x3c891850	0.016735226
7	0x3b547686	0.0032419278
8	0x39109680	0.00013788976
9	0x3a07dcef	0.0005182763
10	0x3bf9ae68	0.007619668
11	0xbb7471a8	-0.003729919
12	0x3bc49968	0.0059997328
13	0x3b0b212d	0.002122949
14	0x39e38579	0.0004339626
15	0x3c28a69f	0.010293632
16	0x3c3fa7cf	0.0116977235
17	0x37ea5847	2.7936081e-05
18	0x3c21d2cd	0.009876919
19	0x3c57b0e7	0.013164735
20	0xba80fe36	-0.0009841386
21	0xbb98bd08	-0.004661206
22	0x3b608e2a	0.0034264424
23	0xbb8e7649	-0.004347597
24	0xba3b1fe4	-0.0007138236
25	0x3b81202d	0.003940603
26	0xbbd61613	-0.006533393
27	0x3b58adff	0.0033062694
28	0x3b4f0a55	0.0031591852
29	0xbb925403	-0.0044655814
30	0x3c1657c9	0.009176203
31	0x39d3b761	0.00040381684
32	0x3a44c1a5	0.0007505662
33	0x3a635bd2	0.0008673045
34	0xba2ef2f4	-0.0006673776
35	0x3a1d5783	0.0006002115
36	0xbbcd8546	-0.006271991
37	0x3b81e8e8	0.003964532
38	0x39f5cb62	0.00046881574
39	0xba0287fe	-0.0004979371
40	0x3b1790ef	0.0023127159
41	0x3be7c5ce	0.0070731407
42	0xbc5fc399	-0.013657474
43	0x3b90f2b6	0.0044234646
44	0xbb082d79	-0.0020779057
45	0xbc093710	-0.008374944
46	0x3bad2963	0.0052844747
47	0xbac46589	-0.0014983873
48	0x3aa4ae42	0.001256414
49	0x3b3d39e7	0.0028873624
50	0xb83a5f23	-4.443446e-05
51	0x3a35df72	0.0006937898
52	0x3a4471de	0.0007493774
53	0x3c1997c7	0.009374565
54	0xbbad0eab	-0.0052812896
55	0x3bfabcf2	0.0076519186
56	0xbba27b3d	-0.004958539
57	0x3b9db296	0.004812549
58	0xb9f8bd21	-0.00047443158
59	0x3c1ab2c8	0.009442039
60	0xbbb6f620	-0.0055835396
61	0xbbcff80c	-0.006346708
62	0x3c7a02f1	0.01525949
63	0x3b3dcdf1	0.0028961862
64	0xbbe7362c	-0.0070560183
65	0x3999e89c	0.00029355742
66	0xbb4dcda3	-0.0031403087
67	0x3aa8ab10	0.0012868363
68	0xbb739478	-0.0037167352
69	0xbb9f401c	-0.0048599374
70	0xbb9a81ec	-0.004715195
71	0xbc4c6b1c	-0.012476709
72	0x3c037a3a	0.008024747
73	0xbaf816d3	-0.0018927701
74	0x3a9213d1	0.0011144822
75	0x3b495a53	0.0030724003
76	0xbbecd1e4	-0.0072271693
77	0xbaa4a33c	-0.0012560855
78	0x3bed0716	0.0072335107
79	0xba922ad0	-0.0011151675
80	0x3ae67296	0.0017581757
81	0xba2df803	-0.0006636383
82	0xbb18405e	-0.0023231725
83	0x3c883bd7	0.016630096
84	0xbb089934	-0.002084327
85	0xbb92f0f1	-0.004484289
86	0x3b586157	0.0033017003
87	0xbbcd18a7	-0.0062590423
88	0xba3db0fe	-0.0007236152
89	0xbbe1f8ec	-0.006896129
90	0xbc081b72	-0.008307325
91	0x3a78badb	0.0009488293
92	0x3baebac1	0.0053323214
93	0xbc27ef0e	-0.010249866
94	0xbadd9671	-0.0016905797
95	0xbb133249	-0.0022460392
96	0xbbc4efc3	-0.006010027
97	0xbb00d6e6	-0.001965934
98	0xbbe1e21c	-0.0068934094
99	0xb9bcfc84	-0.00036046293
100	0xbb57405e	-0.0032844762
101	0xbb325846	-0.002721326
102	0xbb3bb497	-0.0028641575
103	0x3b00f302	0.0019676094
104	0x3b22d9dc	0.0024849093
105	0x3b7ca9f1	0.0038553441
106	0x3b9d9bb8	0.004809823
107	0x3bbed29c	0.0058234464
108	0xbb9dfbcf	-0.0048212777
109	0x3c0be6e3	0.008538934
110	0xbb9a81ec	-0.004715195
111	0x39f4c2ce	0.00046684447
112	0xbbc1ab83	-0.0059103384
113	0xbb134a52	-0.0022474718
114	0xbbe43608	-0.006964449
115	0x3b8648fc	0.004098056
116	0x3be25b8d	0.0069078864
117	0x3af741e8	0.0018864246
118	0xba991f2b	-0.0011682262
119	0x3c55314d	0.0130122425
120	0x3a35caab	0.0006934802
121	0x39981f58	0.00029015052
122	0x3ad56a05	0.0016282207
123	0x3c55314c	0.013012242
124	0x3a306104	0.00067283236
125	0x3a40a5ed	0.00073489436
126	0xbbbd4186	-0.0057756333
127	0xbc05c1be	-0.0081638675
128	0x3b15ffb4	0.0022888007
129	0x3bbe4da2	0.0058075944
130	0x38971a49	7.205137e-05
131	0xbab7b12d	-0.0014014594
132	0x3ba5ad87	0.0050560865
133	0x3b81fcb6	0.003966893
134	0xbbc27caa	-0.0059352713
135	0xbb728353	-0.0037004545
136	0xbb30598e	-0.0026908848
137	0xbaf6bc2b	-0.0018824389
138	0x3b94f940	0.0045463145
139	0x3b036b0e	0.0020052823
140	0xbb150c24	-0.0022742832
141	0x3c0b0444	0.008484904
142	0x3afcf108	0.0019297907
143	0x3c591590	0.01324977
144	0x3c127514	0.008939046
145	0xbb7fc252	-0.0039025736
146	0x3c199584	0.009374026
147	0x3a8b5f4c	0.0010633259
148	0x3b22d9dc	0.0024849093
149	0x3bf7b0ca	0.0075589167
150	0xbb23ec7c	-0.0025012782
151	0x3c08eea9	0.008357682
152	0x3b359ee7	0.0027713121
153	0x396eea77	0.00022784794
154	0x396a65c1	0.00022353885
155	0xbb6da0ca	-0.0036259168
156	0x3c1a27b2	0.009408878
157	0x3b0d2611	0.0021537582
158	0x3adfbbc5	0.001706951
159	0x39b3457d	0.00034193313
160	0x3b299514	0.002587621
161	0xbba954d9	-0.0051675853
162	0x3c5e830c	0.013581049
163	0xb9e29880	-0.000432197
164	0x3b847680	0.0040424466
165	0xbaa0d1af	-0.0012269522
166	0xba23cc4f	-0.0006248401
167	0xbac8733e	-0.0015293134
168	0xbb8f4fed	-0.0043735416
169	0x3baba7e5	0.0052385204
170	0x3b425da0	0.0029657856
171	0xbab2f2bd	-0.0013652664
172	0x3b6e8997	0.0036397928
173	0x3b0b2b1e	0.0021235417
174	0x3be4f3cd	0.006987071
175	0x3a540670	0.00080881175
176	0x3af9fb70	0.0019072127
177	0xbb949b8f	-0.0045351456
178	0xbaa0273f	-0.0012218727
179	0x39ad57e8	0.00033062627
180	0xbbc045ab	-0.00586768
181	0x3b0f97e8	0.0021910612
182	0xbaa56b38	-0.0012620455
183	0x3b243f8f	0.0025062298
184	0x3ab0b3eb	0.0013481354
185	0xbbd8d48b	-0.006617134
186	0xbbb1c4e4	-0.0054250825
187	0x3b51a936	0.0031991727
188	0xbb082ce3	-0.0020778708
189	0xbb8a9ad9	-0.004229885
190	0xbc4338f0	-0.01191543
191	0xb9ed4bf1	-0.00045260743
192	0xbc244e5b	-0.010028447
193	0xbba75429	-0.005106468
194	0x3aedc327	0.0018139825
195	0xbbc9b57f	-0.006155669
196	0x3b0f270f	0.002184335
197	0x3c55314c	0.013012242
198	0xb9a9312a	-0.00032270822
199	0x3bf5a1ca	0.0074960934
200	0x3c1ccbad	0.009570044
201	0xbaf1f0b3	-0.0018458575
202	0x3bce656b	0.006298711
203	0xbb2e7ecd	-0.0026625872
204	0xbb1ad93b	-0.0023628015
205	0x3bc0e664	0.0058868397
206	0xb9a8931b	-0.0003215306
207	0x3a00baec	0.0004910666
208	0xbbe65e43	-0.00703028
209	0x362e9625	2.6015416e-06
210	0x3bafa5af	0.005360327
211	0xbacf1c42	-0.0015801268
212	0x3c06d064	0.008228395
213	0xbbeaa865	-0.0071611875
214	0x3bcc8025	0.006240862
215	0xbafbabf5	-0.0019201027
216	0x3bb93246	0.005651745
217	0xba23a90b	-0.0006243146
218	0xbb08e378	-0.0020887535
219	0x3be15dbf	0.0068776305
220	0x3b5baab1	0.0033518488
221	0xbae98c5d	-0.0017818321
222	0x3affc596	0.0019513841
223	0xbb467604	-0.0030282745
224	0xbabaad00	-0.0014242232
225	0xbb31a696	-0.002710735
226	0x3b9ca140	0.0047799647
227	0xbb41143d	-0.0029461526
228	0x3b8355cb	0.00400803
229	0x39df61b4	0.0004260667
230	0xba089d92	-0.0005211468
231	0x3c1bf5cc	0.009519052
232	0xbc0f3b62	-0.008742185
233	0xbae101f8	-0.0017166724
234	0x3b9834ef	0.004644982
235	0xbbd2a8b3	-0.006428802
236	0x3a846860	0.0010101907
237	0xbc07d975	-0.008291592
238	0xbc031106	-0.007999664
239	0x3af2cc6c	0.0018524057
240	0x3bb4095e	0.0054942807
241	0x3bf00be3	0.0073256358
242	0xba4c07de	-0.0007783155
243	0x3ba2b427	0.0049653235
244	0x3a78526b	0.00094727305
245	0x3b9dfe74	0.004821593
246	0xbb631712	-0.0034651202
247	0x3ba4c9c9	0.0050289375
248	0x3b990ee7	0.004670966
249	0xbaa043f5	-0.0012227284
250	0x3b81b535	0.003958369
251	0xbad42da7	-0.0016187922
252	0x3c2e7659	0.0106483335
253	0xbbecf3e3	-0.007231222
254	0xb8d5de8c	-0.00010198084
255	0x3b03657b	0.00200495

fs_lr_fs_lr_W f4 [550, 1]
0	0x3b138a7a	0.0022512958
1	0xbd0b7681	-0.03404856
2	0xbbfb6baf	-0.007672749
3	0xbc5f2e76	-0.013621917
4	0x3cbdf0c0	0.023186088
5	0x3d2c0f07	0.04200652
6	0x3c884893	0.016636169
7	0xbc1e501a	-0.009662652
8	0xbc9410ac	-0.018074356
9	0xbab45129	-0.0013757098
10	0xbcaa7af9	-0.020810591
11	0x3a111828	0.00055349106
12	0x3be77bcd	0.0070643188
13	0xbc9f1f16	-0.019424003
14	0x3ccb4319	0.024812268
15	0xbc3d03e2	-0.01153657
16	0x3b454c31	0.0030105228
17	0x3cdd6f03	0.027030474
18	0x3bc51ed4	0.006015638
19	0xbc703f0d	-0.01466347
20	0x3d02385d	0.031792033
21	0xbc2f4c64	-0.010699365
22	0xbc665005	-0.014057164
23	0x3bfc54c2	0.0077005336
24	0x3d0cdb97	0.034389105
25	0x3c20c859	0.009813392
26	0xbc1f56a9	-0.009725251
27	0xbd254330	-0.040347278
28	0xbc41519d	-0.011799243
29	0xbaed994f	-0.0018127355
30	0x3c91f3a6	0.017816376
31	0xbcfab4a5	-0.030603716
32	0x3bf91266	0.00760107
33	0x3c2f8cdd	0.010714737
34	0x3c4972b3	0.012295413
35	0xbbe292e0	-0.0069144815
36	0xbb97c67f	-0.004631817
37	0x3be8ba08	0.007102255
38	0x3b7fb600	0.0039018393
39	0xbba51367	-0.0050377133
40	0xbcf7e768	-0.03026171
41	0x3d004e1c	0.03132449
42	0x3ca50643	0.020144587
43	0xbbe9fc3a	-0.0071406635
44	0xbccdaeff	-0.025107859
45	0xbc935214	-0.017983474
46	0x3c948306	0.018128883
47	0xbc1f9bdc	-0.00974175
48	0x3c12acb6	0.00895231
49	0x3c0e1575	0.008672108
50	0x3c56a484	0.013100747
51	0x3a90160b	0.0010992897
52	0xbc07564f	-0.008260324
53	0x3c046e77	0.0080829775
54	0x3c2a1246	0.010380333
55	0x3b7cf74c	0.003859955
56	0x3c3a2d12	0.011363285
57	0x3bac8811	0.005265244
58	0x3c6af353	0.01434024
59	0x3bfb4b7e	0.0076689115
60	0xbc365524	-0.011128698
61	0xbca60b2b	-0.020268997
62	0x3bb20ad9	0.005433422
63	0x3ba76e14	0.005109558
64	0xbcd7783b	-0.026302448
65	0x3bba6f13	0.0056895106
66	0x3d0ce064	0.034393683
67	0x3c99de6d	0.018782819
68	0x3c8917a4	0.016734906
69	0x3c8c907a	0.017158736
70	0x3ad7445a	0.0016423569
71	0x3cbd82c9	0.023133652
72	0x3ba19d6c	0.004932096
73	0x3b74db25	0.0037362066
74	0xbbe1dcf9	-0.006892797
75	0xbcc7140f	-0.024301557
76	0xbc8f4c93	-0.017492568
77	0x3bf49c45	0.007464918
78	0x3b72e565	0.0037063
79	0x3ca58de5	0.020209262
80	0xbc05027a	-0.008118266
81	0xbc7c6e0f	-0.015407099
82	0x3d0df402	0.034656532
83	0x3c84f20e	0.016228702
84	0xbc02c2b9	-0.007980996
85	0x3bd81545	0.0065943324
86	0x3ad82508	0.0016490528
87	0x3c89b94f	0.016811995
88	0x3cc605f2	0.024172757
89	0xbc08b9cf	-0.0083450815
90	0x3b8a13c9	0.0042137844
91	0xbba2e378	-0.004970964
92	0x3cb19fdd	0.021682674
93	0x3c40e5af	0.011773511
94	0x38cb7be9	9.7028744e-05
95	0x3cbe83bd	0.023256177
96	0x3c081ec8	0.00830812
97	0xbc62298c	-0.013803851
98	0xbb59c19f	-0.003322698
99	0x3bc32d89	0.005956356
100	0x3bc93ac8	0.0061410405
101	0x3ab74973	0.0013983682
102	0xbb67796f	-0.0035320183
103	0x3c1b880a	0.009492883
104	0xbc992f4c	-0.01869931
105	0x3c90a7f6	0.017658215
106	0x3c13a9f0	0.009012684
107	0x3b87085b	0.004120869
108	0xbb12dc8d	-0.002240929
109	0xbd0739a1	-0.033013944
110	0xbc6ad2c9	-0.014332482
111	0x3c1888f9	0.009310001
112	0xb969f484	-0.00022311701
113	0x3c398556	0.011323294
114	0xbc9c32c7	-0.019067181
115	0x3c14da70	0.009085283
116	0x3ba6eba2	0.0050940076
117	0xbc83276f	-0.016010014
118	0xba9b472e	-0.0011846775
119	0x3d18da18	0.037317365
120	0x3c116d5d	0.008876172
121	0x3cfcb7b3	0.030849313
122	0xbcad2f66	-0.021140765
123	0x3ca3686b	0.019947251
124	0x3be74ed1	0.007058956
125	0xbcaa5007	-0.020790113
126	0xbc84f054	-0.016227879
127	0xbb88d0c5	-0.004175278
128	0xbb22382e	-0.0024752724
129	0x3c01e422	0.007927926
130	0x3be5c9bb	0.0070125735
131	0x3c89b94f	0.016811995
132	0xba2c6d61	-0.0006577578
133	0x3cc508ce	0.02405205
134	0x3c9fc82e	0.019504633
135	0xbc1c62a5	-0.009545003
136	0xbc4fb580	-0.01267755
137	0xbcacda5a	-0.021100212
138	0x3d0465a5	0.0323235
139	0x3c8bc15e	0.017059978
140	0xbd0c1d2c	-0.034207508
141	0x3ca0889a	0.019596387
142	0xbc6aff00	-0.014343023
143	0x3ca208c0	0.019779563
144	0x3c2c6374	0.010521758
145	0xbc3c2aad	-0.011484784
146	0xbcbb330d	-0.022851491
147	0x3c6d9000	0.014499664
148	0x3cc2e291	0.023789676
149	0xbcefdde3	-0.029280609
150	0x3bff5461	0.007792041
151	0x3bb2961a	0.0054500224
152	0x3c9b6fd9	0.018974232
153	0x3a489406	0.0007651452
154	0xbbc58f69	-0.0060290587
155	0xba313edb	-0.00067613804
156	0x3bfe97c2	0.007769556
157	0xba2dac7e	-0.00066251296
158	0x3baeb5ce	0.0053317314
159	0x3bda2985	0.0066577815
160	0xbcda2a1a	-0.026631404
161	0x3c9f2d5c	0.019430809
162	0x3ad41a63	0.001618218
163	0xbb5d9cad	-0.003381531
164	0x3cc8c495	0.0245078
165	0x3bd79049	0.0065784794
166	0x3cd875b6	0.026423316
167	0x3c36f52a	0.01116685
168	0x3c1f3091	0.009716169
169	0x3c1dc25b	0.0096288575
170	0x3cb1d18f	0.02170637
171	0x3c19fa25	0.009398018
172	0x3c7da53a	0.015481288
173	0x3ced24d6	0.028948229
174	0xbca2c5f2	-0.019869778
175	0x3c3d408a	0.011551032
176	0x3b426da1	0.0029667395
177	0x3c1dc71b	0.00962999
178	0x3b2e256f	0.0026572605
179	0x3c9f29f1	0.019429179
180	0x3bb45f1a	0.005504501
181	0xbcd42c43	-0.025900012
182	0x3c87f561	0.016596498
183	0x3d170684	0.03687145
184	0xbc59a317	-0.013283513
185	0xb8f19c40	-0.00011520879
186	0xbb59faef	-0.003326114
187	0x3c88026d	0.01660272
188	0x3c00d67c	0.007863637
189	0xbc5c4f05	-0.013446574
190	0x3cbb471a	0.022861052
191	0xbc88037f	-0.01660323
192	0xbbb7f07c	-0.005613385
193	0xbc022722	-0.0079439
194	0x3ccaf8ae	0.024776783
195	0x3b84688e	0.004040784
196	0xbbf596cd	-0.0074947835
197	0xbaadf07b	-0.0013270521
198	0x3c00a929	0.007852831
199	0x3d04b442	0.03239847
200	0x3c01bc55	0.007918437
201	0x3d072526	0.032994412
202	0x3c8c91e1	0.017159404
203	0x3b214d51	0.0024612735
204	0xbc024949	-0.007952043
205	0x3c25d005	0.0101203965
206	0x3caa6ae4	0.020802923
207	0xbb8957d6	-0.004191379
208	0x3cde4deb	0.027136764
209	0x3d053c47	0.032528188
210	0xbc9756d7	-0.018474026
211	0xbc3041fd	-0.01075792
212	0xbc460831	-0.012086914
213	0xbc78a002	-0.015174868
214	0x3c8a9e44	0.01692117
215	0x3c8245cd	0.015902424
216	0x3cb50448	0.022096768
217	0x3bf7b7d7	0.007559757
218	0x3c31ae1e	0.010844735
219	0x3c2c2030	0.010505721
220	0x3c94af21	0.018149914
221	0x3c4ae65a	0.012384022
222	0x3cfc1083	0.030769592
223	0x3c8f84b9	0.017519342
224	0x3c38e984	0.011286143
225	0x3cc55929	0.024090366
226	0xbb22c304	-0.0024835477
227	0x3d0500b3	0.03247137
228	0xbb1a3001	-0.0023527148
229	0xbc862dda	-0.016379286
230	0x3c221536	0.009892752
231	0x3b82ac5f	0.0039878334
232	0xbcabcb05	-0.02097083
233	0x3c0d2379	0.008614414
234	0x3c91406b	0.017730912
235	0x3cf30bad	0.029668653
236	0x3bb4b28e	0.0055144494
237	0x3ce586df	0.028018413
238	0x3bdfb941	0.006827504
239	0x3cd5f4f3	0.026117777
240	0x3c822767	0.01588793
241	0x3bc56c5d	0.006024881
242	0x3bb72fa5	0.0055903965
243	0x3c35e96f	0.011103018
244	0x3c13b4e3	0.009015295
245	0xbc0cdf58	-0.008598171
246	0x3c89b94f	0.016811995
247	0x3cba83a7	0.022767855
248	0xbc82eb3b	-0.015981307
249	0x3b879912	0.0041381205
250	0x3caaecd3	0.02086488
251	0x3c60ae31	0.0137134055
252	0x3d3caef9	0.046065304
253	0x3c16982e	0.009191556
254	0xbcd5ef92	-0.026115213
255	0x3bea9b1c	0.0071596038

fs_svc_W2_fs_svc f4 [550, 1]
0	0xbb3d3624	-0.0028871382
1	0xbd457ff7	-0.04821774
2	0xbb3f1b9e	-0.0029160748
3	0x3be2d30a	0.0069221305
4	0x3c8567bf	0.016284822
5	0x3ce1b092	0.027550016
6	0x3b45ad01	0.0030162933
7	0xbb88a032	-0.0041694874
8	0xbd08a380	-0.03335905
9	0x3c1ab729	0.009443083
10	0xbcca494c	-0.024693154
11	0x3bcc680f	0.0062379907
12	0x3c8fd7ef	0.01755902
13	0xbd4293aa	-0.047504105
14	0x3c7fa0dc	0.015602317
15	0xbbf700e9	-0.0075379503
16	0x3bbd2cb2	0.0057731504
17	0x3d0e1e15	0.034696657
18	0x3c474e25	0.012164627
19	0xbc9629f8	-0.01833056
20	0x3d3c3d84	0.045957103
21	0xbcd5a3e6	-0.02607913
22	0x3b177402	0.0023109918
23	0x3c966e58	0.018363163
24	0x3d1fc5f5	0.039007146
25	0x3cf0cbaa	0.02939399
26	0xbcbacaa5	-0.022801707
27	0xbd53ac19	-0.051677797
28	0x3ac2bc89	0.0014857213
29	0x3aaeb96a	0.0013330404
30	0x3d1a8039	0.03771994
31	0xbd2b8387	-0.04187348
32	0x3cae1572	0.02125046
33	0x3cdac7e0	0.026706636
34	0x3c931144	0.017952569
35	0xbd24917e	-0.040177815
36	0x3b9fa743	0.004872234
37	0x3c4b92da	0.012425149
38	0xba7961bf	-0.00095131615
39	0xbc4a73b7	-0.01235669
40	0xbd04a68d	-0.032385398
41	0x3cee728c	0.029107355
42	0x3cb29916	0.021801513
43	0xbaf196a2	-0.0018431733
44	0xbd28cc1c	-0.04121028
45	0xbd368ea5	-0.04456963
46	0x3d1606c9	0.036627565
47	0xbb1d8d82	-0.0024040644
48	0x3cfa8872	0.03058264
49	0x3c80b0e9	0.015709357
50	0x3cf821ba	0.03028952
51	0x3c2f50c4	0.010700408
52	0xbc98b5d2	-0.018641386
53	0x3c67515e	0.014118521
54	0x3ccdaada	0.025105882
55	0x3c83f7c2	0.016109351
56	0x3d06e6fc	0.032935128
57	0x3b8e4476	0.0043416573
58	0x3cd3e4ff	0.02586603
59	0x3c97472a	0.01846655
60	0x3a1963c0	0.0005851351
61	0xbce03c35	-0.027372459
62	0x3ce34aed	0.027745688
63	0x3c3d6941	0.011560739
64	0xbd3b61ec	-0.045747682
65	0x3ca0b10d	0.019615674
66	0x3d84770d	0.0646802
67	0x3d10f75a	0.035392143
68	0x3ce45a15	0.027874986
69	0x3cf4dfdc	0.0298919
70	0x3c452600	0.012032986
71	0x3cd1a6c7	0.025592221
72	0x3bff3710	0.0077885464
73	0x3c427786	0.011869317
74	0x3b4e092c	0.0031438572
75	0xbd0e9919	-0.034813974
76	0xbd05f391	-0.032702986
77	0x3be10fe9	0.0068683517
78	0x3c665815	0.014059086
79	0x3cf46665	0.029833982
80	0xbb76a216	-0.0037633232
81	0xbcdd97f7	-0.027050002
82	0x3ce12190	0.027481824
83	0x3cc3156a	0.023813922
84	0xbc19a067	-0.009376622
85	0x3bfcaceb	0.007711043
86	0x3b37e713	0.0028061315
87	0x3c9ef88b	0.019405624
88	0x3d027d09	0.031857524
89	0x3b21bc07	0.0024678723
90	0x3cb28da0	0.021796048
91	0x3a357dd0	0.00069233496
92	0x3cba9f2c	0.022780977
93	0x3c52413d	0.012832937
94	0x3c20c56e	0.009812696
95	0x3c9ebdb8	0.019377574
96	0x3c742376	0.014901033
97	0xbc8ad5a6	-0.016947579
98	0xbad45f24	-0.001620267
99	0x3c956478	0.018236384
100	0x3cde9e8b	0.027175209
101	0xbab6d4de	-0.0013948937
102	0x3c85c4c3	0.016329175
103	0x3c34cdde	0.011035411
104	0xbd02a084	-0.03189136
105	0x3c9cc28a	0.019135732
106	0x3c81251d	0.015764767
107	0x3a8e7eb3	0.00108715
108	0x3c68139a	0.01416483
109	0xbd57c51a	-0.052678205
110	0xbbe65b4d	-0.007029927
111	0x3c6e747a	0.014554137
112	0x3c11c23c	0.008896407
113	0x3c98ea1b	0.018666318
114	0xbcefe29b	-0.029282859
115	0x3c0f5508	0.0087483
116	0xbc3cbbcb	-0.011519383
117	0xbcee622a	-0.029099543
118	0x3c38b3b1	0.0112733105
119	0x3d1d0bd6	0.038341366
120	0x3cc5a732	0.024127577
121	0x3d0cd1ab	0.034379642
122	0xbd3127f3	-0.04325099
123	0x3d071ac2	0.032984503
124	0x3c7d322f	0.015453859
125	0xbd0de227	-0.034639504
126	0xbd2eb430	-0.04265231
127	0x3b853b56	0.0040659113
128	0x3bc3ce08	0.0059754886
129	0x3b36d191	0.0027895907
130	0xbba58b30	-0.005051993
131	0x3c9ef88b	0.019405624
132	0x3b6d9f8b	0.0036258425
133	0x3d2bb568	0.04192105
134	0x3cd3c0c5	0.025848756
135	0xbb723486	-0.0036957576
136	0xbc978312	-0.018495116
137	0xbca55c4f	-0.020185618
138	0x3d10df32	0.035369106
139	0x3cb416d0	0.021983534
140	0xbd6cbdad	-0.057798076
141	0x3cc1252c	0.023577295
142	0xbd028a9c	-0.03187047
143	0x3cb908d2	0.022587214
144	0x3c94f243	0.018181926
145	0xbca3e84d	-0.02000823
146	0xbd1eebc7	-0.038799074
147	0x3c978f9f	0.018501101
148	0x3c8adf74	0.016952254
149	0xbd08f1db	-0.033433776
150	0x3c8c27a1	0.01710874
151	0x3bc46b11	0.0059942086
152	0x3c8eb4dd	0.017420227
153	0xbcc66fc6	-0.02422322
154	0xbbd6d311	-0.006555923
155	0x3b53a55d	0.003229461
156	0x3c77fa68	0.015135385
157	0x3c08e8c1	0.008356274
158	0x3cb7d9ea	0.022442777
159	0x3c83ec6b	0.016103944
160	0xbd30005c	-0.042969093
161	0x3cebea43	0.028798228
162	0x3c62c7fd	0.013841626
163	0xbaf5d938	-0.0018756753
164	0x3cad55f3	0.021159148
165	0x3c044488	0.00807298
166	0x3d51d416	0.05122765
167	0x3cb4b037	0.022056682
168	0x3c977f50	0.018493325
169	0x3ccb2cf4	0.024801709
170	0x3cbe7a33	0.023251629
171	0x3c6017b7	0.013677529
172	0x3c832e4f	0.016013293
173	0x3ce9cfc4	0.028541453
174	0xbd1a643a	-0.03769324
175	0x3cf7cb0f	0.030248193
176	0x3c9a0085	0.018799076
177	0x3c9148c0	0.017734885
178	0x3c9280f3	0.017883753
179	0x3cc5c43c	0.024141423
180	0x3c52bc62	0.012862297
181	0xbbdab0bd	-0.006673901
182	0x3c1a84bd	0.009431061
183	0x3d0cd281	0.03438044
184	0x3b9c3620	0.0047671944
185	0xbc3318fa	-0.010931248
186	0x3ca40373	0.020021176
187	0x3ccc23fb	0.0249195
188	0x3c00de2c	0.00786547
189	0xbd058a6d	-0.032602716
190	0x3d043c5c	0.032284126
191	0xbd07c63c	-0.033148035
192	0xbc449b90	-0.01199998
193	0x3b5199bb	0.00319825
194	0x3cb3a1bd	0.021927709
195	0x3c4212ca	0.0118453
196	0xbb2a49d2	-0.0025983942
197	0x3b326ad1	0.0027224312
198	0x3c213e7a	0.009841556
199	0x3c9ef841	0.019405486
200	0x3cc841a5	0.024445364
201	0x3d3aba07	0.045587566
202	0x3d039ed8	0.032133907
203	0x3c09a2a9	0.008400598
204	0xbc88844f	-0.016664652
205	0x3cbfe1c3	0.023423081
206	0x3c9f19c7	0.019421471
207	0xbaebf6d7	-0.0018002641
208	0x3c8676df	0.016414104
209	0x3d4855fd	0.04891013
210	0xbc89419a	-0.016754914
211	0xbc4dd0b7	-0.0125619685
212	0xbccd348c	-0.02504947
213	0xbc8d8857	-0.017276926
214	0x3c58d073	0.013233292
215	0x3cceae23	0.02522952
216	0x3cb85aac	0.022504173
217	0x3c2bb7cb	0.010480831
218	0x3b608647	0.0034259723
219	0x3c8af77e	0.016963717
220	0x3c646a37	0.013941339
221	0x3c12a2c3	0.008949938
222	0x3d067b03	0.032832157
223	0x3cf11df9	0.029433237
224	0x3c9e69d3	0.01933757
225	0x3d0b9b9c	0.034083948
226	0xbc7fda2f	-0.015615984
227	0x3d0704a3	0.032963406
228	0xbc7c979d	-0.015417007
229	0xbcb704e4	-0.0223412
230	0x3c73650f	0.014855637
231	0x3b9d93ab	0.004808863
232	0xbd2152a1	-0.03938544
233	0x3c84c0f4	0.016205288
234	0x3caa8d61	0.020819368
235	0x3d10828f	0.03528076
236	0x3c5feabd	0.013666806
237	0x3d117c61	0.035519008
238	0x3c053336	0.008129885
239	0x3d1d1f45	0.0383599
240	0x3c8ebfe7	0.01742549
241	0x3c9503cd	0.018190289
242	0x3c00bc47	0.007857389
243	0x3c9ce7eb	0.019153556
244	0x3c91e771	0.017810555
245	0xbac79d98	-0.0015229462
246	0x3c9ef88b	0.019405624
247	0x3cb884ae	0.022524204
248	0xbc714de6	-0.014728045
249	0x3c702788	0.0146578625
250	0x3c3c9ab5	0.011511494
251	0x3c8ac921	0.016941609
252	0x3d2b8259	0.041872356
253	0x3cb373b9	0.021905767
254	0xbce62057	-0.028091593
255	0x3c0cc39e	0.008591561

mfs_lr_mfs_lr_W f4 [575, 1]
0	0xbd335d54	-0.043790177
1	0xbc9646c5	-0.018344292
2	0xbb4ca5d2	-0.0031226766
3	0x3b740f9e	0.0037240754
4	0x3c50c5b9	0.012742453
5	0xbb3455f1	-0.0027517045
6	0xbc709bde	-0.014685599
7	0x396e78a9	0.00022742398
8	0xbd2712e8	-0.040789515
9	0x3c3fe738	0.011712842
10	0x3d385aca	0.04500846
11	0xba89996c	-0.0010497994
12	0x3aa6758e	0.0012699829
13	0xbb877b00	-0.004134536
14	0xbad09649	-0.0015913929
15	0xbc6aeca9	-0.014338651
16	0xbd3aa225	-0.04556479
17	0x3b3119b7	0.0027023384
18	0x3c324fbe	0.01088327
19	0xbc39c64e	-0.011338783
20	0xb8202815	-3.8184302e-05
21	0xbd06ceed	-0.032912184
22	0x3c91d17b	0.017800083
23	0x3bb6ca64	0.005578326
24	0x3c95bf6c	0.018279754
25	0x3b6f4dad	0.0036514804
26	0x3c7554e5	0.014973854
27	0xbd0bcb6f	-0.034129556
28	0xbc2a429a	-0.010391856
29	0x3bbaaccd	0.005696869
30	0xbccdd790	-0.025127202
31	0xbcb41add	-0.021985466
32	0x3b4913de	0.0030682008
33	0x3cc8f88c	0.024532579
34	0x3c7cea8c	0.01543678
35	0x3c9b1cdb	0.018934658
36	0xba52baca	-0.0008038698
37	0x3bbcc163	0.005760358
38	0x3beaaa07	0.007161382
39	0xbb4a9713	-0.00309128
40	0xbc9b1f66	-0.01893587
41	0x392cbd81	0.00016473794
42	0x3c97d36a	0.018533427
43	0x3c354e46	0.011066025
44	0x3c40d244	0.011768881
45	0x3c9db2cd	0.019250298
46	0x3c30cedd	0.010791508
47	0x3b460831	0.0030217285
48	0xbc6ce1f4	-0.014458168
49	0xbc8a6cd1	-0.01689759
50	0x3c776b67	0.01510129
51	0xbcdfcee2	-0.02732033
52	0xbc8353c9	-0.016031163
53	0x3d05bdff	0.032651898
54	0x3cc19495	0.02363042
55	0x3ad99e9c	0.0016603055
56	0x3bd7a6bc	0.0065811556
57	0x3cc9c85a	0.024631668
58	0x3c131ee5	0.008979534
59	0xbc1b6086	-0.009483462
60	0xbaef2d2f	-0.0018247719
61	0x3bfea88e	0.007771558
62	0x3cbf7a82	0.023373846
63	0x3c330c09	0.010928162
64	0x3a9a87fa	0.0011789792
65	0x3b972038	0.004611995
66	0xbcb9a7e8	-0.022663072
67	0x3c7e9aea	0.015539864
68	0x3c8ad6b1	0.016948076
69	0x3c04b73d	0.008100328
70	0xbcd181eb	-0.025574645
71	0xbbf3254a	-0.0074202167
72	0x3c462981	0.012094856
73	0xbc675359	-0.014118993
74	0x3b7aaf03	0.0038251288
75	0xbc5a3885	-0.013319139
76	0x3c610939	0.013735109
77	0xbb63a487	-0.0034735517
78	0xbba258e8	-0.004954446
79	0x3c7e38c3	0.015516463
80	0xbcbee53a	-0.023302663
81	0x3c88ec45	0.016714225
82	0xbce8fc70	-0.028440684
83	0xbc0cd96a	-0.008596757
84	0x3c574105	0.01313806
85	0x3cb11d8b	0.021620532
86	0xbc87c50a	-0.016573448
87	0xbd04554a	-0.0323079
88	0xbc14247b	-0.009041901
89	0x3c714fe7	0.014728523
90	0xbc397fcb	-0.011321972
91	0x3bff1857	0.007784884
92	0x3c5554cf	0.013020708
93	0xbd034a84	-0.032053486
94	0x3b85bb69	0.004081179
95	0x3b55020c	0.003250244
96	0x3c26e216	0.010185739
97	0x3c8a5148	0.016884461
98	0xbc5cbb5e	-0.013472406
99	0xbc879639	-0.016551124
100	0x3c7f773a	0.015592391
101	0xbc5ad8f2	-0.013357388
102	0xbb291f0a	-0.0025805854
103	0xbb453def	-0.003009673
104	0x3c1196ad	0.008886022
105	0x3d0bc2a2	0.034121163
106	0x3cc121cf	0.023575692
107	0xbcfc2655	-0.030779997
108	0x3cb5f2bd	0.022210473
109	0x3c85bd8a	0.01632573
110	0xbcda1e45	-0.026625762
111	0xbc2f414e	-0.010696722
112	0x3c256f9f	0.010097413
113	0x3b542150	0.0032368489
114	0x3c49cd1b	0.012316967
115	0x3d0ef5ca	0.03490237
116	0x3caa1146	0.02076019
117	0xbb15a8d9	-0.0022836237
118	0x3d3031c2	0.043016203
119	0xbcb9c2b7	-0.022675855
120	0x3cbc31ea	0.02297302
121	0x3cdf830a	0.027284164
122	0xbb91d3a3	-0.004450278
123	0xbd1843fa	-0.037174203
124	0x3ba451ee	0.0050146496
125	0xbccd7c44	-0.025083669
126	0x3c070e52	0.00824316
127	0xbc702938	-0.014658265
128	0xbca02445	-0.019548545
129	0xbcd80d34	-0.026373483
130	0x3bbcb9ad	0.005759439
131	0xbc993684	-0.018702753
132	0xbca52cf0	-0.02016303
133	0x3c82d45c	0.015970401
134	0x3c4f6eff	0.012660741
135	0xbc4a76ea	-0.012357453
136	0x3ccac150	0.024750382
137	0xbb222292	-0.0024739844
138	0xbc0f3d4d	-0.008742643
139	0x3c76ab64	0.015055511
140	0x3b30f3ee	0.0027000862
141	0xbc1709c0	-0.009218633
142	0xbcc222e1	-0.023698272
143	0xbbaf711c	-0.00535406
144	0xbc878c5c	-0.01654642
145	0x3caf0447	0.021364344
146	0x3caaaaf9	0.02083348
147	0x3c1cf71b	0.009580399
148	0x3bdd3f7a	0.0067519518
149	0x3c11b7dd	0.008893934
150	0x3c3c686e	0.011499507
151	0xbacb6340	-0.001551725
152	0xbb0a6e4f	-0.0021122878
153	0xbc4586e4	-0.012056086
154	0xbc19631e	-0.00936201
155	0x3c42b370	0.011883602
156	0x3d0159b9	0.031579707
157	0x3cbc63cf	0.022996811
158	0xbc5201a5	-0.012817775
159	0x3cd9c8dc	0.026585035
160	0x3b0e62a2	0.002172627
161	0x3b0559e7	0.0020347775
162	0x3cf71adb	0.030164173
163	0xbc51c6b6	-0.012803724
164	0x3bfb9e50	0.0076787844
165	0x3acaed6d	0.0015482135
166	0xbc3deee2	-0.011592599
167	0x3c23821d	0.009979752
168	0xbcca85c1	-0.024721982
169	0xbad5aee7	-0.0016302735
170	0x3cdee8da	0.027210642
171	0x3ca83679	0.020533787
172	0x3b2c79ba	0.0026317672
173	0xbcd43d89	-0.025908248
174	0x3cbccfe9	0.023048358
175	0x3d44b236	0.048021518
176	0xb9b63712	-0.00034754776
177	0xbb887ea8	-0.004165489
178	0xbca32288	-0.019913927
179	0xba43b6a1	-0.00074658735
180	0x3c49522b	0.012287657
181	0x3c837638	0.016047582
182	0x3cd029a8	0.025410488
183	0xbc35c711	-0.011094824
184	0xbcaecbc4	-0.021337397
185	0x3cd08703	0.025455004
186	0xbc39fc5c	-0.011351671
187	0xba906c27	-0.001101856
188	0xbbae24ab	-0.0053144298
189	0x3c9f23f2	0.01942632
190	0x3c4f1d79	0.012641304
191	0x3d325175	0.043534715
192	0xbc189b8e	-0.009314431
193	0xbc859efd	-0.016311163
194	0xbbb33682	-0.0054691443
195	0xbc4bcf96	-0.012439629
196	0xbb27a2b1	-0.002557915
197	0xbc89a577	-0.016802533
198	0xbba21801	-0.004946709
199	0x3cea4c45	0.028600821
200	0x3bbf7890	0.0058432296
201	0xbc916aab	-0.017751059
202	0xbc50182b	-0.012701075
203	0xbc8e9aad	-0.01740774
204	0xbca0e061	-0.019638242
205	0x3be349e6	0.0069362996
206	0x3bf5ca8f	0.0075009535
207	0x3c82441f	0.015901623
208	0xbca4d11a	-0.020119239
209	0x3cbe1104	0.023201473
210	0x3c05532e	0.008137507
211	0x3c80a052	0.015701447
212	0x3b43cb98	0.002987599
213	0x3c37f523	0.011227879
214	0x3b0cc867	0.0021481754
215	0xbc1e58a3	-0.009664687
216	0xbca3f476	-0.020014029
217	0x3c508857	0.012727818
218	0x3cba5f4d	0.022750521
219	0xbc26e98a	-0.010187516
220	0xbb125484	-0.0022328207
221	0x3c81f0e5	0.015861938
222	0x3a576057	0.0008215955
223	0x3b1c9cd7	0.0023897195
224	0xbc38a736	-0.011270335
225	0xbc8b8df9	-0.017035471
226	0x3b9a992e	0.0047179675
227	0x3c8886f0	0.016665906
228	0xbcb7b07e	-0.022423025
229	0x3bc6eff4	0.006071085
230	0x3d207a00	0.03917885
231	0x3afa03f4	0.0019074664
232	0x3cd43780	0.02590537
233	0x3c8aac31	0.01692781
234	0x3c175199	0.009235763
235	0x3c025886	0.007955676
236	0xbc9812ab	-0.01856359
237	0xbc801e29	-0.015639381
238	0xbcaf3ff5	-0.021392802
239	0x3caad647	0.020854129
240	0x39f5d1ec	0.00046886445
241	0x3c86d283	0.016457802
242	0xbbd18e88	-0.006395165
243	0x3b049352	0.0020229411
244	0xbc7abe35	-0.015304138
245	0x3d7a790a	0.061150588
246	0x3c433c35	0.01191621
247	0x3c7b9182	0.015354516
248	0xbcbe4ab2	-0.023228977
249	0xbc085fde	-0.008323638
250	0x3c944c05	0.018102655
251	0x3b42a932	0.00297029
252	0x3ad66795	0.0016357774
253	0x3ab2376d	0.001359684
254	0xbb40f498	-0.0029442664
255	0xbce4c721	-0.027926983

mfs_svc_W2_mfs_svc f4 [575, 1]
0	0xbd8777ff	-0.06614684
1	0xbcc7ba0c	-0.024380706
2	0xbc445ca1	-0.011984975
3	0x3c2e0d2b	0.010623257
4	0x3c56489a	0.013078833
5	0xbc9dcfa2	-0.019264046
6	0xbc21178f	-0.009832277
7	0xbb49db37	-0.0030800828
8	0xbda0dd96	-0.07854764
9	0x3c21190c	0.009832632
10	0x3d8a8533	0.06763687
11	0xbb6dce0e	-0.0036286148
12	0x3c03e133	0.008049297
13	0xbc8375e0	-0.016047418
14	0xbbb9627b	-0.0056574917
15	0xbcb5e313	-0.022203004
16	0xbd83f272	-0.06442727
17	0x3b11b93c	0.0022235652
18	0x3c9a4b1b	0.018834641
19	0xbc047c29	-0.008086243
20	0x3beec303	0.007286431
21	0xbd23da83	-0.04000331
22	0x3d02d5c2	0.031942137
23	0x3be43120	0.006963864
24	0x3cae0f2e	0.021247473
25	0xbc20c40b	-0.009812365
26	0x3c0735bc	0.008252557
27	0xbd64b236	-0.055834018
28	0xbbd0ddff	-0.0063741202
29	0x3b82b1fd	0.003988503
30	0xbcc7c9a4	-0.024388142
31	0xbc5178e9	-0.012785175
32	0xbb9fc9fe	-0.0048763743
33	0x3d043cab	0.03228442
34	0x3d0dd2ce	0.034624867
35	0x3cd767e5	0.026294658
36	0x39186d8a	0.00014536656
37	0xbac45c50	-0.0014981125
38	0x3c21b7ab	0.00987045
39	0xbca57310	-0.020196468
40	0xbc50666a	-0.01271973
41	0xbd00b894	-0.031426027
42	0x3d153b3e	0.03643345
43	0x3c72bac0	0.0148150325
44	0x3c3be649	0.0114684785
45	0x3cb064f6	0.021532517
46	0x3c0374c5	0.0080234455
47	0xbb5c5883	-0.0033622093
48	0xbc0b8bef	-0.0085172495
49	0xbcb22d34	-0.02175007
50	0x3c979009	0.018501299
51	0xbcc16f7f	-0.023612736
52	0xbc925635	-0.017863372
53	0x3cfe5c70	0.031049937
54	0x3d045743	0.03230978
55	0xbabf9ef3	-0.0014619514
56	0x3b920dbd	0.004457204
57	0x3ce12649	0.027484076
58	0xbbf944d5	-0.0076070824
59	0xbc866b57	-0.016408606
60	0x3b3c733a	0.0028755204
61	0x3c38c860	0.011278242
62	0x3d251a5e	0.04030835
63	0x3d1abc3d	0.037777174
64	0x3c3f644e	0.011681629
65	0xbc2e0e33	-0.010623503
66	0xbcf923f2	-0.030412648
67	0x3c6af0ac	0.014339607
68	0x3d29c080	0.041443348
69	0x3c631270	0.013859376
70	0xbd32fc16	-0.04369744
71	0xbbec8cf7	-0.0072189528
72	0xbba91be8	-0.0051607974
73	0xbca0537c	-0.019571058
74	0x3cc83633	0.024439907
75	0xbbe6dacc	-0.0070451256
76	0x3c0cc484	0.008591775
77	0xbbfe62c9	-0.007763241
78	0xbc819fa1	-0.015823187
79	0x3cc49b59	0.023999857
80	0xbce4556a	-0.02787276
81	0x3cc63936	0.024197202
82	0xbd36d2cf	-0.044634636
83	0xbc6d5e17	-0.014487765
84	0x3c92b883	0.017910248
85	0x3cc14b6b	0.023595532
86	0xbccc6fb3	-0.024955606
87	0xbd18238a	-0.037143268
88	0xbc702591	-0.014657394
89	0x3bab8d61	0.0052353595
90	0xbc8be369	-0.017076211
91	0x3c913f76	0.017730456
92	0x3cfc4f81	0.03079963
93	0xbd36aee5	-0.044600386
94	0xba22a655	-0.0006204595
95	0x3cac2a41	0.021016242
96	0x3bd3f4ba	0.0064683827
97	0x3c3e8012	0.011627214
98	0x3b58867d	0.0033039146
99	0xbd121984	-0.035668865
100	0x3d2d8686	0.04236462
101	0xbc131a0f	-0.008978381
102	0x3cd01134	0.025398828
103	0xbcefca3a	-0.029271234
104	0x3bf97237	0.0076124924
105	0x3d732bdb	0.059367996
106	0x3d2137d5	0.039359886
107	0xbceed49a	-0.02915411
108	0x3d21a809	0.03946689
109	0x3ca7a678	0.02046512
110	0xbd427985	-0.04747917
111	0xbc5f03b9	-0.013611727
112	0x3bd37d11	0.006454118
113	0x3bc15066	0.005899477
114	0x3ca68f3b	0.02033197
115	0x3d56dcfd	0.052456845
116	0x3cf2e0f0	0.029648274
117	0xbc604257	-0.013687692
118	0x3d996751	0.07490409
119	0xbd130c0a	-0.035900153
120	0x3d13cff1	0.03608698
121	0x3ce3415c	0.027741127
122	0xbc29c147	-0.010361022
123	0xbd554121	-0.052064065
124	0x3cac34ce	0.021021273
125	0xbd295953	-0.04134495
126	0x3a8a0c46	0.0010532222
127	0xbc2de8f2	-0.0106146205
128	0x3b637f96	0.0034713498
129	0xbd0a5de4	-0.033780947
130	0xbb4542e3	-0.0030099682
131	0xbc87881a	-0.01654439
132	0xbc46eb19	-0.012141013
133	0x3cd73660	0.026271045
134	0xbab77eb5	-0.0013999554
135	0xbba7ca36	-0.005120541
136	0x3d0af025	0.033920426
137	0xbbb777bb	-0.00559899
138	0x3b8399a3	0.0040161177
139	0x3babdb3a	0.0052446397
140	0xbc0de5ca	-0.008660743
141	0xbbfee3e0	-0.0077786297
142	0xbd1c8e43	-0.03822161
143	0xbb7aa2d1	-0.0038244019
144	0xbcea3775	-0.028590897
145	0x3d307b5c	0.043086395
146	0x3d1a5433	0.037677955
147	0x3caf1cc1	0.021376016
148	0x3c7d8e1c	0.015475776
149	0xbbac28b4	-0.0052538756
150	0x3c9bee1d	0.01903444
151	0x3b3a2181	0.0028401318
152	0xbc1345e7	-0.008988834
153	0xbc04812a	-0.008087436
154	0x3a55c6e7	0.0008154944
155	0x3cc91fd2	0.024551306
156	0x3d4de917	0.05027112
157	0x3c8dae56	0.017295044
158	0xbc175e04	-0.009238724
159	0x3d2e5933	0.042565536
160	0x3c1a0348	0.009400196
161	0xbc6ffd78	-0.014647834
162	0x3d1179cf	0.035516556
163	0xbd024cc8	-0.031811506
164	0x3c696d24	0.014247213
165	0x3d1c2ea5	0.03813042
166	0xbcba60c8	-0.022751227
167	0x3c98fadd	0.018674308
168	0xbd08b17c	-0.033372387
169	0xb9357cdb	-0.00017308017
170	0x3cf6a1d0	0.030106455
171	0x3cf97a79	0.030453907
172	0x3c1501bc	0.009094652
173	0xbceee45d	-0.029161626
174	0x3c5053e1	0.012715311
175	0x3d6d8370	0.057986677
176	0xbca46071	-0.020065518
177	0x3c6a72e9	0.014309623
178	0xbd031f3e	-0.032012217
179	0x3ba6f461	0.00509505
180	0x3cbc8146	0.023010861
181	0x3d121eae	0.03567379
182	0x3d2c3952	0.042046852
183	0xbcb576c1	-0.022151353
184	0xbd2855b3	-0.041097354
185	0x3d81a1ce	0.0632969
186	0xbb01827b	-0.001976161
187	0x3c55b712	0.013044136
188	0xbc8873e1	-0.016656818
189	0x3c818a49	0.01581301
190	0x3ca7a416	0.020463984
191	0x3d8a257f	0.06745433
192	0xbc22925f	-0.009922593
193	0xbcdf0e87	-0.027228607
194	0xbbac9c4a	-0.0052676545
195	0xb9c0b561	-0.00036756232
196	0xbc8fbd68	-0.01754637
197	0xbc560a68	-0.0130640045
198	0xbc760cec	-0.015017729
199	0x3d4f579f	0.05062067
200	0xb93b722a	-0.00017876239
201	0xbc5ca552	-0.01346715
202	0xbc8e5a40	-0.017377019
203	0xbc7076c4	-0.014676753
204	0xbd0b6873	-0.034035157
205	0x3c6150c8	0.01375217
206	0x3d045211	0.032304827
207	0x3ccdb78f	0.025111942
208	0xbd0a6ed6	-0.033797108
209	0x3ce85189	0.028359191
210	0x3cb36a90	0.021901399
211	0x3c8d1d96	0.017226022
212	0x3c7bb080	0.015361905
213	0x3c5a8d44	0.013339344
214	0x3956cb05	0.00020484261
215	0xbcbefc76	-0.023313742
216	0xbd2d21c7	-0.04226854
217	0x3c9c70d3	0.019096768
218	0x3d2b4161	0.041810397
219	0xbce17451	-0.027521284
220	0x3bb1e45d	0.0054288344
221	0x3cf323e8	0.029680207
222	0x3c3ddab7	0.01158779
223	0xbb9e5944	-0.0048324186
224	0xbd2f4f1e	-0.04280006
225	0xbcac1b18	-0.021009013
226	0xbb340e10	-0.0027474202
227	0x3cd2286c	0.02565404
228	0xbcb3537b	-0.021890393
229	0x3b78c7ff	0.0037961004
230	0x3d6a06dd	0.05713545
231	0x3ca99411	0.020700486
232	0x3c3f790a	0.011686573
233	0x3c3db5a4	0.011578951
234	0x3c5a31cd	0.0133175375
235	0x3bd62d76	0.006536181
236	0xbcf431c5	-0.029808888
237	0xbad2820e	-0.0016060488
238	0xbce28bc6	-0.02765454
239	0x3ca3fab4	0.020017006
240	0xbbc22723	-0.0059250756
241	0x3ce5b5e8	0.028040841
242	0xbba9e4bf	-0.0051847394
243	0xb996da82	-0.0002877303
244	0x3ba4406a	0.0050125616
245	0x3dbc0703	0.09181025
246	0x3c943ff4	0.018096901
247	0x3d26b733	0.040702056
248	0xbd26f5bf	-0.040761705
249	0xbcc1eb46	-0.023671757
250	0x3d14ab64	0.036296263
251	0xbad5416c	-0.0016270108
252	0x3a11387f	0.00055397296
253	0xbace0ef2	-0.0015721007
254	0xbb6ef90c	-0.0036464361
255	0xbd10e5d3	-0.035375427

lv_lr_lv_lr_W f4 [61, 1]
0	0xbd22898e	-0.039681964
1	0x3d5f0e08	0.05445674
2	0x3d85a4f3	0.06525602
3	0xbd8cebd8	-0.06880921
4	0x3c796961	0.015222878
5	0xbcafd668	-0.021464542
6	0x3c9d4cb8	0.019201621
7	0x3c9a7a74	0.018857218
8	0xbcbcb275	-0.023034314
9	0xbb816181	-0.003948391
10	0xbb9a6bc5	-0.004712554
11	0x3d4695f6	0.048482858
12	0x3bdae517	0.0066801417
13	0xbd277219	-0.040880296
14	0xbbad61ea	-0.0052912133
15	0xbcb7ccda	-0.022436548
16	0xbcdae466	-0.026720237
17	0xbc8d743f	-0.017267345
18	0x3c4af6c5	0.012387936
19	0x3d3f0e99	0.04664478
20	0x3b8e7b76	0.004348214
21	0x3ca7538e	0.020425584
22	0x3c973c49	0.018461363
23	0x3cbddef7	0.023177607
24	0xbc23ce73	-0.009997952
25	0x3c7f35b9	0.015576773
26	0x3cf728c7	0.030170811
27	0xbce08b8e	-0.027410295
28	0xbc3561bc	-0.011070665
29	0x3c14e4eb	0.009087781
30	0x39297ad3	0.00016162852
31	0x3d1dd3f7	0.038532224
32	0x3d45f108	0.04832557
33	0x3cba541e	0.022745188
34	0x3b768037	0.0037613043
35	0x3cc8c8d9	0.024509834
36	0xbbf0997b	-0.007342515
37	0xbd305152	-0.043046303
38	0xbd160fa2	-0.036636002
39	0xbbec65df	-0.0072142924
40	0x3cf498bc	0.029857986
41	0xbca2c648	-0.019869938
42	0x3b074c5d	0.0020644881
43	0xbb9bbab8	-0.004752483
44	0x3bc818c6	0.006106469
45	0xbcd292e9	-0.025704818
46	0x3c5195f1	0.0127920965
47	0xb9fbac8d	-0.0004800301
48	0x3c338530	0.010957047
49	0x3ce95ecc	0.028487585
50	0x3c57073f	0.013124286
51	0xbcb41e48	-0.021987095
52	0x3d12140b	0.035663646
53	0x3cd4e062	0.0259859
54	0xbd48faed	-0.049067426
55	0xbd81f6ca	-0.063458994
56	0x3d2b0a3c	0.041757807
57	0xbc8dd55c	-0.017313652
58	0x3b99230a	0.0046733664
59	0xbd1d286e	-0.038368635
60	0xbcc76ad6	-0.024342936

lv_svc_W2_lv_svc f4 [61, 1]
0	0xbcac1284	-0.021004923
1	0x3d234578	0.039861172
2	0x3d247cc2	0.04015804
3	0xbd2b689d	-0.041847814
4	0x3c27d440	0.010243475
5	0xbbb3685d	-0.0054750876
6	0x3c50d54d	0.012746167
7	0x3c469b6a	0.012122015
8	0xbc1341b2	-0.008987831
9	0xbb9b69f2	-0.0047428543
10	0x3c144eb1	0.009051965
11	0x3ce857e8	0.02836223
12	0x3bc581e5	0.0060274475
13	0xbc94fb04	-0.0181861
14	0xbc1512ec	-0.00909875
15	0xbbab1130	-0.005220555
16	0xbb9b5c27	-0.00474121
17	0xbc0b9250	-0.00851877
18	0x3c24c4ba	0.010056669
19	0x3cc8fe83	0.024535423
20	0x3b1b6d73	0.002371636
21	0x3c5c8d85	0.013461475
22	0x3c945698	0.018107697
23	0x3ca1ae68	0.019736484
24	0x3ba736a5	0.0051029497
25	0x3b9a9e9a	0.004718614
26	0x3cb52b2a	0.022115309
27	0xbcc9cccc	-0.024633788
28	0xbc09bcbf	-0.008406817
29	0x3b0f06ad	0.0021824047
30	0xbbc5d895	-0.0060377815
31	0x3c778675	0.015107741
32	0x3cba2a7c	0.022725336
33	0x3c6e5e9e	0.014548926
34	0x3bc7f2b6	0.0061019314
35	0x3c9ae540	0.018908143
36	0xbba434eb	-0.005011191
37	0xbd0ab50d	-0.03386407
38	0xbcd1dd0f	-0.025618104
39	0xbb35a810	-0.0027718581
40	0x3c1e89c9	0.009676405
41	0xbc2399f6	-0.009985438
42	0x3aaeb17b	0.001332804
43	0xbb3b5ef9	-0.0028590544
44	0xbb348302	-0.0027543907
45	0xbcca9f50	-0.02473417
46	0x3b9b229f	0.0047343518
47	0x398ae793	0.00026493947
48	0x3c0a7ed4	0.00845309
49	0x3cbb8f59	0.022895502
50	0x3b834569	0.004006077
51	0xbb6b4e39	-0.0035904779
52	0x3cdb1736	0.026744466
53	0x3c818d93	0.015814578
54	0xbce9d496	-0.028543752
55	0xbd0fdc20	-0.035122037
56	0x3ce4ee0b	0.027945539
57	0xbc06937d	-0.008213875
58	0x3a8af5ce	0.001060182
59	0xbc98b31d	-0.018640095
60	0xbbcea75b	-0.0063065714
