model/checkpoints/wcs_bin70/rdkit/model_000.onnx (onnx, 114250 bytes, 12 tensors)

lv_onnx::MatMul_4 f4 [209, 51]
0	0x00000000	0.0
1	0x00000000	0.0
2	0x00000000	0.0
3	0x00000000	0.0
4	0x00000000	0.0
5	0x00000000	0.0
6	0x00000000	0.0
7	0x00000000	0.0
8	0x00000000	0.0
9	0x00000000	0.0
10	0x3f084c72	0.53241646
11	0x00000000	0.0
12	0x00000000	0.0
13	0x3f084c72	0.53241646
14	0x00000000	0.0
15	0x00000000	0.0
16	0x00000000	0.0
17	0x00000000	0.0
18	0x00000000	0.0
19	0x00000000	0.0
20	0x00000000	0.0
21	0x00000000	0.0
22	0x00000000	0.0
23	0xbf084c72	-0.53241646
24	0x00000000	0.0
25	0x00000000	0.0
26	0x00000000	0.0
27	0x00000000	0.0
28	0x00000000	0.0
29	0x00000000	0.0
30	0x00000000	0.0
31	0x00000000	0.0
32	0x00000000	0.0
33	0x00000000	0.0
34	0x00000000	0.0
35	0x00000000	0.0
36	0x00000000	0.0
37	0x00000000	0.0
38	0x00000000	0.0
39	0x00000000	0.0
40	0x00000000	0.0
41	0x00000000	0.0
42	0x3f084c72	0.53241646
43	0x00000000	0.0
44	0x00000000	0.0
45	0x00000000	0.0
46	0x00000000	0.0
47	0x00000000	0.0
48	0x00000000	0.0
49	0x00000000	0.0
50	0x00000000	0.0
51	0x00000000	0.0
52	0x00000000	0.0
53	0x00000000	0.0
54	0x00000000	0.0
55	0x00000000	0.0
56	0x00000000	0.0
57	0x00000000	0.0
58	0x00000000	0.0
59	0x00000000	0.0
60	0x00000000	0.0
61	0x00000000	0.0
62	0x00000000	0.0
63	0x00000000	0.0
64	0x00000000	0.0
65	0x00000000	0.0
66	0x00000000	0.0
67	0x00000000	0.0
68	0x00000000	0.0
69	0x00000000	0.0
70	0x00000000	0.0
71	0x00000000	0.0
72	0x00000000	0.0
73	0x00000000	0.0
74	0x00000000	0.0
75	0x00000000	0.0
76	0x00000000	0.0
77	0x00000000	0.0
78	0x00000000	0.0
79	0x00000000	0.0
80	0x00000000	0.0
81	0x00000000	0.0
82	0x3f084c72	0.53241646
83	0x00000000	0.0
84	0x00000000	0.0
85	0x00000000	0.0
86	0x00000000	0.0
87	0x00000000	0.0
88	0x00000000	0.0
89	0x00000000	0.0
90	0x00000000	0.0
91	0x00000000	0.0
92	0x00000000	0.0
93	0x00000000	0.0
94	0x00000000	0.0
95	0x00000000	0.0
96	0x00000000	0.0
97	0x00000000	0.0
98	0x00000000	0.0
99	0x00000000	0.0
100	0x00000000	0.0
101	0x00000000	0.0
102	0x00000000	0.0
103	0x00000000	0.0
104	0x00000000	0.0
105	0x00000000	0.0
106	0x00000000	0.0
107	0x00000000	0.0
108	0x00000000	0.0
109	0x00000000	0.0
110	0x00000000	0.0
111	0x00000000	0.0
112	0x00000000	0.0
113	0x00000000	0.0
114	0x00000000	0.0
115	0x00000000	0.0
116	0x00000000	0.0
117	0x00000000	0.0
118	0x00000000	0.0
119	0x00000000	0.0
120	0x00000000	0.0
121	0x00000000	0.0
122	0x00000000	0.0
123	0x00000000	0.0
124	0x00000000	0.0
125	0x00000000	0.0
126	0x00000000	0.0
127	0x00000000	0.0
128	0x00000000	0.0
129	0x00000000	0.0
130	0x00000000	0.0
131	0x00000000	0.0
132	0x00000000	0.0
133	0x00000000	0.0
134	0x00000000	0.0
135	0x00000000	0.0
136	0x00000000	0.0
137	0xbf084c72	-0.53241646
138	0x00000000	0.0
139	0x00000000	0.0
140	0x00000000	0.0
141	0x00000000	0.0
142	0x00000000	0.0
143	0x00000000	0.0
144	0x00000000	0.0
145	0x00000000	0.0
146	0x00000000	0.0
147	0x00000000	0.0
148	0x00000000	0.0
149	0x00000000	0.0
150	0x00000000	0.0
151	0x00000000	0.0
152	0x00000000	0.0
153	0x00000000	0.0
154	0x00000000	0.0
155	0x00000000	0.0
156	0x00000000	0.0
157	0x00000000	0.0
158	0x00000000	0.0
159	0x00000000	0.0
160	0x00000000	0.0
161	0x00000000	0.0
162	0x00000000	0.0
163	0x00000000	0.0
164	0x00000000	0.0
165	0x00000000	0.0
166	0x00000000	0.0
167	0x00000000	0.0
168	0x00000000	0.0
169	0x00000000	0.0
170	0x00000000	0.0
171	0x00000000	0.0
172	0x00000000	0.0
173	0x00000000	0.0
174	0x00000000	0.0
175	0x00000000	0.0
176	0x00000000	0.0
177	0x00000000	0.0
178	0x00000000	0.0
179	0x00000000	0.0
180	0x00000000	0.0
181	0x00000000	0.0
182	0x00000000	0.0
183	0x00000000	0.0
184	0x00000000	0.0
185	0x00000000	0.0
186	0x00000000	0.0
187	0x00000000	0.0
188	0x00000000	0.0
189	0x00000000	0.0
190	0x00000000	0.0
191	0x00000000	0.0
192	0x3f084c72	0.53241646
193	0x00000000	0.0
194	0x00000000	0.0
195	0x00000000	0.0
196	0x00000000	0.0
197	0x00000000	0.0
198	0x00000000	0.0
199	0xbf084c72	-0.53241646
200	0x00000000	0.0
201	0x00000000	0.0
202	0x00000000	0.0
203	0x00000000	0.0
204	0x00000000	0.0
205	0x00000000	0.0
206	0x00000000	0.0
207	0x00000000	0.0
208	0x00000000	0.0
209	0x00000000	0.0
210	0xbf084c72	-0.53241646
211	0x00000000	0.0
212	0x00000000	0.0
213	0x00000000	0.0
214	0x00000000	0.0
215	0x00000000	0.0
216	0x00000000	0.0
217	0x00000000	0.0
218	0x00000000	0.0
219	0x00000000	0.0
220	0x00000000	0.0
221	0x00000000	0.0
222	0x00000000	0.0
223	0x00000000	0.0
224	0x00000000	0.0
225	0x00000000	0.0
226	0x00000000	0.0
227	0x00000000	0.0
228	0x00000000	0.0
229	0x00000000	0.0
230	0x00000000	0.0
231	0x00000000	0.0
232	0x00000000	0.0
233	0x3f084c72	0.53241646
234	0x00000000	0.0
235	0x3f084c72	0.53241646
236	0xbf084c72	-0.53241646
237	0x00000000	0.0
238	0x00000000	0.0
239	0x00000000	0.0
240	0x00000000	0.0
241	0x00000000	0.0
242	0x00000000	0.0
243	0x00000000	0.0
244	0x00000000	0.0
245	0x00000000	0.0
246	0x00000000	0.0
247	0x00000000	0.0
248	0x00000000	0.0
249	0x00000000	0.0
250	0x00000000	0.0
251	0x00000000	0.0
252	0x00000000	0.0
253	0x00000000	0.0
254	0x00000000	0.0
255	0x00000000	0.0

lr_lr_W f4 [209, 1]
0	0x3e38065d	0.17971177
1	0xbdc4bed6	-0.096067116
2	0x3d8924d8	0.066964805
3	0x3cefe03c	0.029281728
4	0x3d8c0e86	0.068387076
5	0xbd23d7ff	-0.04000091
6	0x3e23f7ba	0.16012469
7	0x3bda4b9a	0.0066618444
8	0xbd47c1fa	-0.048768975
9	0xbe9f94f3	-0.31168327
10	0xbd8dfea0	-0.069333315
11	0xbca3c173	-0.019989705
12	0xbd0a1351	-0.033709828
13	0xba851dc3	-0.0010155964
14	0xbc11bdff	-0.008895396
15	0x3ad4b797	0.001622903
16	0x3c06564f	0.0081992885
17	0x3d1678ab	0.03673617
18	0x3c8eb95b	0.017422369
19	0xbd178b0e	-0.036997847
20	0xbdfcd8f6	-0.123460695
21	0xbd00fcf4	-0.031491235
22	0xbe5ab588	-0.21358311
23	0x3d951e83	0.0728121
24	0x3d9081ed	0.070560314
25	0xbc831575	-0.016001442
26	0xb9dc23f8	-0.0004198847
27	0xbd8da084	-0.069153816
28	0x3e74fc21	0.23924305
29	0xbd91c7c3	-0.0711818
30	0xbde9f554	-0.11423746
31	0xbdc2e129	-0.09515602
32	0x3de0483e	0.10951279
33	0xbd14348d	-0.03618293
34	0x3d3be8ba	0.045876242
35	0xbe00adac	-0.1256625
36	0xbd8b7f40	-0.068113804
37	0xbc6ff4fe	-0.014645813
38	0xbe8ad7ba	-0.2711771
39	0xbb234530	-0.0024913065
40	0xbb9e11b4	-0.0048238877
41	0x3d5a581e	0.05330669
42	0x3df18068	0.1179207
43	0xbd07655d	-0.033055652
44	0xbd452af1	-0.048136655
45	0x3da228ea	0.0791796
46	0x3c48a51e	0.012246398
47	0xbe04ce3a	-0.12969294
48	0x3e5485ff	0.2075424
49	0xbe04ce3a	-0.12969294
50	0x3cd73ad5	0.02627317
51	0xbea11b74	-0.31466258
52	0xbd9a16e6	-0.07523899
53	0xbcddecc2	-0.027090434
54	0xbdd4e7d8	-0.10395783
55	0x3cc568dd	0.024097854
56	0x3c55a670	0.01304017
57	0x3d42a6e6	0.047522448
58	0xbd6a40e4	-0.05719079
59	0x3c97b499	0.018518733
60	0xbc38f135	-0.011287977
61	0x3d3277b1	0.043571178
62	0x3ca21c76	0.019788962
63	0xbe66d012	-0.2254031
64	0x3d15fad4	0.03661616
65	0xbc7a32f5	-0.015270938
66	0x3c8eb3a5	0.017419646
67	0xbd1bdc45	-0.038051862
68	0x3e218963	0.15775065
69	0xbdab59a2	-0.083667055
70	0xbda3fa0f	-0.08006679
71	0x3c0ca318	0.008583806
72	0x3c71ac2b	0.014750521
73	0xbc600edd	-0.013675419
74	0xbe0d5e46	-0.13805494
75	0x3e58dfb2	0.21179083
76	0xbe2488e2	-0.16067842
77	0x3d8cf2d1	0.06882251
78	0xbddb4a9e	-0.107075915
79	0xbe93317c	-0.2874869
80	0xbc0ee26c	-0.008720975
81	0x3dbb4b2f	0.091451995
82	0xbdcc7bd2	-0.09984554
83	0xbe8ffeba	-0.28124028
84	0xbe317c75	-0.17332633
85	0x3e4c5c77	0.19957148
86	0x3ed7eff9	0.42175272
87	0x3de98e44	0.11404088
88	0x3da5f0e5	0.081025876
89	0xbc3af521	-0.011410982
90	0x3e317a15	0.17331727
91	0xbe0bb9ea	-0.1364514
92	0x3c25149d	0.010075715
93	0xbd8692ba	-0.065709546
94	0x3e2c001c	0.16796917
95	0xbdd644b2	-0.10462321
96	0x3d070446	0.03296306
97	0xbd51b7fe	-0.05120086
98	0x3dfe5ea8	0.12420398
99	0xbe213a62	-0.15744928
100	0xbdf0fd1f	-0.11767029
101	0xbe3d03e1	-0.18458511
102	0x3dac602e	0.08416782
103	0xbbc41572	-0.005984002
104	0xbc95d6ac	-0.01829084
105	0x3d793506	0.060841583
106	0xbe1795ff	-0.14803313
107	0x3d78dd86	0.060758136
108	0x3d12e605	0.035863895
109	0x3d588e64	0.05287017
110	0x3dd01809	0.10160834
111	0xbd83bc55	-0.06432406
112	0xbe40703a	-0.18792811
113	0x3db48448	0.08814293
114	0xbcd8194e	-0.026379254
115	0x3ce43698	0.027858064
116	0xbdb2322f	-0.08700978
117	0x3cc20cd1	0.023687752
118	0x3ac007ef	0.0014650802
119	0xbe1ec3bf	-0.15504359
120	0x3e32dfb5	0.1746815
121	0xbb98a90e	-0.0046588248
122	0x3e2d9eff	0.16955183
123	0x3dcdeed4	0.100553185
124	0xbd195150	-0.03743106
125	0xbcbf7853	-0.023372805
126	0x3e4485cd	0.19191666
127	0xbe312218	-0.17298162
128	0xbe487784	-0.19576842
129	0xbdd490ad	-0.10379157
130	0x3ca80f5d	0.020515138
131	0x3c9095d8	0.017649576
132	0x3d84ecae	0.064904556
133	0xbe052426	-0.13002071
134	0x3d91f307	0.07126432
135	0xbe3c6b76	-0.18400368
136	0x3e1a7951	0.15085341
137	0xbe26b89c	-0.1628136
138	0xbe278167	-0.16357957
139	0xbe004012	-0.12524441
140	0xbd8a42ec	-0.067510456
141	0x3e8d9b0f	0.27657363
142	0x3b935588	0.00449628
143	0x3dc0ef14	0.094206005
144	0xbcdd8e93	-0.027045524
145	0x3b702a3d	0.003664627
146	0xbd0da3d9	-0.034580085
147	0x3d5523c9	0.05203608
148	0x3e51fd5f	0.2050681
149	0x3e7149d5	0.23563321
150	0xbe3c6b76	-0.18400368
151	0xbe629aee	-0.22129413
152	0xbd4d3cff	-0.050107
153	0xbd323c45	-0.04351451
154	0xbd9ff6c1	-0.078107364
155	0xbe2d1a67	-0.16904603
156	0xbe66d012	-0.2254031
157	0x3d39baa8	0.045344025
158	0xbd1135d9	-0.035451744
159	0x3cd73c83	0.026273971
160	0xbcd7bc18	-0.026334807
161	0xbd74ab82	-0.059733875
162	0x3d07f80f	0.03319555
163	0xbba253fd	-0.00495386
164	0xbe4c1986	-0.19931611
165	0xbafd2782	-0.0019314142
166	0xbd85b299	-0.065282054
167	0x3b7f29f7	0.0038934925
168	0xbd9c840e	-0.07642375
169	0x3d4c27dc	0.0498427
170	0x3d8b4adf	0.0680139
171	0x3aee70c1	0.0018191562
172	0x3d7b91b2	0.061418243
173	0x3e599292	0.21247318
174	0xbdfc350e	-0.12314807
175	0x3e828fdb	0.25500378
176	0x3e95f5ee	0.29289192
177	0xbc985d3b	-0.018599143
178	0x3d5204d9	0.051274154
179	0xbe706fa7	-0.23480092
180	0xbe0045e1	-0.12526657
181	0xbe4c32a6	-0.19941196
182	0x3e7fd37d	0.2498302
183	0xbe7016a3	-0.23446135
184	0xbd83d8d6	-0.064378425
185	0xbccbda19	-0.02488427
186	0xbe51200a	-0.20422378
187	0x3c68a943	0.014200511
188	0xbd98af9b	-0.07455369
189	0x3e5a53e4	0.21321064
190	0xbe79ae57	-0.24382912
191	0xbbcffef7	-0.006347533
192	0xbbcffef7	-0.006347533
193	0x3e003b5d	0.12522645
194	0xbdb776eb	-0.08958229
195	0x3d36414e	0.044495873
196	0x3e24765f	0.1606078
197	0xbd53dc45	-0.051723737
198	0xbe0d28ae	-0.1378505
199	0x3bc06f44	0.005872639
200	0x3e69ab7a	0.2281932
201	0xbdd69004	-0.104766876
202	0x3d877fd6	0.0661618
203	0x3d96579f	0.07340931
204	0xbc858712	-0.016299758
205	0xbe3639be	-0.17795464
206	0x3e07bd56	0.1325582
207	0x3e83bae0	0.25728512
208	0x3d1b9ad9	0.03798947

svc_W2_svc f4 [209, 1]
0	0x3e337650	0.17525601
1	0xbd829d4e	-0.0637766
2	0x3d36d137	0.044633117
3	0x3d51a064	0.05117835
4	0x3d02f5f1	0.03197283
5	0xbd2bbb9c	-0.041926965
6	0x3e255281	0.16144754
7	0xbc3bb83f	-0.011457502
8	0xbd5f013e	-0.054444544
9	0xbe93c018	-0.28857493
10	0xbdba9946	-0.09111266
11	0xbc4202ba	-0.01184147
12	0xbc829403	-0.015939718
13	0x3c3f9784	0.011693839
14	0xbc1300f4	-0.008972395
15	0x3c2aa330	0.0104148835
16	0x3c5cf848	0.013486929
17	0x3d7f6d9a	0.062360384
18	0x3d0af91b	0.03392897
19	0xbce28aa1	-0.027653994
20	0xbe0605d1	-0.13088156
21	0xbcbda6be	-0.023150798
22	0xbe7c7fa2	-0.24658063
23	0x3d779d09	0.060452495
24	0x3d4b1ceb	0.049588125
25	0xbbd0f59a	-0.0063769342
26	0xbc3a15bf	-0.011357724
27	0xbca7e678	-0.020495638
28	0x3e5fc5dd	0.21852823
29	0xbd8d676c	-0.06904492
30	0xbdb3efa2	-0.08785941
31	0xbda53c70	-0.08068168
32	0x3daf052d	0.08545909
33	0xbd5b2cf1	-0.053509656
34	0x3d2a7fc1	0.041625742
35	0xbdabcffc	-0.08389279
36	0xbd4af49a	-0.049549676
37	0xbc5e8b13	-0.013582963
38	0xbe8f2cad	-0.27963772
39	0x3c6142a4	0.0137487985
40	0xba905809	-0.0011012565
41	0x3d3c5118	0.045975775
42	0x3de9e8b5	0.114213385
43	0xbc74666a	-0.014916996
44	0xbd5dddaf	-0.054166492
45	0x3dbf9fc6	0.09356646
46	0x3c8a6b5b	0.016896894
47	0xbdee1f41	-0.11627055
48	0x3e3c824b	0.18409078
49	0xbdee1f41	-0.11627055
50	0x3cdb19e2	0.02674574
51	0xbe8daa96	-0.2766921
52	0xbdbf29e6	-0.09334163
53	0xbce90cab	-0.028448423
54	0xbd80bd3a	-0.06286092
55	0x3cdef3f8	0.027215943
56	0x3c84818e	0.016175058
57	0x3d31654c	0.043309495
58	0xbd63477e	-0.055488102
59	0x3ac8fe9b	0.0015334667
60	0xbd0a2776	-0.03372904
61	0x3d1fe56b	0.03903715
62	0xb9a06055	-0.0003058935
63	0xbe5db9ed	-0.21652956
64	0x3cee9d71	0.029127808
65	0xbcbfb2d8	-0.023400709
66	0x3b8854cf	0.0041605006
67	0x3d389b58	0.045070022
68	0x3e0a5154	0.13507587
69	0xbddcdb94	-0.10784069
70	0xbda5c8ea	-0.08094962
71	0xbc2054db	-0.009785856
72	0x3b868ae8	0.0041059144
73	0xbc3d384d	-0.011549068
74	0xbdf1ee2f	-0.11813008
75	0x3e32b5b1	0.17452122
76	0xbe0f4f3d	-0.13995071
77	0x3d557eb9	0.052122805
78	0xbd9b5302	-0.07584192
79	0xbe829344	-0.2550298
80	0x3a375859	0.0006994061
81	0x3dcdfb97	0.100577526
82	0xbda99cb8	-0.08281845
83	0xbe7f0180	-0.24902916
84	0xbdd9a3f8	-0.10626978
85	0x3e4b8812	0.19876125
86	0x3ec5c518	0.38626933
87	0x3e299572	0.16560915
88	0x3de1d276	0.1102647
89	0x3d1a7bb4	0.03771563
90	0x3e3dc423	0.18531851
91	0xbe0fa6a9	-0.1402842
92	0xbd045eef	-0.0323171
93	0xbd809ebd	-0.06280277
94	0x3e07947e	0.13240239
95	0xbdec5a93	-0.11540713
96	0x3b6831aa	0.0035429993
97	0xbd2d8fb5	-0.042373378
98	0x3df0e55d	0.117624976
99	0xbe09ac10	-0.13444543
100	0xbe185fd9	-0.14880313
101	0xbe1d6771	-0.15371491
102	0x3dfacbd7	0.122459106
103	0x3d233d50	0.039853394
104	0xbd801089	-0.06253154
105	0x3d7fbf43	0.06243826
106	0xbe223321	-0.15839817
107	0x3d329ac7	0.04360464
108	0x3cd79699	0.026316928
109	0x3d01c0a9	0.031677876
110	0x3dc06f0e	0.09396182
111	0xbd1f8af6	-0.038950883
112	0xbe15148c	-0.1455862
113	0x3dccb7cc	0.09995994
114	0xbd47f0a8	-0.048813492
115	0x3d2fbe22	0.042905934
116	0xbdc89bc9	-0.09795339
117	0x3a11d34b	0.0005562796
118	0xbc4591c8	-0.012058683
119	0xbe308c48	-0.17241013
120	0x3e25058d	0.16115399
121	0x3c95b349	0.018273966
122	0x3e22415d	0.15845247
123	0x3db8078d	0.08985815
124	0xbd0eb0ba	-0.03483651
125	0xbcb26cf3	-0.021780467
126	0x3e2b2c15	0.16716035
127	0xbe211e7e	-0.15734288
128	0xbe1fc989	-0.15604223
129	0xbd97c286	-0.07410149
130	0x3c13a0bb	0.009010489
131	0x3c745d85	0.014914875
132	0x3d7afb5e	0.06127488
133	0xbe00ffc3	-0.12597565
134	0x3da35a59	0.07976217
135	0xbe1e6b87	-0.15470706
136	0x3e0440fc	0.12915415
137	0xbe0b6ef8	-0.1361655
138	0xbe0c9ca1	-0.13731624
139	0xbdd1218e	-0.10211478
140	0xbd5b7109	-0.053574596
141	0x3e524a14	0.20536071
142	0x3bec7bc4	0.0072169024
143	0x3db6201a	0.08892842
144	0xbd68e90c	-0.056862876
145	0x3c4cf4c4	0.012509529
146	0xbcb723e8	-0.022355989
147	0x3d350fb2	0.04420442
148	0x3e2e778e	0.17037794
149	0x3e3f6d74	0.18694097
150	0xbe1e6b87	-0.15470706
151	0xbe4de3e8	-0.2010647
152	0xbd24799b	-0.040155035
153	0xbcf1df4e	-0.029525425
154	0xbdadea43	-0.084919475
155	0xbdec3639	-0.1153378
156	0xbe5db9ed	-0.21652956
157	0x3d0ddeb6	0.03463622
158	0xbd410cf3	-0.04713149
159	0x3cbbe791	0.022937568
160	0xbcb49ca4	-0.022047348
161	0xbd6c59e3	-0.05770291
162	0x3cb7d894	0.02244214
163	0x3a5a40bf	0.0008325688
164	0xbe16eaab	-0.14737956
165	0x3c5630bd	0.013073144
166	0xbd8106b4	-0.06300107
167	0x3d22c450	0.039738
168	0xbd885437	-0.06656688
169	0x3d0946f5	0.033514936
170	0x3d8a9a35	0.06767694
171	0xbb8dee24	-0.004331367
172	0x3d42c707	0.04755309
173	0x3e4f00b3	0.2021511
174	0xbd8c2080	-0.068421364
175	0x3e433193	0.1906188
176	0x3e72ea60	0.2372222
177	0xbc14f929	-0.009092608
178	0x3d2c0ae5	0.042002577
179	0xbe4bfc8c	-0.19920558
180	0xbdc9e0a3	-0.09857299
181	0xbe4053fe	-0.1878204
182	0x3e51f9b5	0.20505412
183	0xbe6cac1f	-0.23112534
184	0xbd329c4c	-0.043606088
185	0xbcaaea9f	-0.02086383
186	0xbe25d3b3	-0.16194038
187	0x3c924863	0.017856782
188	0xbd7f65e7	-0.06235304
189	0x3e7e55bf	0.24837397
190	0xbe93e595	-0.28886095
191	0xbad6f064	-0.0016398546
192	0xbad6f064	-0.0016398546
193	0x3dc506ea	0.096204594
194	0xbd92ed71	-0.071741946
195	0x3d47807e	0.048706524
196	0x3e13bf13	0.14428358
197	0xbd288707	-0.041144397
198	0xbde9a5b0	-0.114085555
199	0x3ca3d0ec	0.019997083
200	0x3e5291b2	0.20563391
201	0xbdbb7242	-0.09152652
202	0x3d834ad5	0.064107575
203	0x3d14763a	0.036245562
204	0xbba848af	-0.0051356177
205	0xbe36ff69	-0.17870869
206	0x3dccee68	0.1000641
207	0x3e65539b	0.22395174
208	0x3cb31f76	0.021865588

fs_lr_fs_lr_W f4 [91, 1]
0	0xbd55ed92	-0.052228518
1	0x3d8b714b	0.06808718
2	0x3d6095ad	0.054830242
3	0xbc99a570	-0.018755645
4	0x3d4b4390	0.04962498
5	0x3d6eb055	0.058273632
6	0xbdeef2a2	-0.11667372
7	0x3ccf6b7a	0.025319804
8	0xbdc6c6d3	-0.097058915
9	0x3e0f9fb9	0.14025773
10	0xbd1b6fe9	-0.037948523
11	0x3d991634	0.07474938
12	0xbdc6d169	-0.097079106
13	0xbd47b747	-0.04875877
14	0xbc704166	-0.01466403
15	0xbe303d3b	-0.17210858
16	0xbd9e6a70	-0.07735145
17	0xbd9e6a70	-0.07735145
18	0xbe1a9fb1	-0.1509998
19	0xbcc2a5c5	-0.023760686
20	0xbc75cb40	-0.015002072
21	0x3c8a46b9	0.016879426
22	0xbdf04431	-0.117317565
23	0xbbe2da88	-0.0069230236
24	0x3d4b5742	0.049643762
25	0xbdcf74ce	-0.101297006
26	0x3ded52f5	0.115880884
27	0xbdb61241	-0.088902004
28	0x3dbc4356	0.09192531
29	0xbd50b0c9	-0.050949845
30	0xbe44f184	-0.19232756
31	0x3db58233	0.08862724
32	0xbe1c01c0	-0.15235043
33	0x3e7ba74f	0.24575542
34	0xbcff0d8d	-0.031134391
35	0x3d9bbbdd	0.076041915
36	0xbdb5daa7	-0.08879595
37	0x3d355775	0.04427286
38	0xbcaaa4a7	-0.020830465
39	0x3dc5fa2b	0.096668564
40	0xbdd760bf	-0.105165
41	0xbca872c4	-0.020562537
42	0x3cdb5878	0.026775584
43	0x3d45f8f6	0.04833313
44	0x3ccb84e4	0.02484364
45	0xbd13488c	-0.035957858
46	0xbdeaf1b4	-0.114718825
47	0xbce7fbd5	-0.028318325
48	0x3c18ec48	0.009333678
49	0xbd0b96c5	-0.034079332
50	0x3dbe15c5	0.09281496
51	0x3db0a5ad	0.0862535
52	0x3c828b0e	0.015935447
53	0x3e028bc0	0.12748623
54	0x3e0a4ec8	0.13506615
55	0xbdd738f0	-0.10508907
56	0xbddd586e	-0.10807882
57	0xbd3464cb	-0.044041436
58	0xbdf22e72	-0.11825265
59	0x3e3030a4	0.17206055
60	0xbde1cf30	-0.11025846
61	0xbde27908	-0.11058241
62	0xbda85d93	-0.08220973
63	0xbd309dae	-0.043119125
64	0x3e499387	0.19685183
65	0x3e2f74b2	0.1713436
66	0xbdf22e72	-0.11825265
67	0xbe114a39	-0.1418847
68	0xbdf04431	-0.117317565
69	0xbb50f715	-0.0031885554
70	0xbdf87142	-0.12130977
71	0xbc6917dd	-0.014226881
72	0xbcd76893	-0.026294982
73	0x3d122e71	0.03568882
74	0xbb644453	-0.0034830763
75	0xbd8c9b5c	-0.0686557
76	0x3e1c6a84	0.15275007
77	0x3e23907f	0.1597309
78	0xbe1152ed	-0.1419179
79	0xbd87ab52	-0.06624474
80	0xbe04a166	-0.12952194
81	0x3e2797d0	0.16366506
82	0x3d889cb7	0.06670516
83	0xbd922e45	-0.071377315
84	0xbdbeac0f	-0.09310161
85	0x3e02a818	0.12759435
86	0x3ca77340	0.020440698
87	0x3e010af8	0.1260184
88	0x3e049d75	0.1295069
89	0x3e02a66a	0.12758794
90	0x3c3ea8d7	0.011636934

fs_svc_W2_fs_svc f4 [91, 1]
0	0xbc398457	-0.011323056
1	0x3dca0e5f	0.09866022
2	0x3d05abb9	0.03263447
3	0xbddc1946	-0.10747008
4	0x3db4f512	0.08835806
5	0x3db17d76	0.08666508
6	0xbe5a25a3	-0.2130342
7	0x3d2131e9	0.03935424
8	0xbd747dbc	-0.059690222
9	0x3e8b7f8e	0.27245754
10	0xbd689042	-0.0567782
11	0x3ddc89e5	0.10768489
12	0xbdde0aea	-0.108419254
13	0xbcaa570b	-0.020793458
14	0x3b1cfabb	0.0023953158
15	0xbed74ff3	-0.42053184
16	0xbde13836	-0.109970495
17	0xbde13836	-0.109970495
18	0xbe940d35	-0.28916326
19	0xbde130ea	-0.10995658
20	0xbd9d2eeb	-0.076749645
21	0x3d86d64d	0.065838434
22	0xbe429b2d	-0.19004507
23	0xbcbd0c44	-0.023077138
24	0x3cdf60d4	0.027267851
25	0xbd1d64d3	-0.03842623
26	0x3e02baf9	0.12766637
27	0xbe35d026	-0.17755184
28	0x3dcc7f1a	0.0998518
29	0xbdd7e386	-0.105414435
30	0xbeb82dc1	-0.35972407
31	0x3e30c42a	0.1726233
32	0xbe2b54d4	-0.16731578
33	0x3ee44483	0.4458352
34	0xbcf49993	-0.029858386
35	0x3de5ae8f	0.11214935
36	0xbe03cf6b	-0.12872092
37	0xbdd07d09	-0.101800986
38	0xbd72273a	-0.05911944
39	0x3e33ce6c	0.17559212
40	0xbdfc5f87	-0.12322908
41	0x3d994778	0.07484335
42	0x3bfb7c8b	0.007674759
43	0xbcb52682	-0.022113089
44	0xbd450bb0	-0.04810685
45	0xbd33e1ee	-0.043916635
46	0xbe07c459	-0.13258494
47	0x3c44f46f	0.012021168
48	0x3d26044c	0.04053144
49	0xbdd81998	-0.105517566
50	0x3d9aeb33	0.07564392
51	0x3e0d64c9	0.13807978
52	0x3de01db8	0.109431684
53	0x3e44d97f	0.19223593
54	0x3e770828	0.24124205
55	0xbda644f0	-0.081186175
56	0xbe340748	-0.17580903
57	0x3dae22ef	0.08502757
58	0xbe1d8f04	-0.15386587
59	0x3e76f1c2	0.24115661
60	0xbe5bf8bd	-0.21481605
61	0xbe5d42cb	-0.21607511
62	0xbdf049e8	-0.117328465
63	0xbd234693	-0.039862227
64	0x3e537c24	0.20652825
65	0x3e5435ab	0.20723598
66	0xbe1d8f04	-0.15386587
67	0xbe6ed9f3	-0.23325329
68	0xbe429b2d	-0.19004507
69	0x3af85f0a	0.0018949222
70	0xbe41b1e9	-0.18915524
71	0xbd2b64fb	-0.04184435
72	0x3d1e864d	0.038702298
73	0x3da44c3c	0.08022353
74	0xbcd83d9b	-0.026396563
75	0xbcf68953	-0.030094778
76	0x3e362679	0.17788114
77	0x3e594fdd	0.21221872
78	0xbe29ba4c	-0.16574973
79	0xbde498bf	-0.111619465
80	0xbe357aaa	-0.17722574
81	0x3e357dbf	0.1772375
82	0x3e179914	0.14804488
83	0xbe86358f	-0.26212737
84	0xbe1d5756	-0.15365347
85	0x3e0fe2be	0.14051339
86	0x3c9bae57	0.01900403
87	0x3e019b5d	0.12656923
88	0x3e2892d1	0.16462256
89	0x3e2ce7d4	0.1688531
90	0x3d8ae8c8	0.06782681

mfs_lr_mfs_lr_W f4 [91, 1]
0	0xbdd9c61e	-0.10633491
1	0x3f2b8e4b	0.67013997
2	0x3e54149b	0.20710985
3	0x3f1e1855	0.6175588
4	0x3dc8a829	0.09797699
5	0xbe172e0b	-0.14763658
6	0x3e2471d5	0.16059048
7	0xbed745e2	-0.42045504
8	0xbef87bf9	-0.48532084
9	0xbf734b13	-0.9503643
10	0xbf86a4bc	-1.0519023
11	0xc095bb9a	-4.6791506
12	0x405e5b41	3.4743197
13	0x40a91b75	5.2846017
14	0xbf8b6655	-1.0890604
15	0x3fa398c2	1.2780993
16	0x40b4c4dd	5.649031
17	0xbfd611b3	-1.6724151
18	0x3fbbfcff	1.4686583
19	0xbf16f5e2	-0.5896894
20	0xbf5d6480	-0.86481476
21	0x3fe07706	1.7536323
22	0xc0383847	-2.878435
23	0x3c45cfd9	0.0120734805
24	0xbf85be30	-1.0448666
25	0xbfd698ae	-1.6765344
26	0xc004349c	-2.065711
27	0xc01fb650	-2.4955025
28	0xc0426cea	-3.0378976
29	0xc093a88e	-4.6143255
30	0xc05495bf	-3.3216398
31	0xbfb2c928	-1.3967638
32	0x400e737d	2.2257988
33	0xbe39a29a	-0.18128434
34	0xbd8bf4cc	-0.06833801
35	0xbd0daf7e	-0.03459119
36	0xbfed0b67	-1.8519105
37	0xc0849248	-4.1428566
38	0x401ea833	2.479016
39	0xbde76f04	-0.113004714
40	0x408e5f95	4.4491677
41	0x3fae0ced	1.3597695
42	0xc0ea73ef	-7.326652
43	0xbe886db2	-0.2664619
44	0x3faf3220	1.3687172
45	0xbe886db2	-0.2664619
46	0x3f8ca71f	1.0988501
47	0xbf228030	-0.6347685
48	0xbf846922	-1.0344584
49	0x3c8adf6c	0.016952239
50	0x3f955e63	1.166943
51	0xc057f0df	-3.3740766
52	0x40de0387	6.9379306
53	0x4028131a	2.6261659
54	0xbf837128	-1.0268908
55	0xbc7ca374	-0.01541983
56	0xbf027d96	-0.5097288
57	0xbed31852	-0.41229492
58	0xbf30bbfd	-0.6903685
59	0xbf14ef3e	-0.58177555
60	0xbfa26678	-1.2687521
61	0xbf4c8e5f	-0.7990474
62	0xbf0ed572	-0.5579444
63	0xbed48118	-0.4150474
64	0xc0a5d1a4	-5.181841
65	0xbfab8d80	-1.3402557
66	0xbf4d971a	-0.8030869
67	0x3ec17904	0.3778764
68	0xbfa468eb	-1.2844518
69	0xbf9e2a8d	-1.2356735
70	0xbebe5962	-0.3717757
71	0xbf4d0628	-0.8008752
72	0xbf6582c2	-0.89652646
73	0x3f1b58e4	0.6068251
74	0xbeae77ab	-0.34075674
75	0xbf90fc51	-1.1327001
76	0xbf120614	-0.57040524
77	0xbef678f1	-0.48139146
78	0x3da9beea	0.08288367
79	0xbf598539	-0.84968907
80	0xc0941a9e	-4.628249
81	0x3f2b5641	0.6692849
82	0xc0a15d80	-5.0426636
83	0xc0344b14	-2.8170824
84	0xbfa13290	-1.2593555
85	0xbf139e42	-0.5766336
86	0xc02e1e44	-2.7205973
87	0xbf85ea15	-1.0462061
88	0xbfb107a4	-1.3830457
89	0xbe332cc5	-0.17497547
90	0xbf0bfaa7	-0.5467934

mfs_svc_W2_mfs_svc f4 [91, 1]
0	0xbd3ea82b	-0.046547096
1	0x3e9e9918	0.30976176
2	0x3db61f89	0.088927336
3	0x3e8b416a	0.27198344
4	0x3d66475e	0.056220405
5	0x3cc1b977	0.023648007
6	0x3de3ec0c	0.11129007
7	0xbe5ca185	-0.2154599
8	0xbe629388	-0.22126591
9	0xbefb1ede	-0.49046987
10	0xbeeced5f	-0.4627485
11	0xc11ba296	-9.727194
12	0x4028d3a9	2.6379187
13	0x40d18267	6.5471683
14	0x4102fb83	8.186404
15	0xbf57651a	-0.84138644
16	0x40059085	2.0869458
17	0x3e064e0d	0.13115712
18	0x3f2e4965	0.6808074
19	0xbe13d88f	-0.1443808
20	0xbe965c94	-0.29367507
21	0x3f56b6ee	0.8387288
22	0xbfab8921	-1.3401223
23	0xbadc25ba	-0.0016795911
24	0xbea89a47	-0.32930204
25	0xbf28357c	-0.6570661
26	0xbf56ec35	-0.83954173
27	0xbf85d93a	-1.0456917
28	0xbfa388b3	-1.2776092
29	0xbff69947	-1.9265527
30	0xbfb64f7f	-1.424301
31	0xbef034d2	-0.469153
32	0xc040fcdd	-3.0154335
33	0xbe00755c	-0.12544769
34	0xbd18f7cb	-0.03734569
35	0xbc037da6	-0.008025562
36	0xbf49f0ed	-0.7888325
37	0xbffea313	-1.9893516
38	0x40fef0ce	7.966895
39	0x406aaff9	3.6669905
40	0x401fcaf9	2.4967635
41	0x3f406d39	0.7516666
42	0xc1820fa4	-16.257637
43	0xbdd4aa38	-0.10384029
44	0x3fc1d9ff	1.5144652
45	0xbdd4aa38	-0.10384029
46	0xbf217f21	-0.6308461
47	0xbe7f869c	-0.24953693
48	0x3f062322	0.5239736
49	0xbdbea0b6	-0.09307997
50	0x3fb0247c	1.3761134
51	0xbfcf919d	-1.6216313
52	0x4098a6f2	4.770379
53	0xbf801b7e	-1.000839
54	0xbecac225	-0.39601246
55	0x3c9c4cc8	0.01907958
56	0xbe75fe12	-0.24022701
57	0xbe6a9e42	-0.22911933
58	0xbe9d729d	-0.30751505
59	0xbe6eb1a0	-0.23309946
60	0xbf2d1ba0	-0.6762028
61	0xbefb3bc0	-0.49069023
62	0xbebc1135	-0.36731878
63	0xbe5f1838	-0.21786582
64	0xc055ad05	-3.3386853
65	0xbecf8215	-0.40528932
66	0xbe895197	-0.2682006
67	0x3ea01d65	0.31272426
68	0xbee5e368	-0.4490006
69	0xbf263378	-0.64922285
70	0xbd620cbe	-0.055187933
71	0xbe84562e	-0.25847
72	0xbf17bc35	-0.59271556
73	0x3e88e241	0.26735118
74	0xbe88ccee	-0.2671885
75	0xbefb1fbb	-0.49047646
76	0xbe315416	-0.17317232
77	0xbe4181b1	-0.1889713
78	0xbe008614	-0.12551147
79	0xbf372770	-0.7154455
80	0xbf6744f2	-0.9033958
81	0x3f864de1	1.0492517
82	0xbf5a9480	-0.85382843
83	0xbebb3699	-0.36565092
84	0xbd65ab51	-0.056071583
85	0xbdda3cae	-0.10656105
86	0xbe0aaa76	-0.13541588
87	0xbd25fdde	-0.04052531
88	0xbd78838d	-0.06067233
89	0x3d839f48	0.06426865
90	0xbe416803	-0.18887334

lv_lr_lv_lr_W f4 [51, 1]
0	0xbb5e30e1	-0.0033903646
1	0xbe357d07	-0.17723475
2	0xbd9fc81c	-0.0780184
3	0x3ded3d1e	0.11583923
4	0x3d2f5df6	0.042814218
5	0x3e5c87ed	0.21536227
6	0xbdf1d399	-0.11807937
7	0x3d8445b5	0.06458608
8	0x3dcb208b	0.099183165
9	0xbbd6a18c	-0.0065500196
10	0x3e023f45	0.12719448
11	0x3bd3e6ff	0.006466746
12	0xbe2813d8	-0.1641382
13	0x3e4b8943	0.1987658
14	0x3e677d83	0.22606473
15	0x3d780a30	0.06055659
16	0x3c1a5a2e	0.009420915
17	0x3e4d5a3a	0.2005395
18	0x3c2c3b68	0.01051221
19	0x3e0ea500	0.1393013
20	0x3cd6bc02	0.026212696
21	0xbd3fbe07	-0.046812084
22	0xbc58fb77	-0.013243548
23	0xbe5b4874	-0.21414357
24	0xbd626c85	-0.055279274
25	0x3dd980af	0.106202476
26	0x3da4819c	0.080325335
27	0xbea5a3a5	-0.32351413
28	0x3c323be2	0.010878535
29	0xbdae4d03	-0.085107826
30	0x3d0bbe0b	0.034116786
31	0x3dbcf49a	0.092263415
32	0x3dcec33c	0.10095832
33	0x3e0692cf	0.1314194
34	0x3dcb683c	0.099319905
35	0xbc0cf8fa	-0.0086042825
36	0x3d830f10	0.06399357
37	0x3dc6791c	0.096910685
38	0x3e5bd2f4	0.21467191
39	0xbc96d728	-0.018413141
40	0xbc3ee1bf	-0.011650502
41	0x3e3b152c	0.18269795
42	0x3dc25296	0.09488408
43	0x3cb913c1	0.022592427
44	0x3e5e7ff2	0.21728495
45	0xbe6e10ed	-0.23248644
46	0x3dad88bc	0.08473346
47	0xbe76c15c	-0.24097198
48	0xbe178ef3	-0.14800625
49	0x3ddbb603	0.10728075
50	0xbcda8177	-0.026673062

lv_svc_W2_lv_svc f4 [51, 1]
0	0x3b93de88	0.004512612
1	0xbe0db2fb	-0.13837807
2	0xbd808a2f	-0.062763564
3	0x3dc762fd	0.097356774
4	0x3d1384bf	0.03601527
5	0x3e21c738	0.15798652
6	0xbdb7827a	-0.08960433
7	0x3d4806ec	0.048834726
8	0x3d85ce2f	0.06533467
9	0xbc0284f9	-0.007966273
10	0x3dd2b45c	0.10288307
11	0xb9e0851d	-0.00042823786
12	0xbe00afbb	-0.12567036
13	0x3e1d8d7c	0.15386003
14	0x3e353545	0.17696102
15	0x3d806d4d	0.062708475
16	0x3c2793b8	0.01022809
17	0x3e26d046	0.16290388
18	0x3c902bd9	0.017599033
19	0x3dd90ad2	0.10597767
20	0x3cae8528	0.021303728
21	0xbd1abb45	-0.03777625
22	0xbc3e5808	-0.011617668
23	0xbe270bd9	-0.16313113
24	0xbd222152	-0.039582558
25	0x3dacaac1	0.08431006
26	0x3d84d15f	0.06485247
27	0xbe815c0d	-0.25265542
28	0x3c30772a	0.010770598
29	0xbda5144a	-0.080605105
30	0x3cb23292	0.02175263
31	0x3d9e52e8	0.07730657
32	0x3da6db3e	0.08147286
33	0x3dd118ae	0.102097854
34	0x3d9b879c	0.07594225
35	0xbc723cfd	-0.014785049
36	0x3d3e5038	0.04646322
37	0x3db8f1ba	0.09030481
38	0x3e2d31c6	0.16913518
39	0xbc0387ee	-0.008028014
40	0x39d8164c	0.00041215343
41	0x3e16e51f	0.1473584
42	0x3d75787d	0.05992936
43	0x3cabe2de	0.020982202
44	0x3e26b602	0.16280368
45	0xbe38783c	-0.18014616
46	0x3d91f9b0	0.07127702
47	0xbe2c3ccd	-0.16820069
48	0xbdf8d3c5	-0.12149767
49	0x3da9464d	0.08265362
50	0xbccdd3dd	-0.025125438

lv_mlp_net.0.weight f4 [25, 51]
0	0x3dd03600	0.1016655
1	0x3d0a5411	0.03377158
2	0xbdcd90c4	-0.100373775
3	0xbd751578	-0.059834927
4	0x3d53c9b9	0.05170605
5	0xbe8fd147	-0.28089353
6	0x3e57a1cd	0.21057816
7	0xbd061829	-0.032737885
8	0xbebd2667	-0.3694336
9	0xbd83682a	-0.06416352
10	0x3e86e03e	0.26342958
11	0xbe4955f3	-0.19661693
12	0x3e24443e	0.16041657
13	0x3d9644db	0.07337352
14	0xbda4ffe4	-0.0805662
15	0xbdbb3d74	-0.09142581
16	0xbe2def7c	-0.16985887
17	0xbda99a25	-0.08281354
18	0x3e94ad10	0.29038286
19	0xbdb39783	-0.08769133
20	0x3dc3b620	0.09556222
21	0x3e66c4bc	0.22535986
22	0xbe00ea41	-0.12589361
23	0x3e019aee	0.12656757
24	0x3e8713c2	0.26382262
25	0x3cd285aa	0.025698502
26	0xbe1b4212	-0.15161923
27	0x3e86cc17	0.26327583
28	0xbe7f617a	-0.24939528
29	0x3dda4588	0.10657793
30	0xbd0380d7	-0.032105293
31	0x3d44fa3d	0.04809021
32	0xbe1a70b2	-0.15082052
33	0xbdcdc6a6	-0.10047655
34	0xbeb3964b	-0.35075602
35	0x3ed0883e	0.40728945
36	0xbec1518c	-0.37757528
37	0x3e0d45e9	0.137962
38	0x3e08ac72	0.13347033
39	0xbdd1bced	-0.10241113
40	0x3d73edbc	0.059552893
41	0xbdb0e453	-0.086372994
42	0xbdcd8e47	-0.10036903
43	0x3d9c85e0	0.07642722
44	0xbe508b1b	-0.20365565
45	0x3e31b3d6	0.17353758
46	0x3d2bb9ea	0.04192535
47	0x3d5851dd	0.052812446
48	0x3e14c51c	0.14528316
49	0xbe4042f8	-0.18775547
50	0x3ddc0fef	0.107452266
51	0x3e067227	0.13129483
52	0x3debcc5a	0.11513586
53	0xbdd82610	-0.10554135
54	0xbdb0e078	-0.08636564
55	0xbda0dbb6	-0.078544065
56	0x3be9e394	0.007137725
57	0x3cf909bd	0.030400151
58	0x3e20addf	0.15691327
59	0xbd3fecbc	-0.046856627
60	0x3e651a03	0.22373204
61	0x3dfbf808	0.123031676
62	0x3e17ef83	0.1483746
63	0xbd6f63e8	-0.058444887
64	0xbeef1524	-0.46695817
65	0x3e1b5b24	0.15171486
66	0x3d1d6eb8	0.038435668
67	0x3e468e64	0.19390255
68	0xbe2eb3da	-0.17060795
69	0x3c7163b3	0.014733243
70	0xbea5be79	-0.32371882
71	0xbddece4c	-0.10879192
72	0x3e22e213	0.15906553
73	0x3deceb03	0.115682624
74	0xbcfebead	-0.03109678
75	0xba630f84	-0.0008661675
76	0xbf105f08	-0.56395006
77	0xbd21e6b0	-0.03952664
78	0x3ea3cba3	0.319913
79	0xbdf815fd	-0.12113569
80	0xbde207fd	-0.1103668
81	0x3eadeabe	0.33968157
82	0xbeb9e534	-0.3630768
83	0x3d4cef7b	0.050033074
84	0x3aa57cb1	0.0012625662
85	0xbe922308	-0.28542352
86	0x3cc08502	0.023500923
87	0x3dc3903d	0.09548996
88	0xbe35627c	-0.1771335
89	0xbdab16ce	-0.08353959
90	0xbea29039	-0.31750658
91	0x3d022420	0.031772733
92	0xbe3103b7	-0.17286573
93	0x3ccc0dd4	0.024908938
94	0xbe1d96a9	-0.15389504
95	0xbd72f8cd	-0.059319306
96	0x3d180156	0.03711065
97	0xbd2e2a6a	-0.042520918
98	0xbb5d1b83	-0.0033738322
99	0x3e18ce6e	0.14922497
100	0xbe727e19	-0.23680915
101	0x3e8dd858	0.2770412
102	0x3e52e471	0.20594956
103	0x3e2512bb	0.16120426
104	0xbd684a13	-0.056711268
105	0xbe027401	-0.12739564
106	0x3c9ea444	0.019365437
107	0x3e5841d5	0.21118863
108	0x3df30db4	0.11867848
109	0xbe1d524c	-0.15363425
110	0xbdc52912	-0.09626974
111	0x3d964cf8	0.073388994
112	0x3e4ee068	0.20202792
113	0xbd14c74b	-0.036322873
114	0x3e11a4c9	0.14223017
115	0xbaca1e8e	-0.0015420483
116	0xbdb37800	-0.087631226
117	0xbea3f152	-0.3202005
118	0x3e180ed2	0.14849404
119	0x3ce65f05	0.02812148
120	0xbe9ab37a	-0.30215055
121	0xbd7120b8	-0.058869094
122	0x3d7548d4	0.059883907
123	0x3daaf885	0.083481826
124	0x3e987ddb	0.2978352
125	0x3d246c94	0.04014261
126	0xbd0813e9	-0.033222113
127	0xbe565cbf	-0.20933817
128	0xbe414fda	-0.18878117
129	0x3ec2fc9d	0.38083354
130	0x3cdd17ef	0.026988951
131	0xbd47b44d	-0.048755933
132	0x3d944daf	0.072413795
133	0x3d905ada	0.070485786
134	0x3dcd639d	0.10028765
135	0x3e565473	0.20930652
136	0xbe29ba99	-0.16575088
137	0x3d376218	0.044771284
138	0xbe9d3e43	-0.30711564
139	0xbe50cc14	-0.2039035
140	0x3d53ede7	0.051740553
141	0xbce91b62	-0.02845544
142	0xbe3a49bf	-0.18192194
143	0xbe4c78cb	-0.19967954
144	0xbe1ee047	-0.15515243
145	0xbdb7dcbd	-0.08977649
146	0xbe8a9593	-0.2706724
147	0xbc245770	-0.010030612
148	0xbe8ee670	-0.27910185
149	0xbcfee025	-0.03111274
150	0x3d7649dc	0.06012903
151	0xbefa0015	-0.48828188
152	0xbde6c7c1	-0.11268569
153	0xbd4797db	-0.048728805
154	0x3df351d6	0.11880843
155	0xbe44e99b	-0.19229738
156	0x3bf0d01c	0.0073490273
157	0x3e106892	0.1410239
158	0xbe55bcd2	-0.2087281
159	0xbe08e68d	-0.13369198
160	0x3d7cc4a4	0.06171097
161	0xbcc9943c	-0.024606816
162	0xbe023e72	-0.12719133
163	0xbe388f08	-0.18023312
164	0xbe56d2e9	-0.20978893
165	0x3abca89d	0.0014393512
166	0xbe6722ba	-0.22571841
167	0xbe46704d	-0.19378777
168	0x3dd78f7e	0.10525416
169	0xbcfbe742	-0.03074992
170	0xbdc35049	-0.095367976
171	0x3e6174d8	0.22017229
172	0xbe6a11e3	-0.22858386
173	0xbc4871a6	-0.012234127
174	0xbdf15bb1	-0.11785067
175	0xbe1bf075	-0.15228446
176	0x3de44412	0.11145796
177	0xbd943e81	-0.07238484
178	0xbc2c395e	-0.010511724
179	0x3e001fff	0.12512206
180	0x3e97cc01	0.2964783
181	0x3b960b79	0.0045790044
182	0x3dd54003	0.104126
183	0xbe52fd34	-0.20604402
184	0xbe6d31aa	-0.23163477
185	0xbd42585b	-0.047447544
186	0x3d82f071	0.06393517
187	0x3df22c75	0.11824886
188	0xbe77ee2d	-0.2421195
189	0xbcdba9cf	-0.02681437
190	0x3e007ecc	0.12548369
191	0xbe819271	-0.25307038
192	0x3efefb94	0.49801314
193	0xbd968f1e	-0.07351516
194	0x3c5ada41	0.0133577
195	0xbe9a2803	-0.30108652
196	0xbd50a404	-0.050937667
197	0x3d3cc699	0.046087835
198	0x3b841e32	0.00403192
199	0x3d388fb8	0.045058936
200	0x3ea3a590	0.31962252
201	0x3d29fe55	0.041502316
202	0xbcce10f2	-0.025154565
203	0xbe5867a1	-0.21133281
204	0x3e03bb86	0.12864503
205	0x3bd6f7a4	0.006560283
206	0xbea665ca	-0.32499534
207	0xbd031374	-0.032000974
208	0x3e1e3517	0.1544994
209	0xbec73c85	-0.3891336
210	0x3daca7b3	0.084304236
211	0xbe11f179	-0.14252271
212	0xbce1f126	-0.027580809
213	0xbddfe46e	-0.109322414
214	0xbdfe37f8	-0.12413019
215	0xbd62854b	-0.0553029
216	0x3db21345	0.086950816
217	0xbe2a5116	-0.16632494
218	0xbe03f06f	-0.12884687
219	0x3dae5d4a	0.08513887
220	0xbe3a0a8a	-0.18168083
221	0xbe80c8b3	-0.2515312
222	0xbe78ec9b	-0.24309008
223	0xbd8bc899	-0.0682537
224	0xbeb4fded	-0.3534998
225	0x3cf79b50	0.030225426
226	0x3e4a739d	0.19770665
227	0x3e2eea68	0.17081606
228	0xbd97149c	-0.07376978
229	0xbc09075a	-0.008363569
230	0xbcf6a853	-0.03010956
231	0xbb80fad0	-0.003936149
232	0x3eb22bd7	0.34799072
233	0x3eba7185	0.36414734
234	0xbd7d3830	-0.061821163
235	0xbcb97b43	-0.022641784
236	0xbe0cfbd6	-0.13767943
237	0xbea7f18c	-0.32801473
238	0x3e1b8c34	0.15190202
239	0x3db5876c	0.0886372
240	0x3e7fdbfb	0.2498626
241	0x3dcdd1d7	0.100497894
242	0xbd19f619	-0.037588213
243	0x3e7598b9	0.2398404
244	0xbe091923	-0.13388495
245	0x3e309606	0.1724473
246	0xbe200739	-0.15627755
247	0x3be45103	0.006967665
248	0x3bca0bf8	0.0061659776
249	0x3dbf5040	0.09341478
250	0xbcc6bd0d	-0.024260068
251	0x3ebe4116	0.37159032
252	0xbdaf8f2b	-0.08572229
253	0xbda0ced0	-0.07851946
254	0xbbad6886	-0.005292001
255	0x3e065d41	0.13121511

lv_mlp_net.0.bias f4 [25]
0	0xbe5ca47c	-0.21547121
1	0xbcd280f7	-0.02569626
2	0x3c835a39	0.016034232
3	0x3d84aa7c	0.0647783
4	0x3dd212e0	0.10257506
5	0xbe20325a	-0.15644208
6	0x3cac5490	0.021036416
7	0x3d8ea83e	0.069656834
8	0xbd9c211f	-0.07623505
9	0x3d715e30	0.058927715
10	0x3dc1e66e	0.09467779
11	0x3bebb3bc	0.007193057
12	0x3d7bd21e	0.06147968
13	0xbd9777cc	-0.07395896
14	0xbdbf003a	-0.09326215
15	0xbca9935e	-0.020700153
16	0xbd40efba	-0.04710362
17	0xbdd24813	-0.10267653
18	0xbe735fac	-0.23766965
19	0x3c2b6bc1	0.010462702
20	0xbe209668	-0.15682375
21	0xbda65159	-0.081209846
22	0xbdc8fa11	-0.098133214
23	0xbe364a23	-0.17801718
24	0xbdccddee	-0.10003267

lv_mlp_net.3.weight f4 [1, 25]
0	0xbeaf8ae6	-0.3428566
1	0xbe765dbe	-0.24059197
2	0xbe60226c	-0.21888131
3	0xbeafa159	-0.34302786
4	0xbecef11c	-0.40418327
5	0x3e54f011	0.20794703
6	0x3e859efb	0.26097855
7	0xbe2f7793	-0.17135458
8	0xbe0d2d4c	-0.1378681
9	0xbe4aaca8	-0.19792426
10	0xbe7d229c	-0.24720234
11	0xbe806e11	-0.25083974
12	0x3e380ee2	0.17974427
13	0x3e45599b	0.19272463
14	0x3e922523	0.28543958
15	0xbe8942bf	-0.26808736
16	0xbec54fd3	-0.38537464
17	0xbe42bcf4	-0.19017392
18	0x3e97d770	0.29656553
19	0xbef24dcb	-0.47324976
20	0x3e87f8ff	0.26557156
21	0xbea9fc7a	-0.33200437
22	0xbebe2978	-0.37141013
23	0xbeb043d4	-0.3442675
24	0x3e894d28	0.26816678
