model/checkpoints/mic50_bin10/rdkit/model_000.onnx (onnx, 65012 bytes, 12 tensors)

lv_onnx::MatMul_4 f4 [188, 33]
0	0x00000000	0.0
1	0x00000000	0.0
2	0x00000000	0.0
3	0x00000000	0.0
4	0x00000000	0.0
5	0x00000000	0.0
6	0x00000000	0.0
7	0x00000000	0.0
8	0x00000000	0.0
9	0x00000000	0.0
10	0x00000000	0.0
11	0x00000000	0.0
12	0x3f2503bf	0.6445884
13	0x00000000	0.0
14	0x00000000	0.0
15	0x00000000	0.0
16	0x00000000	0.0
17	0x00000000	0.0
18	0x00000000	0.0
19	0xbf2503bf	-0.6445884
20	0xbf2503bf	-0.6445884
21	0x00000000	0.0
22	0x00000000	0.0
23	0x00000000	0.0
24	0x3f2503bf	0.6445884
25	0x00000000	0.0
26	0xbf2503bf	-0.6445884
27	0x00000000	0.0
28	0x3f2503bf	0.6445884
29	0xbf2503bf	-0.6445884
30	0x00000000	0.0
31	0x00000000	0.0
32	0x00000000	0.0
33	0x00000000	0.0
34	0x00000000	0.0
35	0x00000000	0.0
36	0x00000000	0.0
37	0x00000000	0.0
38	0x00000000	0.0
39	0x00000000	0.0
40	0x00000000	0.0
41	0x00000000	0.0
42	0x00000000	0.0
43	0x00000000	0.0
44	0x00000000	0.0
45	0x00000000	0.0
46	0x00000000	0.0
47	0xbf2503bf	-0.6445884
48	0x00000000	0.0
49	0x00000000	0.0
50	0x00000000	0.0
51	0x00000000	0.0
52	0x00000000	0.0
53	0x00000000	0.0
54	0x00000000	0.0
55	0x00000000	0.0
56	0x00000000	0.0
57	0x00000000	0.0
58	0x00000000	0.0
59	0x00000000	0.0
60	0x00000000	0.0
61	0x00000000	0.0
62	0x00000000	0.0
63	0x00000000	0.0
64	0x00000000	0.0
65	0x00000000	0.0
66	0x00000000	0.0
67	0x00000000	0.0
68	0x00000000	0.0
69	0x00000000	0.0
70	0x00000000	0.0
71	0x00000000	0.0
72	0x00000000	0.0
73	0x00000000	0.0
74	0x00000000	0.0
75	0x00000000	0.0
76	0x3f2503bf	0.6445884
77	0x00000000	0.0
78	0x00000000	0.0
79	0x00000000	0.0
80	0x00000000	0.0
81	0x00000000	0.0
82	0x00000000	0.0
83	0x00000000	0.0
84	0x00000000	0.0
85	0x3f2503bf	0.6445884
86	0x00000000	0.0
87	0x00000000	0.0
88	0x00000000	0.0
89	0x00000000	0.0
90	0x00000000	0.0
91	0x00000000	0.0
92	0x00000000	0.0
93	0x00000000	0.0
94	0x00000000	0.0
95	0x00000000	0.0
96	0x00000000	0.0
97	0xbf2503bf	-0.6445884
98	0x00000000	0.0
99	0x00000000	0.0
100	0x00000000	0.0
101	0x00000000	0.0
102	0x3f2503bf	0.6445884
103	0x00000000	0.0
104	0x00000000	0.0
105	0x00000000	0.0
106	0x00000000	0.0
107	0x00000000	0.0
108	0x00000000	0.0
109	0x00000000	0.0
110	0x00000000	0.0
111	0x00000000	0.0
112	0x3f2503bf	0.6445884
113	0x00000000	0.0
114	0x00000000	0.0
115	0x00000000	0.0
116	0x00000000	0.0
117	0x00000000	0.0
118	0x00000000	0.0
119	0x00000000	0.0
120	0x00000000	0.0
121	0x00000000	0.0
122	0x00000000	0.0
123	0x00000000	0.0
124	0x00000000	0.0
125	0x00000000	0.0
126	0x00000000	0.0
127	0x00000000	0.0
128	0x00000000	0.0
129	0x00000000	0.0
130	0x00000000	0.0
131	0xbf2503bf	-0.6445884
132	0x00000000	0.0
133	0x3f2503bf	0.6445884
134	0x00000000	0.0
135	0x00000000	0.0
136	0x00000000	0.0
137	0x00000000	0.0
138	0x00000000	0.0
139	0x00000000	0.0
140	0x00000000	0.0
141	0x00000000	0.0
142	0x00000000	0.0
143	0x00000000	0.0
144	0x00000000	0.0
145	0x00000000	0.0
146	0x00000000	0.0
147	0x00000000	0.0
148	0xbf2503bf	-0.6445884
149	0x00000000	0.0
150	0x00000000	0.0
151	0xbf2503bf	-0.6445884
152	0x00000000	0.0
153	0x00000000	0.0
154	0x00000000	0.0
155	0x00000000	0.0
156	0x00000000	0.0
157	0x00000000	0.0
158	0x00000000	0.0
159	0x00000000	0.0
160	0x00000000	0.0
161	0x00000000	0.0
162	0x00000000	0.0
163	0x00000000	0.0
164	0x00000000	0.0
165	0x00000000	0.0
166	0x00000000	0.0
167	0x00000000	0.0
168	0x00000000	0.0
169	0x00000000	0.0
170	0x00000000	0.0
171	0x00000000	0.0
172	0x3f2503bf	0.6445884
173	0x00000000	0.0
174	0x00000000	0.0
175	0x00000000	0.0
176	0x00000000	0.0
177	0x00000000	0.0
178	0x3f2503bf	0.6445884
179	0x00000000	0.0
180	0x00000000	0.0
181	0x00000000	0.0
182	0x00000000	0.0
183	0x00000000	0.0
184	0x00000000	0.0
185	0x00000000	0.0
186	0x3f2503bf	0.6445884
187	0x00000000	0.0
188	0x00000000	0.0
189	0x00000000	0.0
190	0x00000000	0.0
191	0x00000000	0.0
192	0x00000000	0.0
193	0x00000000	0.0
194	0x00000000	0.0
195	0x00000000	0.0
196	0x00000000	0.0
197	0x00000000	0.0
198	0x00000000	0.0
199	0x00000000	0.0
200	0x00000000	0.0
201	0x00000000	0.0
202	0x00000000	0.0
203	0x00000000	0.0
204	0x00000000	0.0
205	0x00000000	0.0
206	0x00000000	0.0
207	0x00000000	0.0
208	0x3f2503bf	0.6445884
209	0x00000000	0.0
210	0x00000000	0.0
211	0x00000000	0.0
212	0x00000000	0.0
213	0x00000000	0.0
214	0x00000000	0.0
215	0x00000000	0.0
216	0x00000000	0.0
217	0x00000000	0.0
218	0x00000000	0.0
219	0x00000000	0.0
220	0x00000000	0.0
221	0x00000000	0.0
222	0x00000000	0.0
223	0x00000000	0.0
224	0x00000000	0.0
225	0xbf2503bf	-0.6445884
226	0x00000000	0.0
227	0x00000000	0.0
228	0x00000000	0.0
229	0x00000000	0.0
230	0x00000000	0.0
231	0x00000000	0.0
232	0x00000000	0.0
233	0x00000000	0.0
234	0x00000000	0.0
235	0x00000000	0.0
236	0x00000000	0.0
237	0x00000000	0.0
238	0x00000000	0.0
239	0xbf2503bf	-0.6445884
240	0x00000000	0.0
241	0x00000000	0.0
242	0x00000000	0.0
243	0x00000000	0.0
244	0x00000000	0.0
245	0x3f2503bf	0.6445884
246	0x00000000	0.0
247	0x00000000	0.0
248	0x00000000	0.0
249	0x00000000	0.0
250	0x00000000	0.0
251	0x00000000	0.0
252	0x00000000	0.0
253	0x00000000	0.0
254	0x00000000	0.0
255	0x00000000	0.0

lr_lr_W f4 [188, 1]
0	0x3d25cfe7	0.040481474
1	0x3d918ee7	0.071073346
2	0x3e63be21	0.22240497
3	0xbea651a8	-0.32484174
4	0xbd508f5c	-0.05091797
5	0xbe9506fb	-0.29106888
6	0xbd91fb12	-0.07127966
7	0xbdddd447	-0.10831504
8	0x3d08dc1c	0.033413038
9	0x3e01df56	0.12682852
10	0x38f46f7b	0.000116555915
11	0x3ca1b2bd	0.01973855
12	0x3ccb230e	0.024796989
13	0x3c248c15	0.010043164
14	0x3c63a966	0.013895368
15	0x3ccf824c	0.025330685
16	0xbd392dc2	-0.045209654
17	0xbd391a22	-0.045190938
18	0xbdb19291	-0.086705334
19	0x3d89229e	0.06696056
20	0xbd8f8556	-0.07007854
21	0x3cfd9cf8	0.030958638
22	0xbccbe8f4	-0.024891354
23	0x3cbfef1b	0.023429444
24	0xbd72837b	-0.05920742
25	0xb99070d6	-0.0002754989
26	0xbe0120db	-0.1261019
27	0x3eb0482b	0.3443006
28	0xbe8ea264	-0.2785827
29	0xbc171bf4	-0.009222973
30	0xbe4e0e6a	-0.20122686
31	0x3e8f185a	0.27948266
32	0xbb95e7bc	-0.004574744
33	0x3c0ef5d9	0.008725607
34	0xbbabf789	-0.0052480143
35	0xbd6bc4ad	-0.05756061
36	0xbd79477a	-0.06085918
37	0xbdc5379b	-0.096297465
38	0xbda6fc05	-0.08153538
39	0x3c645286	0.013935691
40	0x3c51bd29	0.012801447
41	0xbd36cd11	-0.04462916
42	0xbc0a029e	-0.008423476
43	0xbd1db807	-0.03850558
44	0xbe18b2e0	-0.14911985
45	0xba44a98a	-0.000750207
46	0xbda80e44	-0.08205846
47	0xbe27356e	-0.16328976
48	0xbda80e44	-0.08205846
49	0x3d4f0c0a	0.05054859
50	0xbcae7701	-0.02129698
51	0x3db7a5ab	0.089671455
52	0x3de1bd55	0.1102244
53	0x3df901dc	0.12158558
54	0x3cd1d908	0.025616184
55	0x3ba8285a	0.0051317634
56	0x3c22bfbc	0.009933408
57	0xbdec7bf7	-0.11547082
58	0x3e00b997	0.12570797
59	0xbd9f48a1	-0.07777525
60	0x3d9ee732	0.07758941
61	0xbba4177f	-0.0050076838
62	0xbc1619a2	-0.009161385
63	0x3d4d18de	0.050072543
64	0xbd3ecb8e	-0.046580844
65	0xbb3e7ac2	-0.0029064869
66	0xbd93e022	-0.07220484
67	0x3c0caa55	0.008585532
68	0x3d08baab	0.033381145
69	0x3b995c13	0.0046801656
70	0x3cfb1738	0.03065072
71	0x3c086928	0.008325852
72	0xbdff8fbe	-0.124785885
73	0xbd0fb07f	-0.03508043
74	0x3dbfe796	0.093703434
75	0x3cfc3c1d	0.030790383
76	0xbd93e022	-0.07220484
77	0x3ad5dd84	0.0016316627
78	0xbe480af9	-0.19535436
79	0x3da73712	0.08164801
80	0xbec94bc8	-0.3931563
81	0xbe26580d	-0.16244526
82	0x3da27730	0.079328895
83	0x3cc32517	0.023821397
84	0x3e3edf6d	0.18639918
85	0xbdace78a	-0.084426
86	0x3e1e5cbb	0.15465061
87	0xbe6763b0	-0.22596622
88	0xbdf9d143	-0.12198117
89	0x3ea9b7d2	0.33148056
90	0xbee0a048	-0.43872285
91	0x3ec50736	0.38482064
92	0xbd869f48	-0.06573349
93	0xbbe0e9eb	-0.0068638227
94	0x3d4c58d0	0.049889386
95	0x3d5a4767	0.05329075
96	0xbba4db82	-0.00503105
97	0xbd00ea3e	-0.03147339
98	0xbbbac23c	-0.005699424
99	0x3c723a04	0.01478434
100	0xbd2f8497	-0.042851057
101	0xbd0f51a8	-0.034989983
102	0x3b046b60	0.0020205602
103	0xbd6e0766	-0.058112524
104	0x3df49515	0.11942498
105	0x3da9eb7c	0.08296868
106	0x3e3728a2	0.17886594
107	0xbdb73e94	-0.08947483
108	0xbd0eee9b	-0.03489552
109	0xbe10a87e	-0.14126775
110	0x3cdb3e03	0.026762968
111	0x3e3c5305	0.18391044
112	0xbdfe5543	-0.12418606
113	0xbde382a4	-0.11108902
114	0xbc028671	-0.007966624
115	0x3de3e5ba	0.11127801
116	0xbdac8aa9	-0.08424885
117	0xbd0b1370	-0.033954084
118	0x3dc1470d	0.0943738
119	0x3dca4a97	0.09877508
120	0xbe69eeb6	-0.22844967
121	0xbd0299e4	-0.031885043
122	0x3b432d96	0.002978181
123	0x3e289d84	0.16466337
124	0xbdd0d905	-0.10197643
125	0x3d9aecab	0.07564672
126	0x3d6fd5cc	0.058553502
127	0xbe3e5ffc	-0.18591303
128	0xbe3e5ffc	-0.18591303
129	0xbbec6a42	-0.0072148154
130	0x3da8a110	0.08233845
131	0xbd9f2aed	-0.07771859
132	0x3de6c0d7	0.1126725
133	0x3d6fd5cc	0.058553502
134	0x3d6fd5cc	0.058553502
135	0x3d619b0d	0.05507951
136	0x3d3ada95	0.045618612
137	0x3e60420c	0.21900195
138	0xbc8c5061	-0.017128171
139	0xbe038b07	-0.12846003
140	0x3d9db2ca	0.07700117
141	0x3e1d0560	0.15334082
142	0xbe7a9b2f	-0.2447326
143	0x3dc7182e	0.09721409
144	0xbd8cd836	-0.068771765
145	0xbd9f2aed	-0.07771859
146	0xbe57fc8a	-0.2109243
147	0xbeabd6cf	-0.33562323
148	0xbc1619a2	-0.009161385
149	0x3e1fb8c7	0.1559783
150	0x3dcf0dad	0.1011003
151	0x3e274cf8	0.16337955
152	0x3d672e7f	0.056440827
153	0x3cb23c4d	0.02175727
154	0xbe12da0e	-0.14340994
155	0xbdff3249	-0.12460763
156	0x3df55d01	0.1198063
157	0x3e258fc5	0.16168125
158	0xbda08dc3	-0.07839539
159	0xbc3847a3	-0.011247548
160	0x3dcbaf6e	0.0994557
161	0x3d4c0200	0.049806595
162	0xbdc5c590	-0.09656823
163	0xbd4fbc7a	-0.050716855
164	0x3dfe74eb	0.12424644
165	0xbe0c8e07	-0.13726054
166	0x3c74b2ad	0.014935178
167	0x3e22cb40	0.15897846
168	0xbd3e87b8	-0.04651615
169	0x3e1ab3f0	0.15107703
170	0xbd385957	-0.045007076
171	0xbd990332	-0.074713126
172	0xbe12a744	-0.1432162
173	0xbe1a2093	-0.15051489
174	0xbe6265f1	-0.221092
175	0xbe6265f1	-0.221092
176	0xbe28af01	-0.16473009
177	0xbe0ceeea	-0.13763013
178	0xbe442cbb	-0.19157688
179	0xbdd2a11f	-0.10284638
180	0xbd9619b1	-0.07329119
181	0xbdabbc7a	-0.083855584
182	0xbedf76c5	-0.436453
183	0xbd1f44ff	-0.03888416
184	0xbe85ca66	-0.2613098
185	0x3e037237	0.12836538
186	0xbcce5a7d	-0.025189633
187	0xbec19cb3	-0.37814865

svc_W2_svc f4 [188, 1]
0	0xbbf94149	-0.0076066596
1	0x3bf3418b	0.007423585
2	0x3db4ece0	0.08834243
3	0xbe0774c7	-0.13228141
4	0xbc7de6e0	-0.015496939
5	0xbdcca13d	-0.09991691
6	0xb9e534a1	-0.00043717495
7	0xbd543587	-0.05180886
8	0x3ce8f1ac	0.02843555
9	0x3d9a5836	0.07536356
10	0x3c118522	0.008881839
11	0x3c4477fd	0.011991498
12	0x3c5f71e1	0.013637991
13	0x3bb096b0	0.005389057
14	0x3c1dff64	0.009643409
15	0x3c4d1048	0.012516089
16	0xbcbd489c	-0.023105912
17	0xbc65ea81	-0.014032961
18	0xbd387560	-0.045033813
19	0x3cbf2ea0	0.023337662
20	0xbd332b77	-0.043742623
21	0x3c88e745	0.01671184
22	0xbcc52c4d	-0.024068976
23	0x3c5654f6	0.01308178
24	0xbc948113	-0.018127954
25	0x3b488e95	0.0030602564
26	0xbd1e83cd	-0.038699914
27	0x3de62088	0.112366736
28	0xbdfa048d	-0.12207899
29	0xbb27f1ee	-0.002562638
30	0xbd843c50	-0.06456816
31	0x3df42a99	0.11922187
32	0xbc55d48a	-0.013051162
33	0x3c1d8ab0	0.009615585
34	0xbcca87f8	-0.024723038
35	0xbd403d11	-0.046933237
36	0xbd32d453	-0.04365952
37	0xbd13376a	-0.03594152
38	0xbd4be90f	-0.04978281
39	0x3c19fb7d	0.009398338
40	0x3c39ea34	0.011347342
41	0xbcd57f59	-0.0260617
42	0xba9f83a9	-0.0012169975
43	0xbc4a4b89	-0.012347111
44	0xbd79f90e	-0.061028533
45	0x3b1e03f8	0.0024111252
46	0xbd4f9824	-0.050682202
47	0xbd75aada	-0.05997739
48	0xbd4f9824	-0.050682202
49	0x3c933ce3	0.017973369
50	0x3c89bec4	0.016814597
51	0x3d19085a	0.03736148
52	0x3d60046b	0.054691713
53	0x3d226945	0.039651174
54	0xbb0dfd42	-0.0021665846
55	0x3bda0a77	0.0066540795
56	0x3c23fd98	0.010009192
57	0xbd88e1c8	-0.06683689
58	0x3d947f07	0.07250791
59	0xbcc37cb0	-0.023863167
60	0x3d397fd7	0.045287933
61	0x3c556774	0.013025153
62	0xbb1ee4f1	-0.0024245346
63	0x3c80a201	0.01570225
64	0xbcfb5f49	-0.030685084
65	0xbc883df2	-0.0166311
66	0xbd3e8bcf	-0.04652005
67	0x3bda98ae	0.006671033
68	0x3c4b73d8	0.012417756
69	0x3b938843	0.0045023276
70	0x3cb1fa4c	0.021725796
71	0x3ac95a53	0.0015362002
72	0xbd4ad957	-0.049523678
73	0xbb9c387e	-0.0047674766
74	0x3cb1e193	0.021714007
75	0x3c210d2e	0.009829802
76	0xbd3e8bcf	-0.04652005
77	0x3b5cae9b	0.003367341
78	0xbd813178	-0.063082635
79	0x3d5d3545	0.05400588
80	0xbe33ad59	-0.17546596
81	0xbd813a8b	-0.06309994
82	0x3d37a921	0.04483903
83	0x3c97b89a	0.018520642
84	0x3dc9be9b	0.09850808
85	0xbd822f99	-0.06356735
86	0x3d9520b5	0.07281629
87	0xbde1be5c	-0.11022636
88	0xbd5ec4d3	-0.054386925
89	0x3df7f57f	0.121073715
90	0xbe2d5749	-0.16927828
91	0x3e27a8f1	0.1637304
92	0xbcc6ef8a	-0.024284143
93	0xbb3461d0	-0.002752412
94	0x3c24fae1	0.01006958
95	0x3cf8efbc	0.030387752
96	0x3c3f9199	0.011692428
97	0x3cb23506	0.0217538
98	0xbd69b3ee	-0.05705636
99	0x3c5b5e14	0.013389129
100	0xbc8f1054	-0.01746384
101	0xbc4624d2	-0.01209374
102	0xbca3f5bf	-0.020014642
103	0xbcd8ac55	-0.026449362
104	0x3d4fbcb5	0.050717074
105	0x3d2535e2	0.04033459
106	0x3d60803c	0.054809794
107	0xbd43e8da	-0.047829486
108	0xbbe60478	-0.0070195757
109	0xbd92fec4	-0.07177499
110	0x3d0fbad9	0.0350903
111	0x3d9220fb	0.07135197
112	0xbd425f4d	-0.047454167
113	0xbd634b23	-0.055491578
114	0x3bb82bba	0.005620447
115	0x3d4b2363	0.049594294
116	0xbd2d120f	-0.04225355
117	0xbca08dda	-0.01959889
118	0x3d320af0	0.043467462
119	0x3d87966a	0.06620486
120	0xbde5783f	-0.11204576
121	0xbc84ff6c	-0.016235076
122	0xbc349c6a	-0.01102362
123	0x3db9f917	0.09080713
124	0xbd23840b	-0.039920848
125	0x3d3364c9	0.043797288
126	0x3d58d8ee	0.052941255
127	0xbdd195e0	-0.102336645
128	0xbdd195e0	-0.102336645
129	0xbd340436	-0.04394933
130	0x3d3f3eda	0.0466908
131	0xbd6178d0	-0.055046856
132	0x3d60d609	0.05489162
133	0x3d58d8ee	0.052941255
134	0x3d58d8ee	0.052941255
135	0x3c6689fb	0.014070983
136	0x3b27415a	0.002552113
137	0x3deab0d2	0.11459507
138	0xbbc00ca2	-0.005860881
139	0xbd3b85dc	-0.045781955
140	0x3d6b0e08	0.057386428
141	0x3db82f22	0.08993365
142	0xbe1404c3	-0.14454941
143	0x3d53970d	0.051657725
144	0xbd184b4a	-0.037181176
145	0xbd6178d0	-0.055046856
146	0xbdc13868	-0.09434587
147	0xbde44067	-0.11145096
148	0xbb1ee4f1	-0.0024245346
149	0x3d78eec1	0.06077457
150	0x3d243eda	0.040099002
151	0x3dafc6b4	0.085828215
152	0x3c86b775	0.016444901
153	0x3c7d4d01	0.015460254
154	0xbd78b4da	-0.06071935
155	0xbd61ed28	-0.05515781
156	0x3da37814	0.079818875
157	0x3d88d6eb	0.06681617
158	0xbd28e10f	-0.041230258
159	0x3d22e226	0.039766453
160	0x3d40fd1e	0.04711639
161	0x3d97a64e	0.07404767
162	0xbd30def4	-0.043181375
163	0xbcd972ce	-0.026544001
164	0x3cf224d1	0.029558571
165	0xbd87f924	-0.06639317
166	0x3d209f11	0.039214198
167	0x3d8ebabd	0.06969211
168	0xbba795d8	-0.0051142983
169	0x3d9ccb42	0.07655956
170	0xbc03c8d8	-0.00804349
171	0xbcb82961	-0.022480669
172	0xbd8b654d	-0.06806431
173	0xbd8a9cfc	-0.06768224
174	0xbdc91459	-0.09818334
175	0xbdc91459	-0.09818334
176	0xbd9d95bd	-0.07694576
177	0xbd8d5414	-0.06900802
178	0xbdafa5de	-0.085765585
179	0xbcc935ab	-0.024561724
180	0xbd1de651	-0.038549725
181	0xbcf5f90b	-0.03002598
182	0xbe3e2e95	-0.18572457
183	0xbd32fd87	-0.043698814
184	0xbe08c612	-0.13356808
185	0x3dc956ba	0.09830995
186	0x3bfa0644	0.0076301415
187	0xbe4a5d7b	-0.19762222

fs_lr_fs_lr_W f4 [27, 1]
0	0xbeadb55b	-0.33927426
1	0xbce58f5a	-0.028022457
2	0xbeaadc89	-0.3337138
3	0x3d24d438	0.04024145
4	0x3da8ee4f	0.08248579
5	0xbe99b453	-0.3002039
6	0x3e3f1330	0.18659663
7	0x3df41d9d	0.11919711
8	0xbe843525	-0.25821796
9	0x3deb0276	0.11475079
10	0x3d91c80b	0.07118233
11	0xbe02cca5	-0.12773378
12	0x3dca77b5	0.098861136
13	0x3dfb63ab	0.122748695
14	0x3dca77b5	0.098861136
15	0x3dca77b5	0.098861136
16	0x3e1d6908	0.15372097
17	0x3e93670e	0.28789562
18	0x3eb3ff1e	0.35155576
19	0xbe9f5b11	-0.31124166
20	0x3d157cae	0.036495857
21	0x3eb43b7d	0.35201636
22	0xbe15e79c	-0.14639133
23	0xbe1d033b	-0.15333264
24	0xbe796e71	-0.24358536
25	0x3e3baff3	0.18328838
26	0xbf1496f7	-0.58042854

fs_svc_W2_fs_svc f4 [27, 1]
0	0xbe7d2e58	-0.2472471
1	0xbbea508c	-0.007150715
2	0xbe8580d9	-0.26074865
3	0x3d662545	0.056187887
4	0x3d50e95a	0.05100379
5	0xbe9aa249	-0.3020194
6	0x3e3986b6	0.18117794
7	0x3d8b9f26	0.068174645
8	0xbe3d794b	-0.18503301
9	0x3e07fc8e	0.13279936
10	0x3cfb8f07	0.03070785
11	0xbdac646f	-0.08417594
12	0x3d9d4179	0.076785035
13	0x3dfcda41	0.12346316
14	0x3d9d4179	0.076785035
15	0x3d9d4179	0.076785035
16	0x3e095cc1	0.13414289
17	0x3e85ba0a	0.261185
18	0x3e915d49	0.28391483
19	0xbe768ce5	-0.24077184
20	0x3c28c5da	0.010301078
21	0x3e96c55e	0.29447454
22	0xbe254bf5	-0.16142257
23	0xbdf1f01b	-0.118133746
24	0xbe1fbb69	-0.15598835
25	0x3ddd6c8d	0.1081172
26	0xbee03d1d	-0.43796626

mfs_lr_mfs_lr_W f4 [27, 1]
0	0xbdf369fe	-0.11885451
1	0x3da73a5f	0.0816543
2	0xbe08db4f	-0.1336491
3	0x3db22a73	0.08699503
4	0x3d67e0a1	0.056610707
5	0xbe158837	-0.14602743
6	0xbe1d0b0d	-0.15336247
7	0xbda9b9b7	-0.082873754
8	0xbcf8bedd	-0.030364448
9	0x3e47c34f	0.19508098
10	0xbe87c123	-0.2651454
11	0x3e6aa006	0.22912607
12	0x3d851b3a	0.06499334
13	0x3dc16382	0.09442808
14	0x3dbe764f	0.09299909
15	0x3e1d5a1d	0.15366407
16	0xbd896f83	-0.06710722
17	0x3e8bf08b	0.27331957
18	0x3e81210f	0.25220534
19	0x3d9e956e	0.07743345
20	0x3c866915	0.016407529
21	0xbe3f2334	-0.18665773
22	0xbdb45bd7	-0.088065796
23	0xbc2707f0	-0.010194764
24	0x3e0b8f90	0.13628983
25	0xbea25c42	-0.31711012
26	0xbee0f806	-0.43939227

mfs_svc_W2_mfs_svc f4 [27, 1]
0	0xbdb64a5c	-0.08900902
1	0x3d62eb0c	0.05539994
2	0xbe01b15c	-0.12665313
3	0x3da8a962	0.08235432
4	0x3d53aaf6	0.051676713
5	0xbddc3dfd	-0.10754011
6	0xbdf1968b	-0.11796292
7	0xbd8f3d05	-0.069940604
8	0xbcada3ce	-0.021196272
9	0x3e222be7	0.1583706
10	0xbe643921	-0.22287418
11	0x3e47fe1c	0.19530529
12	0x3d2be889	0.04196981
13	0x3da402ba	0.080083326
14	0x3db0e334	0.086370856
15	0x3e00ae54	0.12566501
16	0xbda80cb3	-0.08205547
17	0x3e668606	0.22512063
18	0x3e5aea60	0.2137847
19	0x3d60b9ae	0.054864578
20	0x3ceb8bf2	0.028753255
21	0xbe28dfd5	-0.16491635
22	0xbd933f21	-0.07189775
23	0xbc962f28	-0.018333033
24	0x3df5f0e4	0.12008837
25	0xbe8ed67a	-0.27898008
26	0xbec152f1	-0.37758592

lv_lr_lv_lr_W f4 [33, 1]
0	0xbe724f80	-0.2366314
1	0xbe7e164c	-0.24813193
2	0x3c48d1de	0.0122570675
3	0xbe08a214	-0.13343078
4	0x3ddbdc62	0.10735394
5	0xbe903e44	-0.28172505
6	0x3c82aded	0.015952075
7	0xbd757298	-0.05992374
8	0x3dd626d0	0.10456622
9	0xbe95c74e	-0.2925362
10	0xbdaa5262	-0.083164945
11	0xbe476c96	-0.19475016
12	0xbe9cd44f	-0.3063073
13	0xbcef4b19	-0.029210614
14	0xbe9245d3	-0.28568897
15	0x3e60fbfc	0.21971124
16	0x3c388ef5	0.011264552
17	0x3e00451f	0.12526368
18	0x3e8f2a09	0.27961758
19	0x3c49d98c	0.012319934
20	0xbe5fcef1	-0.21856286
21	0x3e5abb29	0.21360458
22	0xbe78dd36	-0.24303135
23	0xbe59ed1e	-0.2128186
24	0x3e42c66a	0.19021001
25	0xbe93e538	-0.28885818
26	0x3d58f7d8	0.052970737
27	0xbe123080	-0.14276314
28	0x3ca1559a	0.019694138
29	0xbd573de3	-0.052549254
30	0xbe404bb6	-0.18778881
31	0xbe833aec	-0.2563089
32	0x3e551a18	0.20810735

lv_svc_W2_lv_svc f4 [33, 1]
0	0xbdef2a9b	-0.11678048
1	0xbe225a21	-0.15854694
2	0x3cbf470c	0.023349307
3	0xbd5ad18b	-0.053422492
4	0x3d8aff5d	0.06786988
5	0xbdf8c229	-0.12146408
6	0x3c432cc8	0.011912532
7	0xbc618764	-0.01376519
8	0x3d03d045	0.032181043
9	0xbe25fb77	-0.16209207
10	0xbd4db154	-0.05021794
11	0xbde19183	-0.11014082
12	0xbe2c71ec	-0.16840333
13	0xb9f54e59	-0.00046788415
14	0xbe38b5ac	-0.18038052
15	0x3dd47ccb	0.10375365
16	0xbd015482	-0.031574734
17	0x3d55e10d	0.05221658
18	0x3e31b9d9	0.17356052
19	0x3cc9dd7c	0.024641745
20	0xbdd7fa89	-0.10545833
21	0x3dfb8c63	0.12282636
22	0xbe10ac1c	-0.14128155
23	0xbdfb341e	-0.122658
24	0x3de78675	0.113049425
25	0xbe024ed7	-0.12725388
26	0x3d06100b	0.032730144
27	0xbd80a291	-0.06281007
28	0x3c8316cf	0.016002087
29	0xbcd6abfb	-0.026205054
30	0xbd9ef662	-0.077618375
31	0xbe1df2b0	-0.15424609
32	0x3d972e71	0.07381905

lv_mlp_net.0.weight f4 [11, 33]
0	0xbea0b394	-0.31387007
1	0xbe92de01	-0.28685
2	0xbe467fc9	-0.19384684
3	0xbd0219cc	-0.031762883
4	0x3ee8a9e9	0.4544213
5	0xbe1ab50f	-0.15108131
6	0xbea67055	-0.32507578
7	0x3e069bda	0.1314539
8	0xbb26c04a	-0.0025444203
9	0xbee55545	-0.44791618
10	0x3dddf545	0.10837797
11	0xbd45d23e	-0.048296206
12	0xbeaf8706	-0.34282702
13	0xbdba572a	-0.090986565
14	0xbdbd3a11	-0.09239591
15	0xbd131afd	-0.03591441
16	0xbec03c95	-0.3754622
17	0x3eaeb0ac	0.34119165
18	0x3daeabb9	0.08528847
19	0x3e39b94a	0.18137088
20	0x3e2dc266	0.16968688
21	0xbd01ca15	-0.03168686
22	0xbec0d024	-0.376588
23	0xbe83c732	-0.2573791
24	0x3e09f026	0.13470516
25	0xbdcd2e41	-0.10018588
26	0x3e1847db	0.1487116
27	0xbf539537	-0.8264956
28	0x3e3645af	0.1780002
29	0xbc8d2586	-0.017229807
30	0x3d8bd4e4	0.06827715
31	0xbea07d16	-0.31345433
32	0xbc573a2d	-0.013136429
33	0xbe27f4c6	-0.16401967
34	0xbe4a52b9	-0.19758119
35	0xbec7152c	-0.3888334
36	0xbe9cf28b	-0.30653796
37	0x3ebbf247	0.3670828
38	0x3d2e12ec	0.042498514
39	0x3eae9d1d	0.34104243
40	0xbdad29d2	-0.08455242
41	0xbbb9b339	-0.005667117
42	0xbe827cd7	-0.2548587
43	0xbdf28b9b	-0.11843034
44	0xbe239a9a	-0.15976945
45	0x3e12a6b3	0.14321403
46	0xbe424cce	-0.18974611
47	0xbedaede6	-0.42759627
48	0x3e9a7089	0.30163983
49	0x3d876ad7	0.06612175
50	0xbd159768	-0.036521345
51	0x3e819213	0.25306758
52	0x3d4322d8	0.04764065
53	0x3d144f16	0.036208235
54	0x3e68b231	0.22724225
55	0x3d87c354	0.06629053
56	0xbd98b7af	-0.0745691
57	0x3e05b2b0	0.13056445
58	0xbdbd973c	-0.09257361
59	0x3d1746a8	0.036932617
60	0xbf18afea	-0.59643424
61	0x3e1bcb06	0.15214166
62	0x3ea8b9f6	0.32954377
63	0xbe1239e4	-0.14279896
64	0x3db4371e	0.08799575
65	0x3e1ad0db	0.15118735
66	0x3ec3e688	0.3826182
67	0x3e823f9b	0.25439152
68	0xbdecfd2d	-0.11571727
69	0x3e05062d	0.12990637
70	0xbdd241a7	-0.102664284
71	0x3e823115	0.25428072
72	0xbeacfb41	-0.33785442
73	0x3e8a8eff	0.27062222
74	0xbe2112c2	-0.15729812
75	0x3e45f5ae	0.19332
76	0x3d6fe78b	0.058570426
77	0x3e7b97ec	0.24569672
78	0x3e5d32d8	0.21601427
79	0xbcbba635	-0.022906402
80	0x3f11b2a2	0.569132
81	0xbec0cc8f	-0.37656066
82	0xbda186b1	-0.078870185
83	0x3e3d9a43	0.18515877
84	0x3ba3aa9b	0.004994703
85	0xbe248c80	-0.16069221
86	0x3f0b7a33	0.54483336
87	0xbeae7278	-0.34071708
88	0x3dc1439e	0.09436725
89	0x3e82b22d	0.25526562
90	0xbdca4d95	-0.09878079
91	0xbdef7f3c	-0.1169419
92	0x3dde0dc9	0.10842473
93	0x3ec5b817	0.38617012
94	0x3eb8afac	0.36071527
95	0x3e4393ec	0.19099396
96	0x3d9e6253	0.077335976
97	0x3ecce267	0.4001648
98	0x3e499d3a	0.19688883
99	0xbe45c61c	-0.19313854
100	0x3eae1fdc	0.34008682
101	0x3e538a96	0.20658335
102	0xbcad2c89	-0.0211394
103	0xbf237722	-0.6385366
104	0xbd11f570	-0.035634458
105	0x3e84208e	0.25806087
106	0xbe6fe48b	-0.23427026
107	0xbe9f088b	-0.31061205
108	0xbda5eac0	-0.08101416
109	0x3da7e3ad	0.081977226
110	0xbd76bea7	-0.060240414
111	0x3f271897	0.65271896
112	0x3d179b36	0.037013255
113	0x3d264806	0.04059603
114	0x3dbc558e	0.09196006
115	0xbe64c0f1	-0.22339226
116	0x3d71df32	0.059050746
117	0x3d99bfde	0.07507299
118	0x3e28aefe	0.16473004
119	0x3f48d827	0.7845482
120	0xbe902b72	-0.28158146
121	0x3dd6ab95	0.104819454
122	0xbbf32896	-0.0074206097
123	0xbec9eae2	-0.39437014
124	0x3e82dd56	0.2555949
125	0x3ebd10a7	0.36926767
126	0x3e1a98bc	0.15097326
127	0xbd1031e2	-0.035203822
128	0x3d8f9a5c	0.070118636
129	0xbe40ef92	-0.18841389
130	0x3d61f7d7	0.055168
131	0x3cf6bf3b	0.030120483
132	0xbe9942f1	-0.29933885
133	0xbd9ebb5a	-0.07750578
134	0xbe0e1fe5	-0.13879354
135	0x3e0e6666	0.1390625
136	0x3e0338a7	0.1281458
137	0xbe79506f	-0.24347089
138	0xbec4fb09	-0.38472775
139	0xbe350aec	-0.17679948
140	0xbd134edc	-0.035963878
141	0xbeba68cd	-0.36408082
142	0x3dc78f20	0.09744096
143	0xbc2c174d	-0.010503602
144	0xbe962b0c	-0.29329717
145	0x3d2b6a14	0.04184921
146	0x3d51a747	0.05118492
147	0x3dbb7e7c	0.09154984
148	0xbdd71820	-0.10502648
149	0x3ea14ad5	0.31502405
150	0x3e999a6f	0.30000636
151	0x3d961444	0.07328084
152	0xbdfa4b53	-0.12221398
153	0xbe20d0b9	-0.15704621
154	0xbe51ded7	-0.20495163
155	0xbdfd88c9	-0.12379605
156	0x3e7266d6	0.23672041
157	0xbc9107fe	-0.017704006
158	0x3e22c1d6	0.15894255
159	0xbe4f7f5f	-0.20263432
160	0xbe058f23	-0.13042884
161	0x3daf9b65	0.08574561
162	0x3de7a17e	0.11310099
163	0xbdac7f1e	-0.08422683
164	0xbddc0d5e	-0.10744737
165	0x3ecda698	0.40166163
166	0x3f277bbe	0.6542319
167	0xbd756aa0	-0.05991614
168	0x3e45b63c	0.19307798
169	0x3dca4ed0	0.098783135
170	0x3dfe0ae6	0.124044225
171	0xbcb2b802	-0.021816257
172	0xbeb8c760	-0.3608961
173	0x3ebeef6c	0.3729204
174	0x3e5dad59	0.21648158
175	0x3f139807	0.5765385
176	0x3e5a3007	0.21307383
177	0x3dc497a1	0.095992334
178	0x3de116a5	0.10990647
179	0x3eba24bf	0.3635616
180	0xbed1614d	-0.40894547
181	0x3d90a860	0.07063365
182	0xbdee4c81	-0.11635686
183	0xbf284cc7	-0.6574215
184	0xbe4f16fc	-0.20223612
185	0x3eab789d	0.33490458
186	0xbf0c86cd	-0.5489319
187	0x3e0753f7	0.13215624
188	0x3e338328	0.17530501
189	0x3c7c3559	0.015393578
190	0x3dabd55e	0.08390306
191	0xbe743802	-0.2384949
192	0xbedef37e	-0.43545145
193	0x3ed3981a	0.41326982
194	0x3dfd3110	0.123628736
195	0x3ec39ded	0.38206425
196	0x3f1e559a	0.6184937
197	0xbe65b624	-0.22432762
198	0x3eead0ec	0.4586252
199	0xbe2d312f	-0.16913293
200	0x3d45a241	0.04825044
201	0x3ecf1dfa	0.40452558
202	0x3d0a354f	0.033742245
203	0x3f125313	0.5715801
204	0xbdbd9687	-0.092572264
205	0x3e9e49ef	0.30915782
206	0xbe9fb75e	-0.31194586
207	0x3e5275b2	0.2055271
208	0x3e512ce9	0.20427288
209	0x3c71e45e	0.01476392
210	0xbd311c1b	-0.043239694
211	0xbd1921ef	-0.037385877
212	0x3f02b36c	0.51055026
213	0xbec8bb60	-0.39205456
214	0x3f0feed4	0.562238
215	0xbea3b945	-0.31977287
216	0xbe9fb5ab	-0.3119329
217	0x3dab0215	0.083500065
218	0xbe7f1d7d	-0.24913593
219	0xbe554389	-0.20826544
220	0xbe36de59	-0.17858256
221	0x3d804b28	0.06264335
222	0xbdb37547	-0.08762603
223	0xbdc92fe5	-0.09823588
224	0xbd1772c7	-0.036974695
225	0xbe904c54	-0.28183234
226	0xbe8555f3	-0.26042137
227	0xbdb96fbe	-0.09054516
228	0x3f08a074	0.5336983
229	0x3f01d66a	0.50717795
230	0xbeb7366c	-0.35783708
231	0xbe64244f	-0.22279476
232	0xbdc432fa	-0.095800355
233	0x3e9a4e10	0.30137682
234	0xbe688a40	-0.22708988
235	0x3d66337e	0.05620145
236	0xbdf9874a	-0.121840075
237	0xbedef189	-0.43543652
238	0xbca2c02b	-0.019867023
239	0xbd2151a4	-0.0393845
240	0xbea81195	-0.32825914
241	0xbc81b2f6	-0.015832406
242	0xbd8ed10c	-0.06973466
243	0xbee795d3	-0.45231494
244	0x3da4ac19	0.080406375
245	0xb8b8981a	-8.802135e-05
246	0xbdb265a9	-0.087107964
247	0xbeb39e9d	-0.3508195
248	0x3e858187	0.26075384
249	0x3e7b914c	0.24567145
250	0xbcd5e67d	-0.026110882
251	0x3d010277	0.03149649
252	0xbe56b31c	-0.20966762
253	0xbed75e71	-0.4206424
254	0xbe7d30bc	-0.24725622
255	0x3e6e370e	0.23263189

lv_mlp_net.0.bias f4 [11]
0	0xbed90402	-0.4238587
1	0xbeec076a	-0.46099406
2	0xbcc45b35	-0.023969272
3	0xbedee5a1	-0.43534568
4	0xbf197737	-0.5994753
5	0x3e2351bd	0.1594915
6	0xbe50d44c	-0.20393485
7	0xbf0d213e	-0.5512885
8	0xbd76bce0	-0.06023872
9	0xbeb99002	-0.36242682
10	0xbef78f63	-0.48351583

lv_mlp_net.3.weight f4 [1, 11]
0	0x3e6dacaa	0.23210397
1	0x3e91640f	0.2839665
2	0xbeea1efc	-0.45726764
3	0xbf1beee2	-0.6091138
4	0x3e9d13bb	0.30679116
5	0xbf36ca65	-0.7140258
6	0xbf43141d	-0.76202565
7	0x3eb1927a	0.34682065
8	0xbeb7865b	-0.35844693
9	0x3e55690d	0.20840855
10	0x3eaa63eb	0.33279356
